GNN/ssl_model.pth (torch, 419677 bytes, 14 tensors)

gnn.input_layer.att_src f4 [1, 1, 128]
-0.09432453 0.14525898 0.17705226 -0.14892037 -0.11459635 -0.19480367 0.19703943 0.10114999
0.10738069 -0.006906233 0.086689904 0.119069636 0.10014277 0.15327191 0.19188216 -0.12737615
-0.16969916 -0.13469134 0.19424148 0.14100645 -0.10173738 -0.16558829 0.17441346 -0.091796264
-0.16631147 0.03328483 -0.16484061 -0.04235627 -0.1692413 0.10628015 0.13115421 -0.13836262
-0.18179351 -0.080215015 -0.13255614 -0.11256724 0.13996783 -0.107297726 -0.039146755 0.17048597
0.06404568 -0.1992716 0.07650255 0.04936725 0.113834925 0.1737813 -0.14504139 0.10798066
0.029106747 -0.12869366 0.13635795 0.10130366 0.1085976 -0.11542735 -0.2000079 -0.11233219
0.091948636 0.19448625 0.13383871 0.09416127 -0.15533051 0.032055758 0.060656846 0.14978771
-0.07483388 0.0656847 0.00921775 -0.17234135 0.16708255 0.21106294 0.16448072 -0.0274174
-0.16169816 -0.122866325 0.07235675 0.048176467 -0.04518504 -0.19522066 -0.018905483 0.15439564
0.060082626 -0.025200123 0.18682384 0.051007602 -0.07166471 0.03950079 0.20553888 0.053593177
0.100604236 -0.13941918 0.19789548 0.035051312 -0.0932285 -0.07403304 -0.074242555 -0.063140765
0.13473025 0.036237597 0.1410142 -0.15530153 0.17211954 -0.04341863 -0.112951174 0.19761895
-0.0066397055 -0.08899664 -0.058074772 -0.16999097 -0.00023773272 -0.13261136 -0.211372 0.027245333
0.106159426 0.08696494 -0.15500984 0.2050768 0.18979372 -0.118756615 0.1696917 -0.18287447
0.072173685 -0.18662521 0.10133969 -0.012472336 -0.17187737 0.004441069 -0.06786633 -0.14343458
00000000: 382d c1bd c5be 143e 304d 353e 957e 18be
00000010: 7eb1 eabd 9d7a 47be b4c4 493e ba27 cf3d
00000020: 68ea db3d ae4d e2bb 7a8a b13d c8da f33d
00000030: a717 cd3d 50f3 1c3e c27c 443e e56e 02be
00000040: 9ec5 2dbe 87ec 09be 3de7 463e ff63 103e
00000050: b05b d0bd fa8f 29be 7199 323e aeff bbbd
00000060: 8e4d 2abe ad55 083d facb 28be c57d 2dbd
00000070: 974d 2dbe 68a9 d93d 4a4d 063e eeae 0dbe
00000080: 1428 3abe c547 a4bd ccbc 07be a789 e6bd
00000090: ba53 0f3e e9be dbbd 5958 20bd e093 2e3e
000000a0: 622a 833d db0d 4cbe 5ead 9c3d 5035 4a3d
000000b0: 4922 e93d baf3 313e bb85 14be f724 dd3d
000000c0: 4671 ee3c 45c8 03be 6ba1 0b3e 4b78 cf3d
000000d0: 6b68 de3d 2d65 ecbd dfce 4cbe 6b0e e6bd
000000e0: 914f bc3d 6727 473e 040d 093e a0d7 c03d
000000f0: f60e 1fbe e64c 033d 5073 783d f361 193e
00000100: 8142 99bd b385 863d 0c06 173c 407a 30be
00000110: b017 2b3e e220 583e a26d 283e 759a e0bc
00000120: 3494 25be 57a1 fbbd c72f 943d b054 453d
00000130: f313 39bd ede7 47be acdf 9abc e419 1e3e
00000140: 3319 763d 7d70 cebc c04e 3f3e 59ed 503d
00000150: f3c4 92bd 95cb 213d c978 523e 8584 5b3d
00000160: 9809 ce3d e7c3 0ebe 1da5 4a3e f791 0f3d
00000170: 95ee bebd a29e 97bd 7b0c 98bd f24f 81bd
00000180: baf6 093e e06d 143d 0766 103e 5d07 1fbe
00000190: 1b40 303e bcd7 31bd f252 e7bd 9f5c 4a3e
000001a0: e391 d9bb df43 b6bd d0df 6dbd 1d12 2ebe
000001b0: e447 79b9 46cb 07be e771 58be 9b31 df3c
000001c0: 1d6a d93d ad1a b23d e6ba 1ebe a7ff 513e
000001d0: 4959 423e ab36 f3bd a9c3 2d3e 7243 3bbe
000001e0: cccf 933d ae1a 3fbe 2f8b cf3d c558 4cbc
000001f0: 9f00 30be 6386 913b 81fd 8abd 84e0 12be

gnn.input_layer.att_dst f4 [1, 1, 128]
0.09475857 -0.025565846 0.09289598 0.19492063 -0.12047679 -0.14787865 0.1052466 -0.08477453
-0.04955575 0.077691406 -0.13183053 -0.12264613 -0.060914315 -0.13027072 -0.022619609 0.11694834
-0.19481456 0.013331893 0.17267437 -0.17795382 -0.11654684 0.054010637 -0.15539156 -0.19157012
-0.037840568 -0.14568841 -0.00067809835 0.12048826 -0.16785449 -0.07643487 -0.047157306 0.1746356
-0.13059558 0.058729563 0.17745388 0.017624343 -0.0034716227 0.06559809 0.18927704 -0.04268944
0.099772595 -0.118807666 0.01940484 -0.20726109 -0.15051353 -0.18804158 -0.058993805 0.18625773
-0.19737834 0.13260685 0.043387458 -0.20353657 0.118605256 -0.023582224 -0.00072343275 -0.13786215
-0.16948137 -0.18427137 0.009613467 0.057240184 -0.06384411 -0.06889609 -0.15024957 -0.19745827
0.16300893 -0.08068046 -0.022270162 0.181064 0.1943542 -0.06706354 -0.101238556 0.17100139
-0.0032864215 -0.06657765 0.19226144 0.004043717 0.13979031 0.1417268 0.08102469 0.1271076
0.19316667 0.061935764 0.044277377 0.21056627 0.16923359 -0.056438953 -0.08339369 -0.020353299
0.106587544 0.14755264 0.16247438 0.16050927 0.18952417 0.07978768 -0.15405971 -0.121326596
-0.07857202 0.09866819 -0.15443231 0.10322091 -0.14924961 -0.18950726 -0.20114055 0.09788844
0.16863011 0.08943981 -0.080381006 0.03363369 -0.17522995 0.058365915 0.12108745 0.036216788
-0.033955857 0.16086106 -0.18324132 0.075616434 -0.06376858 -0.20800605 0.108248636 -0.07744893
-0.06915187 -0.016238859 0.15000726 -0.08361426 0.10221308 -0.20623526 0.12626538 0.06592989
00000000: c810 c23d 776f d1bc 3f40 be3d 4699 473e
00000010: 89bc f6bd 806d 17be 888b d73d 459e adbd
00000020: f8fa 4abd ac1c 9f3d 95fe 06be e52d fbbd
00000030: 4a81 79bd b065 05be c24c b9bc 9c82 ef3d
00000040: 787d 47be 036e 5a3c 8dd1 303e 8739 36be
00000050: 1cb0 eebd 423a 5d3d f71e 1fbe f52a 44be
00000060: b6fe 1abd 582f 15be 69c2 31ba 8dc2 f63d
00000070: 0ce2 2bbe e389 9cbd 0528 41bd add3 323e
00000080: d9ba 05be 698e 703d 78b6 353e ed60 903c
00000090: 2a84 63bb 4b58 863d d7d1 413e 1fdb 2ebd
000000a0: 9355 cc3d 6f51 f3bd e6f6 9e3c 403c 54be
000000b0: 3820 1abe f98d 40be 7da3 71bd 59ba 3e3e
000000c0: 8c1d 4abe 17ca 073e 0cb7 313d e46b 50be
000000d0: 50e7 f23d 822f c1bc c0a4 3dba bc2b 0dbe
000000e0: 868c 2dbe a2b1 3cbe ce81 1d3c af74 6a3d
000000f0: b3c0 82bd 6519 8dbd 06db 19be 8032 4abe
00000100: d0eb 263e cc3b a5bd ea6f b6bc d768 393e
00000110: ca04 473e 9c58 89bd 2956 cfbd fd1a 2f3e
00000120: 0161 57bb dd59 88bd 2fe0 443e 2881 843b
00000130: 3125 0f3e d520 113e 46f0 a53d 7f28 023e
00000140: 7ccd 453e 5bb0 7d3d 325c 353d af9e 573e
00000150: 924b 2d3e 882c 67bd 50ca aabd f6bb a6bc
00000160: 924a da3d 0a18 173e af5f 263e 8b5c 243e
00000170: a012 423e b967 a33d d4c1 1dbe 147a f8bd
00000180: 5eea a0bd 8c12 ca3d 8123 1ebe 7c65 d33d
00000190: e4d4 18be 310e 42be caf7 4dbe bc79 c83d
000001a0: 5fad 2c3e 382c b73d cc9e a4bd 7bc3 093d
000001b0: 7b6f 33be 1911 6f3d b2fc f73d 0e58 143d
000001c0: 4c15 0bbd c3b8 243e 9da3 3bbe cadc 9a3d
000001d0: 1a99 82bd 8aff 54be 76b1 dd3d 8b9d 9ebd
000001e0: 7f9f 8dbd 5b07 85bc 819b 193e f43d abbd
000001f0: 1755 d13d 562f 53be b64b 013e 4006 873d

gnn.input_layer.bias f4 [128]
-0.006686024 -0.004776895 0.0017674975 0.003979285 0.003473087 -0.0050551174 0.0029590453 -0.00159933
-0.0013169732 0.00013234044 0.0021372305 -0.0008655846 0.00031841727 -0.0053061405 0.0010291503 9.114563e-06
-0.0006980075 -0.0033154525 0.0021067567 -0.0019666476 -0.00057509285 0.003709053 -0.0045976588 0.0022594132
0.0016209504 -0.0044300677 -0.00011719094 0.0013936921 0.003684067 -0.003983473 -0.0009384033 -0.0029672075
0.002565614 -0.002229078 -0.0038509902 -0.0027789932 -0.0041999267 0.00011853548 -0.0010871083 -0.0047620083
0.0009533985 0.0028804927 -0.0020915938 0.0015752945 0.003754067 -0.0070935898 -0.0038295619 -0.0045722476
0.0014212916 -0.00020360232 -0.0027186617 -0.0022674033 -0.0048202244 0.0011935853 0.0009173688 0.0028284006
0.0007293444 0.00027485786 0.0011295713 -0.0010944478 0.0035074688 -0.0013434985 0.0018270367 -0.0043456513
0.003345817 -0.00031465123 -0.005417955 0.0036001676 -0.0034223613 -0.005137722 0.00094257604 -0.004420774
-0.0002463875 -0.0007201669 0.00072187145 -0.000522669 -0.0053082597 -0.0007782113 0.0010213937 -0.0005896251
-0.0014657112 0.0032791006 -0.0004146801 -0.0003097083 -0.0033247208 0.0015202858 -0.0033543203 -0.002049456
0.00033889347 -0.0030660527 0.0019749042 -0.0021109106 -0.0056521157 -0.0032763295 -0.0012374229 0.001474519
-0.00025577476 0.00057684944 0.0005217212 -0.0024982477 -0.0030171808 0.000872406 0.00069644215 -0.0021032682
0.00024726806 -0.0076170303 -0.0035309154 5.795271e-06 -0.0008810614 -0.005223989 0.00035263452 0.0014224235
-0.00073273503 0.0011985976 0.0010038959 0.0011864365 -0.00067000376 -0.0016421675 -0.0025969013 0.002696573
-0.0012647905 -0.0016266679 -0.001729314 -0.0027062732 -0.0015630436 0.0042636804 -0.0022633781 -0.0015681356
00000000: 6f16 dbbb 8087 9cbb 60ab e73a a964 823b
00000010: bb9c 633b 66a5 a5bb 8bec 413b 9ca0 d1ba
00000020: 4a9e acba dec4 0a39 c710 0c3b 66e8 62ba
00000030: 3ef1 a639 22df adbb 8ee4 863a c0ea 1837
00000040: 7efa 36ba 1048 59bb 8311 0a3b dfe2 00bb
00000050: d4c1 16ba 9513 733b f5a7 96bb aa12 143b
00000060: 1276 d43a 1a2a 91bb 68c4 f5b8 8cac b63a
00000070: 6370 713b cb87 82bb 2eff 75ba 7b75 42bb
00000080: dc23 283b b915 12bb e560 7cbb c51f 36bb
00000090: 8a9f 89bb 4096 f838 4d7d 8eba 9f0a 9cbb
000000a0: 7eed 793a a6c6 3c3b 1f13 09bb 1d7a ce3a
000000b0: cb06 763b 5871 e8bb 63f9 7abb cbd2 95bb
000000c0: a24a ba3a 157e 55b9 932b 32bb b798 14bb
000000d0: f9f2 9dbb 1472 9c3a 947b 703a b05c 393b
000000e0: 7931 3f3a cc1a 9039 200e 943a 9373 8fba
000000f0: 90dd 653b 5418 b0ba 2e79 ef3a f765 8ebb
00000100: 7f45 5b3b c6f7 a4b9 1a89 b1bb caf0 6b3b
00000110: b249 60bb 565a a8bb 3517 773a 24dc 90bb
00000120: 922d 81b9 95c9 3cba f93b 3d3a b903 09ba
00000130: e9f0 adbb e000 4cba 49e0 853a 1291 1aba
00000140: 1b1d c0ba 2ee6 563b 6c69 d9b9 5860 a2b9
00000150: 8fe3 59bb 5444 c73a 28d4 5bbb 2a50 06bb
00000160: 83ad b139 d4ef 48bb 656d 013b 3457 0abb
00000170: 6235 b9bb b0b7 56bb 0631 a2ba a644 c13a
00000180: 8219 86b9 b637 173a 1ec4 083a a4b9 23bb
00000190: e5bb 45bb 2db2 643a 7191 363a fcd6 09bb
000001a0: c2a3 8139 4898 f9bb ee66 67bb 0075 c236
000001b0: 08f7 66ba ff2d abbb cee1 b839 9d70 ba3a
000001c0: 0415 40ba 431a 9d3a 2895 833a 3482 9b3a
000001d0: 31a3 2fba ff3d d7ba c630 2abb fdb8 303b
000001e0: 54c7 a5ba eb35 d5ba 26aa e2ba bb5b 31bb
000001f0: 0adf ccba 58b6 8b3b 2f55 14bb e689 cdba

gnn.input_layer.lin_src.weight f4 [128, 613]
0.012320156 0.010699702 -0.0034986779 -0.05948405 0.05513516 -0.08734973 0.024149098 0.0375108
-0.011461459 0.08608752 -0.045329105 -0.07956889 0.01723021 0.08315948 -0.003179516 0.05220958
0.03607797 -0.00034202426 0.001536961 -0.093384065 0.047511104 0.066068105 -0.06747958 0.025131317
-0.088605136 0.029773962 -0.06372723 -0.06621434 0.077047445 0.07494767 -0.06816047 -0.016638488
-0.06455606 0.020091325 0.074269444 -0.06695866 -0.046754025 -0.026442284 -0.037975144 0.04003469
-0.06401727 0.062861346 0.0546426 0.068441525 0.049083095 0.046766173 0.06188191 0.017156135
0.0112655675 -0.035399012 -0.0689401 -0.018489268 0.0030629837 0.034976058 -0.001324211 -0.023460735
-0.047011595 0.048830412 0.061831113 -0.0033106233 -0.01044761 0.05150175 0.02563155 -0.05265005
0.0322157 -0.033257376 -0.07005529 -0.053480044 0.035524525 0.03520791 0.061312098 0.02878369
0.01214195 -0.08761199 -0.008710376 0.004172543 -0.037780248 -0.026124578 -0.0007546772 0.0009653926
-0.051091883 0.060514588 0.06290949 0.011283307 -0.08030369 -0.031446327 -0.08279471 -0.03125238
-0.049244005 0.033050444 -0.069696754 -0.086601116 -0.06393316 0.06583527 -0.041675244 0.06481928
-0.048774257 0.06982479 0.009450377 -0.0049237446 -0.06506568 0.08678393 0.033618268 -0.050557297
-0.09277584 0.0032939168 -0.05573463 0.07567646 0.03873568 0.062745474 0.052224863 0.07789626
-0.050059106 -0.079066485 -0.08320846 -0.056396767 -0.032472607 -0.038105056 -0.08560862 -0.041291073
0.06356093 0.023862883 -0.036367595 0.019998962 -0.06955477 0.0653957 0.008114076 0.050441835
0.060930505 -0.0025593226 -0.053067666 -0.07372788 -0.082301095 -0.07068223 0.06928834 0.021032166
0.06176886 -0.008363978 -0.0513616 -0.05731247 0.07476885 0.078951396 -0.07222043 0.019267904
-0.079993665 0.050551925 0.05090975 0.0016114671 0.04597314 -0.018228902 0.051742684 0.06378079
-0.028619574 -0.06954215 -0.005726203 0.064255014 0.059783336 0.078569286 -0.059913676 -0.0015316668
0.023908896 -0.052866746 -0.044204812 0.040973037 -0.0045219134 0.054789267 -0.05420875 0.056088354
-0.09159868 0.07450342 0.025314942 0.040992398 -0.036984187 -0.07449563 0.009906516 0.047415014
-0.02729689 -0.089054786 -0.059489124 0.038605683 0.00021234064 0.053515315 -0.017749628 -0.07313149
-0.08400637 -0.06205084 0.073246635 0.01602408 -0.0593718 -0.046609133 0.041873045 -0.034612447
-0.09157708 0.033892475 -0.04750453 -0.011687347 0.015112283 -0.01963755 0.044359494 -0.054529384
0.034830395 0.084277645 0.068531394 0.04893931 -0.046752095 0.08771675 0.0499266 -0.018525314
0.00026614452 0.038190816 -0.08416624 0.004784668 0.080608144 0.049004856 -0.0763337 -0.05166266
0.033528134 -0.015246851 -0.019555148 0.03861237 0.001511018 -0.045891736 0.07253453 -0.039660085
-0.08662507 -0.06557853 -0.040144194 -0.06592548 0.05231486 -0.08967944 0.06292572 0.050071493
-0.09497006 -0.02028563 -0.087286495 0.012413609 -0.01084071 0.046251554 0.03326059 -0.0017139968
-0.09589603 -0.011410035 -0.039671663 0.034300707 -0.061332427 0.0076764505 0.05658755 0.049414124
-0.024395822 0.014026012 -0.045087915 0.048291124 0.06375053 0.07252508 0.039265282 -0.05947965
00000000: 7bda 493c ce4d 2f3c 134a 65bb 8ca5 73bd
00000010: 68d5 613d 6ae4 b2bd 54d4 c53c eda4 193d
00000020: d8c8 3bbc a74e b03d 03ab 39bd 04f5 a2bd
00000030: 5f26 8d3c 844f aa3d 6d5f 50bb b6d9 553d
00000040: 7ec6 133d b851 b3b9 da73 c93a 2540 bfbd
00000050: 019b 423d b74e 873d bc32 8abd 31e0 cd3c
00000060: 9c76 b5bd 86e8 f33c 6c83 82bd 629b 87bd
00000070: 0dcb 9d3d 2a7e 993d b797 8bbd 704d 88bc
00000080: f835 84bd 9096 a43c 941a 983d 9f21 89bd
00000090: 2681 3fbd 7d9d d8bc d38b 1bbd 6afb 233d
000000a0: 7d1b 83bd 73bd 803d ebd0 5f3d 122b 8c3d
000000b0: 5b0b 493d e38d 3f3d e377 7d3d 068b 8c3c
000000c0: 3793 383c 8efe 10bd 7830 8dbd ce76 97bc
000000d0: 57bc 483b 0e43 0f3d 2691 adba ba30 c0bc
000000e0: 3b8f 40bd 6602 483d 9f42 7d3d 0bf7 58bb
000000f0: 742c 2bbc 80f3 523d 42f9 d13c 94a7 57bd
00000100: 9cf4 033d e338 08bd 2679 8fbd e40d 5bbd
00000110: 2a82 113d 2b36 103d 6522 7b3d c6cb eb3c
00000120: 08ef 463c ea6d b3bd f7b5 0ebc d4b9 883b
00000130: 76bf 1abd 3603 d6bc 88d5 45ba 6712 7d3a
00000140: b945 51bd 25de 773d b1d6 803d 9fdd 383c
00000150: 4376 a4bd ddcd 00bd 4690 a9bd 7f02 00bd
00000160: 15b4 49bd e75f 073d 2cbd 8ebd ed5b b1bd
00000170: 63ef 82bd a4d4 863d a9b3 2abd f8bf 843d
00000180: 84c7 47bd 4d00 8f3d c1d5 1a3c 5d57 a1bb
00000190: 2841 85bd c6bb b13d 4fb3 093d 2b15 4fbd
000001a0: 4201 bebd c1de 573b ff49 64bd 43fc 9a3d
000001b0: 4ea9 1e3d b380 803d bde9 553d 1388 9f3d
000001c0: c70a 4dbd 9ced a1bd 3269 aabd 4c00 67bd
000001d0: ff01 05bd 0c14 1cbd 9253 afbd d420 29bd
000001e0: 3c2c 823d 187c c33c 30f6 14bd ddd4 a33c
000001f0: bb72 8ebd 2eee 853d e7f0 043c 199c 4e3d
00000200: 4492 793d 4fba 27bb 7b5d 59bd a5fe 96bd
00000210: 7a8d a8bd d8c1 90bd 0ce7 8d3d a64b ac3c
00000220: 5801 7d3d 1109 09bc 8b60 52bd 7bc0 6abd
00000230: 6920 993d 45b1 a13d 4ee8 93bd b9d7 9d3c
00000240: b8d3 a3bd 890f 4f3d be86 503d dd37 d33a
00000250: 554e 3c3d c754 95bc 23f0 533d 819f 823d
00000260: 9973 eabc 1d6c 8ebd dfa2 bbbb 2298 833d
00000270: 5fdf 743d efe8 a03d 0b68 75bd 36c2 c8ba
00000280: 97dc c33c cd8a 58bd 1b10 35bd 58d3 273d
00000290: 8f2c 94bb b66a 603d ff09 5ebd e7bc 653d
000002a0: 1798 bbbd 4095 983d 4861 cf3c a5e7 273d
000002b0: bb7c 17bd 2a91 98bd f14e 223c 3f36 423d
000002c0: ba9d dfbc 5b62 b6bd deaa 73bd fe20 1e3d
000002d0: c2a7 5e39 e032 5b3d ab67 91bc f6c5 95bd
000002e0: 880b acbd 0629 7ebd 5502 963d ee44 833c
000002f0: d82f 73bd 38e9 3ebd 1283 2b3d c8c5 0dbd
00000300: c48c bbbd d6d2 0a3d 1c94 42bd 497c 3fbc
00000310: 8299 773c edde a0bc 4db2 353d 345a 5fbd
00000320: 51aa 0e3d c299 ac3d 305a 8c3d 9674 483d
00000330: 207f 3fbd d7a4 b33d d67f 4c3d 66c2 97bc
00000340: 5089 8b39 f96d 1c3d 5a5f acbd b4c8 9c3b
00000350: e215 a53d 51b9 483d d854 9cbd 3a9c 53bd
00000360: cc54 093d eecd 79bc 1e32 a0bc 0128 1e3d
00000370: 5a0d c63a f9f8 3bbd fc8c 943d 9d72 22bd
00000380: 7c68 b1bd 094e 86bd 3d6e 24bd f003 87bd
00000390: 1b48 563d dba9 b7bd 33df 803d c417 4d3d
000003a0: aa7f c2bd 0d2e a6bc 43c3 b2bd 7362 4b3c
000003b0: 3c9d 31bc 4572 3d3d 423c 083d 30a8 e0ba
000003c0: 2365 c4bd 28f1 3abc c17e 22bd e67e 0c3d
000003d0: b637 7bbd bc8a fb3b 59c8 673d 7766 4a3d
000003e0: bfd9 c7bc 5ccd 653c 1bae 38bd eacc 453d
000003f0: a38f 823d 0788 943d a2d4 203d efa0 73bd

gnn.input_layer.lin_dst.weight f4 [128, 613]
0.012320156 0.010699702 -0.0034986779 -0.05948405 0.05513516 -0.08734973 0.024149098 0.0375108
-0.011461459 0.08608752 -0.045329105 -0.07956889 0.01723021 0.08315948 -0.003179516 0.05220958
0.03607797 -0.00034202426 0.001536961 -0.093384065 0.047511104 0.066068105 -0.06747958 0.025131317
-0.088605136 0.029773962 -0.06372723 -0.06621434 0.077047445 0.07494767 -0.06816047 -0.016638488
-0.06455606 0.020091325 0.074269444 -0.06695866 -0.046754025 -0.026442284 -0.037975144 0.04003469
-0.06401727 0.062861346 0.0546426 0.068441525 0.049083095 0.046766173 0.06188191 0.017156135
0.0112655675 -0.035399012 -0.0689401 -0.018489268 0.0030629837 0.034976058 -0.001324211 -0.023460735
-0.047011595 0.048830412 0.061831113 -0.0033106233 -0.01044761 0.05150175 0.02563155 -0.05265005
0.0322157 -0.033257376 -0.07005529 -0.053480044 0.035524525 0.03520791 0.061312098 0.02878369
0.01214195 -0.08761199 -0.008710376 0.004172543 -0.037780248 -0.026124578 -0.0007546772 0.0009653926
-0.051091883 0.060514588 0.06290949 0.011283307 -0.08030369 -0.031446327 -0.08279471 -0.03125238
-0.049244005 0.033050444 -0.069696754 -0.086601116 -0.06393316 0.06583527 -0.041675244 0.06481928
-0.048774257 0.06982479 0.009450377 -0.0049237446 -0.06506568 0.08678393 0.033618268 -0.050557297
-0.09277584 0.0032939168 -0.05573463 0.07567646 0.03873568 0.062745474 0.052224863 0.07789626
-0.050059106 -0.079066485 -0.08320846 -0.056396767 -0.032472607 -0.038105056 -0.08560862 -0.041291073
0.06356093 0.023862883 -0.036367595 0.019998962 -0.06955477 0.0653957 0.008114076 0.050441835
0.060930505 -0.0025593226 -0.053067666 -0.07372788 -0.082301095 -0.07068223 0.06928834 0.021032166
0.06176886 -0.008363978 -0.0513616 -0.05731247 0.07476885 0.078951396 -0.07222043 0.019267904
-0.079993665 0.050551925 0.05090975 0.0016114671 0.04597314 -0.018228902 0.051742684 0.06378079
-0.028619574 -0.06954215 -0.005726203 0.064255014 0.059783336 0.078569286 -0.059913676 -0.0015316668
0.023908896 -0.052866746 -0.044204812 0.040973037 -0.0045219134 0.054789267 -0.05420875 0.056088354
-0.09159868 0.07450342 0.025314942 0.040992398 -0.036984187 -0.07449563 0.009906516 0.047415014
-0.02729689 -0.089054786 -0.059489124 0.038605683 0.00021234064 0.053515315 -0.017749628 -0.07313149
-0.08400637 -0.06205084 0.073246635 0.01602408 -0.0593718 -0.046609133 0.041873045 -0.034612447
-0.09157708 0.033892475 -0.04750453 -0.011687347 0.015112283 -0.01963755 0.044359494 -0.054529384
0.034830395 0.084277645 0.068531394 0.04893931 -0.046752095 0.08771675 0.0499266 -0.018525314
0.00026614452 0.038190816 -0.08416624 0.004784668 0.080608144 0.049004856 -0.0763337 -0.05166266
0.033528134 -0.015246851 -0.019555148 0.03861237 0.001511018 -0.045891736 0.07253453 -0.039660085
-0.08662507 -0.06557853 -0.040144194 -0.06592548 0.05231486 -0.08967944 0.06292572 0.050071493
-0.09497006 -0.02028563 -0.087286495 0.012413609 -0.01084071 0.046251554 0.03326059 -0.0017139968
-0.09589603 -0.011410035 -0.039671663 0.034300707 -0.061332427 0.0076764505 0.05658755 0.049414124
-0.024395822 0.014026012 -0.045087915 0.048291124 0.06375053 0.07252508 0.039265282 -0.05947965
00000000: 7bda 493c ce4d 2f3c 134a 65bb 8ca5 73bd
00000010: 68d5 613d 6ae4 b2bd 54d4 c53c eda4 193d
00000020: d8c8 3bbc a74e b03d 03ab 39bd 04f5 a2bd
00000030: 5f26 8d3c 844f aa3d 6d5f 50bb b6d9 553d
00000040: 7ec6 133d b851 b3b9 da73 c93a 2540 bfbd
00000050: 019b 423d b74e 873d bc32 8abd 31e0 cd3c
00000060: 9c76 b5bd 86e8 f33c 6c83 82bd 629b 87bd
00000070: 0dcb 9d3d 2a7e 993d b797 8bbd 704d 88bc
00000080: f835 84bd 9096 a43c 941a 983d 9f21 89bd
00000090: 2681 3fbd 7d9d d8bc d38b 1bbd 6afb 233d
000000a0: 7d1b 83bd 73bd 803d ebd0 5f3d 122b 8c3d
000000b0: 5b0b 493d e38d 3f3d e377 7d3d 068b 8c3c
000000c0: 3793 383c 8efe 10bd 7830 8dbd ce76 97bc
000000d0: 57bc 483b 0e43 0f3d 2691 adba ba30 c0bc
000000e0: 3b8f 40bd 6602 483d 9f42 7d3d 0bf7 58bb
000000f0: 742c 2bbc 80f3 523d 42f9 d13c 94a7 57bd
00000100: 9cf4 033d e338 08bd 2679 8fbd e40d 5bbd
00000110: 2a82 113d 2b36 103d 6522 7b3d c6cb eb3c
00000120: 08ef 463c ea6d b3bd f7b5 0ebc d4b9 883b
00000130: 76bf 1abd 3603 d6bc 88d5 45ba 6712 7d3a
00000140: b945 51bd 25de 773d b1d6 803d 9fdd 383c
00000150: 4376 a4bd ddcd 00bd 4690 a9bd 7f02 00bd
00000160: 15b4 49bd e75f 073d 2cbd 8ebd ed5b b1bd
00000170: 63ef 82bd a4d4 863d a9b3 2abd f8bf 843d
00000180: 84c7 47bd 4d00 8f3d c1d5 1a3c 5d57 a1bb
00000190: 2841 85bd c6bb b13d 4fb3 093d 2b15 4fbd
000001a0: 4201 bebd c1de 573b ff49 64bd 43fc 9a3d
000001b0: 4ea9 1e3d b380 803d bde9 553d 1388 9f3d
000001c0: c70a 4dbd 9ced a1bd 3269 aabd 4c00 67bd
000001d0: ff01 05bd 0c14 1cbd 9253 afbd d420 29bd
000001e0: 3c2c 823d 187c c33c 30f6 14bd ddd4 a33c
000001f0: bb72 8ebd 2eee 853d e7f0 043c 199c 4e3d
00000200: 4492 793d 4fba 27bb 7b5d 59bd a5fe 96bd
00000210: 7a8d a8bd d8c1 90bd 0ce7 8d3d a64b ac3c
00000220: 5801 7d3d 1109 09bc 8b60 52bd 7bc0 6abd
00000230: 6920 993d 45b1 a13d 4ee8 93bd b9d7 9d3c
00000240: b8d3 a3bd 890f 4f3d be86 503d dd37 d33a
00000250: 554e 3c3d c754 95bc 23f0 533d 819f 823d
00000260: 9973 eabc 1d6c 8ebd dfa2 bbbb 2298 833d
00000270: 5fdf 743d efe8 a03d 0b68 75bd 36c2 c8ba
00000280: 97dc c33c cd8a 58bd 1b10 35bd 58d3 273d
00000290: 8f2c 94bb b66a 603d ff09 5ebd e7bc 653d
000002a0: 1798 bbbd 4095 983d 4861 cf3c a5e7 273d
000002b0: bb7c 17bd 2a91 98bd f14e 223c 3f36 423d
000002c0: ba9d dfbc 5b62 b6bd deaa 73bd fe20 1e3d
000002d0: c2a7 5e39 e032 5b3d ab67 91bc f6c5 95bd
000002e0: 880b acbd 0629 7ebd 5502 963d ee44 833c
000002f0: d82f 73bd 38e9 3ebd 1283 2b3d c8c5 0dbd
00000300: c48c bbbd d6d2 0a3d 1c94 42bd 497c 3fbc
00000310: 8299 773c edde a0bc 4db2 353d 345a 5fbd
00000320: 51aa 0e3d c299 ac3d 305a 8c3d 9674 483d
00000330: 207f 3fbd d7a4 b33d d67f 4c3d 66c2 97bc
00000340: 5089 8b39 f96d 1c3d 5a5f acbd b4c8 9c3b
00000350: e215 a53d 51b9 483d d854 9cbd 3a9c 53bd
00000360: cc54 093d eecd 79bc 1e32 a0bc 0128 1e3d
00000370: 5a0d c63a f9f8 3bbd fc8c 943d 9d72 22bd
00000380: 7c68 b1bd 094e 86bd 3d6e 24bd f003 87bd
00000390: 1b48 563d dba9 b7bd 33df 803d c417 4d3d
000003a0: aa7f c2bd 0d2e a6bc 43c3 b2bd 7362 4b3c
000003b0: 3c9d 31bc 4572 3d3d 423c 083d 30a8 e0ba
000003c0: 2365 c4bd 28f1 3abc c17e 22bd e67e 0c3d
000003d0: b637 7bbd bc8a fb3b 59c8 673d 7766 4a3d
000003e0: bfd9 c7bc 5ccd 653c 1bae 38bd eacc 453d
000003f0: a38f 823d 0788 943d a2d4 203d efa0 73bd

gnn.output_layer.att_src f4 [1, 1, 64]
-0.25613862 -0.061266158 -0.118736744 -0.10491301 0.05132449 -0.27204716 -0.14354296 -0.20272747
0.06419924 -0.24188046 0.020757666 -0.17563862 -0.1840091 -0.25398612 0.21310654 0.09031446
-0.062357802 0.2586603 0.2665293 0.0027306443 -0.1424336 0.1398368 0.13353509 -0.24390984
0.0060530603 0.2843827 0.025698729 -0.2913389 0.12341319 0.16007653 -0.06899517 0.18175979
0.26110977 -0.19117716 -0.24521168 -0.28385717 -0.027199343 0.23810975 -0.039331622 -0.12940362
-0.28613445 -0.07621759 -0.07293445 0.20115454 -0.03725724 -0.017208831 -0.25506 0.19520079
-0.103929184 -0.27346292 -0.17822531 0.054753076 -0.14475028 -0.29195604 -0.24176548 -0.21718101
-0.2080816 -0.25578642 -0.01792867 -0.0060925786 -0.2866724 -0.03874767 0.05969269 -0.042509884
00000000: 9a24 83be 39f2 7abd 402c f3bd a2dc d6bd
00000010: a139 523d c449 8bbe edfc 12be ca97 4fbe
00000020: e47a 833d 83af 77be fb0b aa3c 9cda 33be
00000030: e26c 3cbe 780a 82be 9a38 5a3e caf6 b83d
00000040: e56a 7fbd 1f6f 843e 8776 883e 9cf4 323b
00000050: 1dda 11be 6131 0f3e 6cbd 083e 80c3 79be
00000060: c058 c63b 9c9a 913e 2486 d23c 5f2a 95be
00000070: 0ec0 fc3d 1aeb 233e 574d 8dbd 3d1f 3a3e
00000080: 2eb0 853e f2c3 43be c518 7bbe ba55 91be
00000090: 28d1 debc 0bd3 733e 321a 21bd 6282 04be
000000a0: 3780 92be f817 9cbd a85e 95bd 75fb 4d3e
000000b0: 0c9b 18bd 89f9 8cbc 3997 82be b7e2 473e
000000c0: d3d8 d4bd 5503 8cbe b280 36be c344 603d
000000d0: 6b39 14be 437b 95be 5f91 77be b364 5ebe
000000e0: 5813 55be 70f6 82be 25df 92bc 41a4 c7bb
000000f0: bac6 92be e0b5 1ebd 5280 743d d81e 2ebd

gnn.output_layer.att_dst f4 [1, 1, 64]
0.14557509 -0.28789955 -0.054162398 -0.14981486 -0.26214588 -0.27511796 0.095664084 -0.12237078
0.08875837 0.1649276 -0.13130544 0.10777581 -0.28534183 0.28792748 -0.106438145 -0.07696181
0.11623811 -0.18919326 -0.06161639 -0.20510721 -0.16499457 -0.058354482 0.11502296 0.13235104
0.07793792 -0.21194258 0.18800825 0.09679623 0.12588857 -0.10524798 0.25703537 -0.076763354
-0.05713286 -0.16556574 0.28915954 0.23615274 0.2997936 -0.109705634 -0.10347731 -0.15020482
0.105618134 0.12378411 -0.14839241 0.09243983 0.17504369 -0.01358266 0.2557785 -0.18892227
-0.17975695 -0.11901515 0.186846 0.11945894 0.05539615 -0.08247001 0.24545576 0.054286886
-0.109439224 -0.1367595 -0.031360917 -0.24226032 -0.21782538 0.088098064 -0.2638548 0.054528765
00000000: a311 153e 9267 93be 64d9 5dbd 1169 19be
00000010: fc37 86be 43dc 8cbe 88eb c33d 889d fabd
00000020: f3c6 b53d c8e2 283e ef74 06be 90b9 dc3d
00000030: 5318 92be 3b6b 933e 3efc d9bd 279e 9dbd
00000040: 3f0e ee3d e1bb 41be 7861 7cbd a007 52be
00000050: 56f4 28be 1c05 6fbd 2891 eb3d 0887 073e
00000060: eb9d 9f3d 7a07 59be 3c85 403e 1a3d c63d
00000070: efe8 003e 418c d7bd 249a 833e 1b36 9dbd
00000080: 2504 6abd 118a 29be b80c 943e 06d2 713e
00000090: 8c7e 993e 59ad e0bd e9eb d3bd 4bcf 19be
000000a0: 524e d83d 8682 fd3d 2ef4 17be 1851 bd3d
000000b0: a73e 333e ce89 5ebc 66f5 823e d774 41be
000000c0: 3512 38be 37be f3bd 8f54 3f3e e4a6 f43d
000000d0: 13e7 623d 09e6 a8bd c158 7b3e ed5b 5e3d
000000e0: ac21 e0bd af0a 0cbe 4e74 00bd 1713 78be
000000f0: 9e0d 5fbe c26c b43d fa17 87be 8e59 5f3d

gnn.output_layer.bias f4 [64]
-0.0026209073 0.002674416 -0.004037108 -0.0051430766 -0.0044379015 -2.6336347e-05 -0.001351299 -0.0017355959
-0.00022241591 0.0053649116 -0.0020300697 0.0017979626 -0.0020351293 -0.004844786 -0.0060128258 0.000870851
0.00234714 0.0013319119 -0.0013158808 -0.0043738727 -0.0038749913 0.0 -0.004849926 -0.001363457
-0.005114775 0.0008336988 -0.0014657435 -0.00024499977 -0.0036136906 0.00072591077 -0.005285933 -0.0025989264
-0.0013450496 -0.003988761 -0.0012959153 -0.00036938654 0.0031696868 -0.00024966674 -0.00030353488 0.0013717437
-0.0043944726 0.0011317474 -0.0037825424 -0.0018996133 -0.003355912 -0.0032397918 -0.0025656063 -0.0019033694
-0.0035044795 0.002371275 0.0059317844 -0.0058267103 -0.00081850204 -0.0057217805 -0.0021058286 -0.00015525751
-0.0031041778 0.00016711412 -0.001241958 0.0018980441 -0.0016505277 -0.0054872683 0.0015874874 0.0042133033
00000000: 87c3 2bbb 4145 2f3b b749 84bb 4187 a8bb
00000010: d16b 91bb e0ec dcb7 121e b1ba ef7c e3ba
00000020: 5138 69b9 24cc af3b eb0a 05bb 9da9 eb3a
00000030: ce5f 05bb 03c1 9ebb 3d07 c5bb d249 643a
00000040: 7ad2 193b 8c93 ae3a a279 acba b452 8fbb
00000050: 91f3 7dbb 0000 0000 21ec 9ebb 06b6 b2ba
00000060: d899 a7bb 948c 5a3a 311e c0ba 5073 80b9
00000070: abd3 6cbb 0c4b 3e3a 9f35 adbb c052 2abb
00000080: 604c b0ba 27b4 82bb b4db a9ba 39aa c1b9
00000090: 85ba 4f3b b4e5 82b9 c323 9fb9 15cc b33a
000000a0: 82ff 8fbb 2457 943a 88e4 77bb 72fc f8ba
000000b0: dcee 5bbb b052 54bb bb23 28bb 7b7a f9ba
000000c0: 69ab 65bb 6567 1b3b 6a5f c23b fded bebb
000000d0: be90 56ba c67d bbbb f101 0abb 9fcc 22b9
000000e0: 766f 4bbb 5b3b 2f39 32c9 a2ba cbc7 f83a
000000f0: 8556 d8ba 8bce b3bb 3d13 d03a c00f 8a3b

gnn.output_layer.lin_src.weight f4 [64, 128]
-0.014171999 0.051114414 0.07304278 -0.10002178 -0.13174985 0.10270118 -0.047199216 -0.087760985
-0.12965032 0.07909473 -0.05129588 -0.12719378 0.108826764 0.073777944 -0.04254134 -0.01597441
0.09014395 -0.07347955 0.15930805 -0.1055811 0.044260297 -0.15131652 -0.011341871 -0.00407206
-0.0015470866 -0.06638653 -0.1454489 -0.009107949 -0.116811596 0.08959768 -0.033354446 -0.08212768
-0.12983963 0.15422723 0.16517009 0.0675994 0.035662442 0.17140433 -0.10259942 0.09107367
0.051024962 -0.11884946 0.11086344 -0.11360955 0.00348132 0.093336776 0.020721452 0.07890872
0.12820143 -0.15761335 -0.03064184 0.17510067 0.1034197 -0.08387374 0.15590906 -0.031894546
-0.1384823 -0.110541075 0.17162605 -0.11500451 -0.01756954 0.15949368 -0.08289356 -0.11479149
0.15066893 -0.118590966 -0.059026025 0.06786572 -0.01939509 0.14791696 0.17020756 0.14924304
0.154312 0.032502715 0.062473543 -0.10020969 0.10557673 -0.020409245 -0.16080059 0.043091875
0.094088905 0.06342075 -0.10611906 0.17270128 0.023899315 0.030492283 0.06348659 0.15079051
-0.0002762765 0.015676731 0.10999442 0.10000114 -0.1324334 -0.1349695 -0.10848477 -0.1482997
-0.15752949 -0.026693108 0.018596241 0.044871893 -0.086401455 -0.14629385 0.0314623 0.06732061
-0.12321598 0.12552507 0.14686191 0.053257037 0.10075111 -0.0338396 -0.020634973 -0.14283708
0.062402 -0.095776476 -0.1312416 0.033194445 0.14501862 -0.03285856 -0.10629894 0.1742342
0.10063614 -0.13530019 0.07103539 -0.17775394 -0.15661414 -0.11269841 -0.15745741 0.07110978
0.1772928 0.16213585 0.12726621 -0.09626629 0.08816572 -0.06653765 0.14643754 0.01598727
-0.015385642 0.08473495 -0.100925654 0.11438372 0.07801147 -0.12556508 0.09861455 0.103003524
-0.10129321 -0.098200604 -0.1417195 -0.112588 0.15471108 0.1623962 -0.11852986 0.073228896
0.049135126 0.02921371 -0.010619172 -0.07041646 0.067103595 0.03554615 0.10442571 -0.16593507
0.07200127 -0.05343621 -0.024258243 0.033851925 -0.016263273 0.14838639 0.051887434 -0.008784406
-0.099349074 0.111454934 -0.1292969 -0.09471717 0.05860511 -0.1400358 -0.16611283 0.024969244
0.070003815 0.08929991 0.02396108 0.1005342 0.047585845 -0.07705318 -0.14631572 -0.046628483
0.11853789 -0.052395996 -0.03474717 0.0593956 0.025346303 -0.013878378 0.14967902 -0.03324531
0.035958365 0.12014456 0.13613145 -0.12348779 0.008965605 0.009384917 -0.0369507 0.0059451065
-0.0606267 0.14606301 0.09714746 -0.05910733 -0.14952749 -0.0795696 0.037969384 0.11500235
0.030300617 -0.1343675 -0.056530014 0.090510465 -0.058649518 0.07056717 0.15746199 -0.14297742
0.17792091 -0.037859302 0.14265801 0.14551513 0.10526758 -0.040087193 0.09240441 0.11362021
0.059994254 0.10651056 0.16781984 -0.056215666 -0.076801755 -0.07728157 0.011570649 0.15261328
-0.09290456 -0.026394416 -0.10942598 -0.14230363 0.17297877 -0.15304674 -0.012829919 0.15087119
0.15771103 -0.11197884 -0.117118835 0.032926198 -0.020747738 -0.043974835 0.026664063 -0.03677503
-0.1742824 0.08282267 0.05046325 -0.083541475 0.17465709 -0.11821201 0.17061412 -0.104798205
00000000: ac31 68bc 595d 513d 7497 953d 38d8 ccbd
00000010: 6fe9 06be ff54 d23d f753 41bd 08bc b3bd
00000020: 0ec3 04be 6bfc a13d a11b 52bd 163f 02be
00000030: 91e0 de3d e418 973d d43f 2ebd c4dc 82bc
00000040: 649d b83d 727c 96bd a621 233e e73a d8bd
00000050: 494a 353d b8f2 1abe 41d3 39bc ea6e 85bb
00000060: 9dc7 caba a9f5 87bd 8ef0 14be 8239 15bc
00000070: eb3a efbd fd7e b73d ac9e 08bd 8f32 a8bd
00000080: aef4 04be beed 1d3e 5922 293e 8e71 8a3d
00000090: c812 123d 9e84 2f3e a51f d2bd d584 ba3d
000000a0: 8dff 503d 5867 f3bd 5f0c e33d 20ac e8bd
000000b0: dc26 643b 5a27 bf3d 09c0 a93c e59a a13d
000000c0: 3c47 033e 6565 21be 9904 fbbc 974d 333e
000000d0: b5cd d33d ffc5 abbd a0a6 1f3e dba3 02bd
000000e0: 4ece 0dbe 5c63 e2bd bdbe 2f3e 7c87 ebbd
000000f0: ffed 8fbc 5052 233e 19c4 a9bd cd17 ebbd
00000100: f548 1a3e d2df f2bd 46c5 71bd 2ffd 8a3d
00000110: 74e2 9ebc 8b77 173e e44a 2e3e 2bd3 183e
00000120: f703 1e3e 9121 053d 42e4 7f3d bd3a cdbd
00000130: 9d38 d83d 4a31 a7bc e9a8 24be 1b81 303d
00000140: afb1 c03d bde2 813d f354 d9bd 9bd8 303e
00000150: 7fc8 c33c f4ca f93c 4205 823d d468 1a3e
00000160: 34d9 90b9 7d6c 803c c144 e13d 66cd cc3d
00000170: 9f9c 07be 7235 0abe 432d debd e0db 17be
00000180: 694f 21be 81ab dabc 2557 983c 97cb 373d
00000190: 3ff3 b0bd 0ece 15be 9dde 003d 63df 893d
000001a0: a958 fcbd a589 003e f862 163e 0d24 5a3d
000001b0: 9956 ce3d 649b 0abd ad0a a9bc e243 12be
000001c0: 3d99 7f3d 7526 c4bd 3364 06be e6f6 073d
000001d0: c37f 143e b396 06bd 42b3 d9bd 736a 323e
000001e0: 521a ce3d 228c 0abe 017b 913d 2105 36be
000001f0: 755f 20be 6dce e6bd 843c 21be 01a2 913d
00000200: 3e8c 353e f106 263e 1352 023e 4327 c5bd
00000210: 3b90 b43d e444 88bd b9f3 153e bcf7 823c
00000220: 0f14 7cbc 8489 ad3d 1cb2 cebd 0342 ea3d
00000230: 7ac4 9f3d 2294 00be 6df6 c93d 83f3 d23d
00000240: d172 cfbd 661d c9bd eb1e 11be 8a94 e6bd
00000250: 956c 1e3e 304b 263e c9bf f2bd 08f9 953d
00000260: ea41 493d 9751 ef3c 09fc 2dbc 8136 90bd
00000270: 9c6d 893d d798 113d 26dd d53d e2ea 29be
00000280: 6775 933d eddf 5abd 39b9 c6bc 51a8 0a3d
00000290: 8e3a 85bc 9af2 173e eb87 543d 78ec 0fbc
000002a0: 8777 cbbd 7c42 e43d 6866 04be 13fb c1bd
000002b0: e90b 703d 8b65 0fbe 7b19 2abe 4d8c cc3c
000002c0: 295e 8f3d dfe2 b63d 074a c43c e0e4 cd3d
000002d0: 60e9 423d 0fce 9dbd cad3 15be 82fd 3ebd
000002e0: fec3 f23d 2f9d 56bd 0c53 0ebd cd48 733d
000002f0: 0da3 cf3c 2362 63bc 7545 193e 3c2c 08bd
00000300: 1449 133d 5a0e f63d 0b66 0b3e 2be7 fcbd
00000310: 79e4 123c 32c3 193c 9e59 17bd 2bcf c23b
00000320: b453 78bd 8b91 153e 3ff5 c63d 871a 72bd
00000330: bc1d 19be 63f5 a2bd c985 1b3d 5a86 eb3d
00000340: 0039 f83c a297 09be 048c 67bd 8d5d b93d
00000350: 7a3a 70bd 8585 903d b73d 213e ac68 12be
00000360: e630 363e 5b12 1bbd f114 123e eb01 153e
00000370: 8796 d73d 7832 24bd 863e bd3d b6b1 e83d
00000380: 89bc 753d 3522 da3d f7d8 2b3e 6642 66bd
00000390: 3d4a 9dbd cd45 9ebd d292 3d3c a846 1c3e
000003a0: bf44 bebd 1a39 d8bc ba1a e0bd 0bb8 11be
000003b0: 5921 313e 49b8 1cbe 9534 52bc fa7d 1a3e
000003c0: 007f 213e 2955 e5bd 00dc efbd 9fdd 063d
000003d0: 29f7 a9bc f51e 34bd 986e da3c 6aa1 16bd
000003e0: 1677 32be ef9e a93d 8eb2 4e3d cb17 abbd
000003f0: 4fd9 323e 2319 f2bd 78b5 2e3e 71a0 d6bd

gnn.output_layer.lin_dst.weight f4 [64, 128]
-0.014171999 0.051114414 0.07304278 -0.10002178 -0.13174985 0.10270118 -0.047199216 -0.087760985
-0.12965032 0.07909473 -0.05129588 -0.12719378 0.108826764 0.073777944 -0.04254134 -0.01597441
0.09014395 -0.07347955 0.15930805 -0.1055811 0.044260297 -0.15131652 -0.011341871 -0.00407206
-0.0015470866 -0.06638653 -0.1454489 -0.009107949 -0.116811596 0.08959768 -0.033354446 -0.08212768
-0.12983963 0.15422723 0.16517009 0.0675994 0.035662442 0.17140433 -0.10259942 0.09107367
0.051024962 -0.11884946 0.11086344 -0.11360955 0.00348132 0.093336776 0.020721452 0.07890872
0.12820143 -0.15761335 -0.03064184 0.17510067 0.1034197 -0.08387374 0.15590906 -0.031894546
-0.1384823 -0.110541075 0.17162605 -0.11500451 -0.01756954 0.15949368 -0.08289356 -0.11479149
0.15066893 -0.118590966 -0.059026025 0.06786572 -0.01939509 0.14791696 0.17020756 0.14924304
0.154312 0.032502715 0.062473543 -0.10020969 0.10557673 -0.020409245 -0.16080059 0.043091875
0.094088905 0.06342075 -0.10611906 0.17270128 0.023899315 0.030492283 0.06348659 0.15079051
-0.0002762765 0.015676731 0.10999442 0.10000114 -0.1324334 -0.1349695 -0.10848477 -0.1482997
-0.15752949 -0.026693108 0.018596241 0.044871893 -0.086401455 -0.14629385 0.0314623 0.06732061
-0.12321598 0.12552507 0.14686191 0.053257037 0.10075111 -0.0338396 -0.020634973 -0.14283708
0.062402 -0.095776476 -0.1312416 0.033194445 0.14501862 -0.03285856 -0.10629894 0.1742342
0.10063614 -0.13530019 0.07103539 -0.17775394 -0.15661414 -0.11269841 -0.15745741 0.07110978
0.1772928 0.16213585 0.12726621 -0.09626629 0.08816572 -0.06653765 0.14643754 0.01598727
-0.015385642 0.08473495 -0.100925654 0.11438372 0.07801147 -0.12556508 0.09861455 0.103003524
-0.10129321 -0.098200604 -0.1417195 -0.112588 0.15471108 0.1623962 -0.11852986 0.073228896
0.049135126 0.02921371 -0.010619172 -0.07041646 0.067103595 0.03554615 0.10442571 -0.16593507
0.07200127 -0.05343621 -0.024258243 0.033851925 -0.016263273 0.14838639 0.051887434 -0.008784406
-0.099349074 0.111454934 -0.1292969 -0.09471717 0.05860511 -0.1400358 -0.16611283 0.024969244
0.070003815 0.08929991 0.02396108 0.1005342 0.047585845 -0.07705318 -0.14631572 -0.046628483
0.11853789 -0.052395996 -0.03474717 0.0593956 0.025346303 -0.013878378 0.14967902 -0.03324531
0.035958365 0.12014456 0.13613145 -0.12348779 0.008965605 0.009384917 -0.0369507 0.0059451065
-0.0606267 0.14606301 0.09714746 -0.05910733 -0.14952749 -0.0795696 0.037969384 0.11500235
0.030300617 -0.1343675 -0.056530014 0.090510465 -0.058649518 0.07056717 0.15746199 -0.14297742
0.17792091 -0.037859302 0.14265801 0.14551513 0.10526758 -0.040087193 0.09240441 0.11362021
0.059994254 0.10651056 0.16781984 -0.056215666 -0.076801755 -0.07728157 0.011570649 0.15261328
-0.09290456 -0.026394416 -0.10942598 -0.14230363 0.17297877 -0.15304674 -0.012829919 0.15087119
0.15771103 -0.11197884 -0.117118835 0.032926198 -0.020747738 -0.043974835 0.026664063 -0.03677503
-0.1742824 0.08282267 0.05046325 -0.083541475 0.17465709 -0.11821201 0.17061412 -0.104798205
00000000: ac31 68bc 595d 513d 7497 953d 38d8 ccbd
00000010: 6fe9 06be ff54 d23d f753 41bd 08bc b3bd
00000020: 0ec3 04be 6bfc a13d a11b 52bd 163f 02be
00000030: 91e0 de3d e418 973d d43f 2ebd c4dc 82bc
00000040: 649d b83d 727c 96bd a621 233e e73a d8bd
00000050: 494a 353d b8f2 1abe 41d3 39bc ea6e 85bb
00000060: 9dc7 caba a9f5 87bd 8ef0 14be 8239 15bc
00000070: eb3a efbd fd7e b73d ac9e 08bd 8f32 a8bd
00000080: aef4 04be beed 1d3e 5922 293e 8e71 8a3d
00000090: c812 123d 9e84 2f3e a51f d2bd d584 ba3d
000000a0: 8dff 503d 5867 f3bd 5f0c e33d 20ac e8bd
000000b0: dc26 643b 5a27 bf3d 09c0 a93c e59a a13d
000000c0: 3c47 033e 6565 21be 9904 fbbc 974d 333e
000000d0: b5cd d33d ffc5 abbd a0a6 1f3e dba3 02bd
000000e0: 4ece 0dbe 5c63 e2bd bdbe 2f3e 7c87 ebbd
000000f0: ffed 8fbc 5052 233e 19c4 a9bd cd17 ebbd
00000100: f548 1a3e d2df f2bd 46c5 71bd 2ffd 8a3d
00000110: 74e2 9ebc 8b77 173e e44a 2e3e 2bd3 183e
00000120: f703 1e3e 9121 053d 42e4 7f3d bd3a cdbd
00000130: 9d38 d83d 4a31 a7bc e9a8 24be 1b81 303d
00000140: afb1 c03d bde2 813d f354 d9bd 9bd8 303e
00000150: 7fc8 c33c f4ca f93c 4205 823d d468 1a3e
00000160: 34d9 90b9 7d6c 803c c144 e13d 66cd cc3d
00000170: 9f9c 07be 7235 0abe 432d debd e0db 17be
00000180: 694f 21be 81ab dabc 2557 983c 97cb 373d
00000190: 3ff3 b0bd 0ece 15be 9dde 003d 63df 893d
000001a0: a958 fcbd a589 003e f862 163e 0d24 5a3d
000001b0: 9956 ce3d 649b 0abd ad0a a9bc e243 12be
000001c0: 3d99 7f3d 7526 c4bd 3364 06be e6f6 073d
000001d0: c37f 143e b396 06bd 42b3 d9bd 736a 323e
000001e0: 521a ce3d 228c 0abe 017b 913d 2105 36be
000001f0: 755f 20be 6dce e6bd 843c 21be 01a2 913d
00000200: 3e8c 353e f106 263e 1352 023e 4327 c5bd
00000210: 3b90 b43d e444 88bd b9f3 153e bcf7 823c
00000220: 0f14 7cbc 8489 ad3d 1cb2 cebd 0342 ea3d
00000230: 7ac4 9f3d 2294 00be 6df6 c93d 83f3 d23d
00000240: d172 cfbd 661d c9bd eb1e 11be 8a94 e6bd
00000250: 956c 1e3e 304b 263e c9bf f2bd 08f9 953d
00000260: ea41 493d 9751 ef3c 09fc 2dbc 8136 90bd
00000270: 9c6d 893d d798 113d 26dd d53d e2ea 29be
00000280: 6775 933d eddf 5abd 39b9 c6bc 51a8 0a3d
00000290: 8e3a 85bc 9af2 173e eb87 543d 78ec 0fbc
000002a0: 8777 cbbd 7c42 e43d 6866 04be 13fb c1bd
000002b0: e90b 703d 8b65 0fbe 7b19 2abe 4d8c cc3c
000002c0: 295e 8f3d dfe2 b63d 074a c43c e0e4 cd3d
000002d0: 60e9 423d 0fce 9dbd cad3 15be 82fd 3ebd
000002e0: fec3 f23d 2f9d 56bd 0c53 0ebd cd48 733d
000002f0: 0da3 cf3c 2362 63bc 7545 193e 3c2c 08bd
00000300: 1449 133d 5a0e f63d 0b66 0b3e 2be7 fcbd
00000310: 79e4 123c 32c3 193c 9e59 17bd 2bcf c23b
00000320: b453 78bd 8b91 153e 3ff5 c63d 871a 72bd
00000330: bc1d 19be 63f5 a2bd c985 1b3d 5a86 eb3d
00000340: 0039 f83c a297 09be 048c 67bd 8d5d b93d
00000350: 7a3a 70bd 8585 903d b73d 213e ac68 12be
00000360: e630 363e 5b12 1bbd f114 123e eb01 153e
00000370: 8796 d73d 7832 24bd 863e bd3d b6b1 e83d
00000380: 89bc 753d 3522 da3d f7d8 2b3e 6642 66bd
00000390: 3d4a 9dbd cd45 9ebd d292 3d3c a846 1c3e
000003a0: bf44 bebd 1a39 d8bc ba1a e0bd 0bb8 11be
000003b0: 5921 313e 49b8 1cbe 9534 52bc fa7d 1a3e
000003c0: 007f 213e 2955 e5bd 00dc efbd 9fdd 063d
000003d0: 29f7 a9bc f51e 34bd 986e da3c 6aa1 16bd
000003e0: 1677 32be ef9e a93d 8eb2 4e3d cb17 abbd
000003f0: 4fd9 323e 2319 f2bd 78b5 2e3e 71a0 d6bd

gnn.fc.0.weight f4 [128, 64]
0.064535014 0.043587163 -0.042870335 0.005557222 0.06797441 0.054793276 -0.13849354 -0.09498895
0.005439438 -0.16097814 -0.12774885 -0.07622706 -0.14146212 -0.15796995 0.1294642 0.16253895
-0.10906852 -0.11241143 0.106913015 -0.16904812 0.15738808 0.1678622 0.09079008 -0.14808929
-0.036151797 0.1361699 0.10172789 0.055139437 0.06653684 0.1204731 0.12633425 0.015288167
-0.14020377 0.12369516 -0.0393445 -0.06991368 -0.022895934 0.11714588 0.051121514 0.09746228
0.15144865 0.14806034 -0.010876715 -0.068258256 0.1576204 -0.0159026 0.14817803 -0.04800457
0.15585528 -0.11257021 -0.09874587 -0.025485126 -0.019855853 0.045958493 -0.16956037 -0.029591989
-0.08594295 -0.07584747 -0.034676757 0.10064108 0.16509101 0.14380193 0.114444636 0.1101271
0.01339502 0.13149746 0.1524166 0.1544037 0.16164349 -0.15828612 -0.0519859 -0.09803381
-0.08815358 -0.04713146 0.049285244 -0.007884604 -0.042963516 -0.060588963 0.01654717 0.04303299
-0.11132196 0.115301654 0.1640769 0.064313665 0.12058937 0.0007945524 0.024627918 -0.13589165
-0.1317664 -0.16478169 0.055529177 0.13460976 -0.030379822 -0.15597923 0.12982844 0.0048913257
0.038764976 -0.07685917 0.110282205 0.07319701 0.03767484 -0.12686093 0.018718572 -0.13490109
0.029422324 0.05076087 0.08669612 -0.14228018 0.027278734 -0.043421198 -0.04872704 -0.1259297
-0.17649688 0.16609627 0.053913485 0.07059476 -0.037347015 0.07569971 -0.12877494 -0.15777113
0.16479036 0.035341706 0.1618823 0.06848603 0.12075412 -0.114212126 0.01967067 0.1037476
0.047936704 -0.109811164 0.04548128 -0.0022590063 0.15341665 0.05462682 -0.12747943 0.035772577
0.16083889 -0.16705324 -0.015953418 -0.05873719 -0.10649079 -0.039891798 0.058744956 0.09185491
0.080136314 -0.08476047 -0.09531441 0.12727396 0.022488242 0.07816936 0.03660014 0.035783455
-0.14798242 0.010540955 -0.113035366 0.17610204 0.088209234 0.15952802 0.1332736 -0.037599415
0.12943985 0.06866567 0.09675329 0.1307644 0.026029864 0.020717898 0.09082382 -0.01225136
0.11705189 -0.03906322 -0.15439825 0.040531725 0.13741475 0.05109779 -0.117169835 0.09838138
-0.0639612 0.07627228 -0.020837089 -0.17006056 0.057903346 -0.026281863 0.065893404 -0.07018624
-0.05044324 0.11901482 0.16043878 -0.08456136 -0.0995257 -0.13461909 -0.059430286 0.01657375
0.037808597 -0.11942761 0.02345938 -0.005690589 -0.12586744 -0.06756494 -0.07974422 0.050926182
0.12578905 -0.1292896 -0.039273325 -0.070607565 -0.04627373 0.13817193 -0.028752504 0.1397238
0.16294026 -0.061768375 0.0039180806 0.009363586 0.04784323 0.049271435 0.1512413 0.06940672
0.10859064 -0.14978217 -0.124475576 0.044826414 0.13326693 0.14644666 0.10608725 -0.078654595
0.048576374 0.12927833 0.06648189 -0.06639916 0.122192234 0.027861862 -0.15839106 0.012352911
-0.07355831 0.030436184 -0.15514041 0.008696008 -0.13273062 0.12908268 0.043548528 -0.015056324
0.04699884 0.13793236 -0.17409584 -0.1450989 0.08538427 -0.0059808274 -0.091771066 0.14896254
0.13587524 0.063817985 0.17507038 0.051099837 -0.15213938 0.053406022 0.013529905 0.010254943
00000000: ef2a 843d 7488 323d ce98 2fbd 5b19 b63b
00000010: 2b36 8b3d ea6e 603d 40d1 0dbe 9189 c2bd
00000020: 503d b23b 74d7 24be 98d0 02be ef1c 9cbd
00000030: 72db 10be e0c2 21be 4392 043e 9c70 263e
00000040: 515f dfbd f737 e6bd 36f5 da3d f31a 2dbe
00000050: 572a 213e 12e4 2b3e 26f0 b93d b8a4 17be
00000060: e813 14bd 1f70 0b3e b656 d03d e4d9 613d
00000070: 7744 883d 9aba f63d c45d 013e 387b 7a3c
00000080: 9491 0fbe e353 fd3d b327 21bd e72e 8fbd
00000090: 4190 bbbc 2eea ef3d cb64 513d 4e9a c73d
000000a0: 5b15 1b3e 219d 173e 4034 32bc fcca 8bbd
000000b0: 3e67 213e 2b46 82bc fbbb 173e 71a0 44bd
000000c0: 8798 1f3e 368b e6bd 463b cabd 2fc6 d0bc
000000d0: bea8 a2bc f93e 3c3d 3ca1 2dbe e66a f2bc
000000e0: db02 b0bd eb55 9bbd 3709 0ebd e91c ce3d
000000f0: 9e0d 293e d040 133e f361 ea3d 518a e13d
00000100: c976 5b3c 45a7 063e 1913 1c3e 011c 1e3e
00000110: df85 253e c215 22be 2bef 54bd f3c5 c8bd
00000120: dd89 b4bd eb0c 41bd 53df 493d 6d2e 01bc
00000130: 83fa 2fbd 222c 78bd ee8d 873c 5c43 303d
00000140: c5fc e3bd 4623 ec3d c603 283e e2b6 833d
00000150: 8ff7 f63d 8249 503a 7dc0 c93c 2e27 0bbe
00000160: c5ed 06be 88bc 28be 9072 633d 24d7 093e
00000170: 1bdf f8bc 05b9 1fbe bff1 043e 6a47 a03b
00000180: 06c8 1e3d 5768 9dbd a3db e13d 50e8 953d
00000190: ef50 1a3d d5e7 01be b157 993c 8323 0abe
000001a0: 1607 f13c a1ea 4f3d bc8d b13d e5b1 11be
000001b0: a777 df3c 6dda 31bd 0196 47bd b7f3 00be
000001c0: 99bb 34be 2415 2a3e 63d4 5c3d fc93 903d
000001d0: 2ff9 18bd 7308 9b3d 94dd 03be c18e 21be
000001e0: cebe 283e 77c2 103d 79c4 253e 6742 8c3d
000001f0: f04d f73d 0ce8 e9bd 6324 a13c 9f79 d43d
00000200: 4759 443d ade4 e0bd 944a 3a3d d60b 14bb
00000210: 4119 1d3e 5fc0 5f3d f889 02be 4486 123d
00000220: f3b2 243e 0110 2bbe beb0 82bc 6896 70bd
00000230: d817 dabd 9565 23bd 8d9e 703d 6d1e bc3d
00000240: 821e a43d e696 adbd 3434 c3bd 1b54 023e
00000250: 4339 b83c 4217 a03d 07ea 153d ac91 123d
00000260: b488 17be f8b3 2c3c 167f e7bd 1854 343e
00000270: 0ba7 b43d 505b 233e e078 083e d801 1abd
00000280: e18b 043e 96a0 8c3d 9726 c63d 1ae7 053e
00000290: 953c d53c 95b8 a93c d701 ba3d eeb9 48bc
000002a0: e7b8 ef3d c100 20bd 931a 1ebe 9804 263d
000002b0: 74b6 0c3e eb4b 513d bdf6 efbd 2d7c c93d
000002c0: 17fe 82bd a434 9c3d 8bb2 aabc 5b24 2ebe
000002d0: 0f2c 6d3d 104d d7bc 1ff3 863d cebd 8fbd
000002e0: 929d 4ebd 0bbe f33d 104a 243e 822e adbd
000002f0: 21d4 cbbd 96d9 09be 2c6d 73bd acc5 873c
00000300: 30dd 1a3d 7696 f4bd e32d c03c 1f78 babb
00000310: 65e3 00be 7d5f 8abd f050 a3bd f997 503d
00000320: d8ce 003e 7e64 04be 11dd 20bd b39a 90bd
00000330: 8689 3dbd f17c 0d3e 5f8a ebbc c113 0f3e
00000340: d0d9 263e d600 7dbd 3e63 803b ba69 193c
00000350: 43f7 433d d8d0 493d 00df 1a3e 1c25 8e3d
00000360: c564 de3d 7f60 19be 0ded febd e79b 373d
00000370: 2077 083e 1df6 153e 4644 d93d a915 a1bd
00000380: 05f8 463d 8a61 043e a827 883d 48fc 87bd
00000390: ec3f fa3d 8f3e e43c 4431 22be dd63 4a3c
000003a0: bda5 96bd 4e55 f93c 21dd 1ebe b379 0e3c
000003b0: 89ea 07be 402e 043e f15f 323d cdae 76bc
000003c0: db81 403d 243e 0d3e 2e46 32be ce94 14be
000003d0: f3dd ae3d d1fa c3bb 78f2 bbbd a389 183e
000003e0: e122 0b3e 01b3 823d a645 333e 104e 513d
000003f0: 6dca 1bbe 46c0 5a3d 89ac 5d3c 5904 283c

gnn.fc.0.bias f4 [128]
0.0012680148 -0.0042162687 -0.007289876 -0.00039986055 0.00035979328 0.0022421796 0.0011852272 -0.005390271
-0.0061219875 0.0045405296 -0.0057225963 -0.000967557 0.0032666863 -0.007505904 0.0009323788 -0.0039657736
0.00020942913 -0.0024268765 -0.0038055396 -0.0043969257 0.006885359 -0.0075535467 -0.00069209415 0.0054241535
0.0019471318 0.0013410784 -0.0030784616 0.0036166625 -0.004914902 -0.0062404503 -0.003094311 0.003945102
0.0010125304 -0.0029167198 0.0013277627 -0.0019082348 0.0025291126 0.0010190979 0.001968518 -0.005398857
0.003086725 0.00564036 0.0051462217 -0.007422111 0.002677715 -0.0007318357 -0.0029877909 -0.00364591
0.00416923 -0.00033601152 -1.0173331e-05 -0.0048911115 0.0009995587 -0.003880285 0.00043673953 0.0005127768
0.00072975585 0.0035754764 0.0021475793 0.00047814677 -0.0019321188 -0.0032553535 0.0042563803 -0.0010920087
-0.00408601 0.0022820518 0.0025820548 0.0046754912 0.0018142359 0.004067311 -0.0021506753 -0.0064107613
-0.003342146 0.0012938897 0.001172542 0.0024058905 -7.2779905e-05 -0.0011649946 -0.0050554187 -0.005809422
-0.00817653 -0.0059652063 -0.0022692378 -0.0012889458 0.0010945187 -0.002686368 -0.0008821168 -0.0019626606
0.0011533671 -0.0005031682 0.0018902542 0.0029651737 0.00422037 -0.0024673364 0.0026616086 -0.0039924206
-0.004813718 0.00039415696 0.0048571364 -0.0018607099 -0.0021609957 -0.00036287965 0.006349198 -0.0029174841
-0.00022703371 -0.0048382375 0.0041028433 0.0011102688 0.004104025 0.003119194 0.002033786 0.003951805
-0.0012090014 0.00247717 -0.0013396086 0.005688917 0.0004369584 0.0025935976 0.0034548657 -0.003203337
-0.0019546717 0.0033151698 -0.0005308957 -0.0048592505 -0.003229442 0.0030089717 -0.003399813 0.0016127604
00000000: 8433 a63a a028 8abb eadf eebb 60a4 d1b9
00000010: a3a2 bc39 88f1 123b a059 9b3a dfa0 b0bb
00000020: f49a c8bb b9c8 943b 9e84 bbbb a7a3 7dba
00000030: e715 563b 16f4 f5bb e26a 743a 52f3 81bb
00000040: 349a 5b39 3b0c 1fbb 5c66 79bb 1614 90bb
00000050: 949e e13b be83 f7bb a76d 35ba 19bd b13b
00000060: e736 ff3a 20c7 af3a 04c0 49bb 8705 6d3b
00000070: 300d a1bb b17c ccbb edc9 4abb ea45 813b
00000080: e2b6 843a 7026 3fbb 5308 ae3a bc1d faba
00000090: 78bf 253b 4093 853a 4002 013b e5e8 b0bb
000000a0: a74a 4a3b c5d2 b83b a3a1 a83b 2e35 f3bb
000000b0: 9a7c 2f3b aad8 3fba d0ce 43bb 38f0 6ebb
000000c0: 099e 883b b42a b0b9 20ae 2ab7 9e45 a0bb
000000d0: a003 833a 614c 7ebb 30fa e439 de6b 063a
000000e0: 164d 3f3a 8a52 6a3b 67be 0c3b c6af fa39
000000f0: 263f fdba c557 55bb 1b79 8b3b bb21 8fba
00000100: f0e3 85bb 7a8e 153b b137 293b dd34 993b
00000110: a8cb ed3a 1447 853b 58f2 0cbb 5d11 d2bb
00000120: e807 5bbb bc97 a93a fbaf 993a 25ac 1d3b
00000130: 6aa1 98b8 bbb2 98ba eda7 a5bb f75c bebb
00000140: daf6 05bc c777 c3bb 7eb7 14bb d8f1 a8ba
00000150: f475 8f3a c70d 30bb db3d 67ba fb9f 00bb
00000160: 942c 973a 0ce7 03ba 68c2 f73a 5c53 423b
00000170: 084b 8a3b 09b3 21bb 626e 2e3b dad2 82bb
00000180: 65bc 9dbb daa6 ce39 9d28 9f3b 10e3 f3ba
00000190: 7e9f 0dbb e240 beb9 ef0c d03b 4333 3fbb
000001a0: e60f 6eb9 148a 9ebb 2571 863b 7086 913a
000001b0: 0f7b 863b 646b 4c3b 4449 053b 257e 813b
000001c0: 5b77 9eba 0458 223b ce95 afba 186a ba3b
000001d0: 9017 e539 59f9 293b 076b 623b 14ef 51bb
000001e0: f319 00bb 5243 593b cf2b 0bba 593a 9fbb
000001f0: 0ca5 53bb 2b32 453b 66cf 5ebb 4263 d33a
