ssl_model.pth (torch, 125923 bytes, 8 tensors)

gnn.input_layer.bias f4 [128]
-0.023012744 -0.03653003 0.009554544 0.004831733 -0.03196547 -0.0040867957 0.018475175 0.02133294
-0.010778945 -0.0035239588 0.013454355 -0.0009524765 -0.0044361823 -0.02755686 0.028139578 0.016869422
-0.018563654 -0.021621019 0.0080311 -0.039086793 0.01731672 0.0036497044 -0.055723105 -0.038000297
-0.022852903 -0.009006203 0.012029848 -0.010924146 0.012783172 0.01457224 0.009825448 -0.0055457596
-0.022252787 0.014118271 -0.012811291 -0.03595996 -0.0001739124 0.037438855 -0.002796932 -0.013908151
0.0018995175 -0.0032691737 -0.0071399 -0.05371451 -0.0112108495 -0.03402823 0.0031514063 -0.009115036
-0.0015944433 0.0132314935 -0.040248886 0.010814676 -0.018068591 -0.0064258734 -0.031985432 -0.029566288
-0.0075429836 -0.016024722 -0.020180684 -0.016177855 0.0046498007 -0.0024606055 -0.019920249 0.00605139
0.011108648 -0.00679569 -0.02452713 -0.007331441 -0.017923195 -0.026748545 -0.0055074287 -0.027087888
-0.012589687 -0.022468021 -0.004546044 0.00015400062 -0.05047131 0.020692464 -0.03112446 -0.021492569
0.01041788 -0.029635329 -0.018353218 -0.055416077 -0.002498954 -0.031114027 0.0041295467 -0.011632537
-0.014169828 0.017120492 0.007406767 -0.016193414 0.017238757 -0.0030663514 -0.025287274 -0.030482981
-0.040918693 -0.014386639 -0.037522133 -0.017755918 -0.0026233825 -0.0047172336 0.013664689 -0.027013285
0.025305666 -0.0026276123 -0.024887579 -0.011310925 -0.02161923 -0.024258753 -0.0015108379 -0.0042218007
0.008067652 -0.016723968 -0.010237997 0.008256918 -0.0054843263 -0.005528699 0.004016523 -0.0017947997
0.024393627 -0.0008273005 0.010059545 -0.023196952 0.012813771 0.005259329 -0.017503936 -0.018326608
00000000: 3985 bcbc 83a0 15bd aa8a 1c3c 8453 9e3b
00000010: 3aee 02bd 87ea 85bb 4059 973c 6bc2 ae3c
00000020: 2c9a 30bc 38f2 66bb a86f 5c3c 9eaf 79ba
00000030: 655d 91bb edbe e1bc f984 e63c be31 8a3c
00000040: ce12 98bc 901e b1bc e094 033c 7919 20bd
00000050: cbdb 8d3c e12f 6f3b e93d 64bd 33a6 1bbd
00000060: 0336 bbbc c18e 13bc d718 453c 30fb 32bc
00000070: 8270 513c 68c0 6e3c eafa 203c 34b9 b5bb
00000080: 7a4b b6bc 5250 673c 73e6 51bc c04a 13bd
00000090: 415c 36b9 7c59 193d bb4c 37bb 03df 63bc
000000a0: 3bf9 f83a a23f 56bb d2f5 e9bb bf03 5cbd
000000b0: b6ad 37bc 2f61 0bbd d387 4e3b 3b57 15bc
000000c0: a4fc d0ba e8c8 583c 04dc 24bd 0a30 313c
000000d0: 9504 94bc 2290 d2bb 2803 03bd 0035 f2bc
000000e0: 222b f7bb 4746 83bc f651 a5bc 6c87 84bc
000000f0: 5b5d 983b 1c42 21bb ca2f a3bc bd4a c63b
00000100: 0c01 363c 61ae debb 1fed c8bc 963c f0bb
00000110: aad3 92bc c41f dbbc a977 b4bb 6be7 ddbc
00000120: f944 4ebc db0e b8bc fbf6 94bb 3a7b 2139
00000130: 01bb 4ebd 3e83 a93c b9f8 febc 2f11 b0bc
00000140: c1af 2a3c cac5 f2bc 7d59 96bc f8fb 62bd
00000150: 7ec5 23bb d8e2 febc 2651 873b 6596 3ebc
00000160: 9128 68bc 4640 8c3c 77b4 f23b 0da8 84bc
00000170: 4b38 8d3c d7f4 48bb 4227 cfbc 72b7 f9bc
00000180: 5c9a 27bd f0b5 6bbc cfb0 19bd dc74 91bc
00000190: 0eed 2bbb 0693 9abb dce1 5f3c f74a ddbc
000001a0: d44d cf3c 0534 2cbb 09e1 cbbc 7551 39bc
000001b0: d01a b1bc 4bba c6bc 4f07 c6ba 0857 8abb
000001c0: 2f2e 043c b400 89bc 46bd 27bc 0648 073c
000001d0: ddb5 b3bb 172a b5bb 099d 833b 7c3f ebba
000001e0: 25d5 c73c 32df 58ba cad0 243c 8907 bebc
000001f0: daf0 513c 7356 ac3b 6a64 8fbc af21 96bc

gnn.input_layer.lin.weight f4 [128, 45]
-0.07156292 -0.12718008 0.16101107 0.14631303 0.10296926 0.08737565 -0.022285666 -0.13334516
0.08411873 0.17302065 0.172925 0.12394129 -0.042887747 -0.021661542 0.12002355 0.117869385
-0.011491385 -0.20025699 -0.05030594 -0.023886628 0.037658807 -0.056679245 -0.10451316 -0.0510245
-0.035583034 -0.10782936 -0.207176 0.109363995 0.122670524 0.0025419737 -0.034267068 -0.15078957
-0.016453708 0.18424667 -0.13459456 -0.22364941 0.090918034 -0.18285519 0.12710504 0.14403614
0.025970213 0.039100647 -0.0123055875 0.061600443 -0.01732327 -0.13954878 -0.03212702 0.11947492
-0.07753027 0.12366058 -0.15702489 -0.16116585 -0.23216969 -0.11232051 -0.15487869 -0.16660143
0.0700828 0.025133567 -0.0120889805 -0.08407483 -0.23492849 -0.1493686 0.01994643 -0.025405647
0.09563667 -0.07945619 -0.035451688 -0.03540694 -0.09484069 -0.1968245 -0.22565655 -0.14389937
0.10936264 0.03346705 -0.011900229 0.06217979 0.13019527 0.10917295 0.033687983 0.0664732
-0.01522613 0.09454981 0.13368273 -0.16748075 -0.011356712 0.04165048 0.05889578 0.05579051
0.086773 -0.21133623 -0.122259945 0.17506474 0.08947363 -0.13244624 0.1390053 0.17892678
0.004993705 -0.07275547 0.0908825 0.04977252 0.08266416 0.037145965 0.14419518 0.046414424
-0.14206825 0.111126654 -0.034620706 0.05508897 -0.17382847 0.07342886 0.14762129 -0.00084075343
0.06479793 0.12710062 -0.16035372 -0.056925714 -0.026339248 -0.045293953 -0.16393544 -0.018733975
-0.032639716 0.18613674 0.077801086 -0.18755476 0.08726259 -0.0026485377 -0.11221021 -0.046107545
0.10210752 0.072995245 -0.123053074 -0.11900767 -0.081418306 -0.09192519 -0.057237912 0.16474466
0.1643957 0.13922338 -0.0018267032 -0.1549575 -0.12349491 0.19344053 0.084043406 0.10152206
0.063568115 -0.16881706 0.096975714 -0.004874663 0.035890233 -0.0068259477 0.067495294 0.11432965
-0.1780491 0.10622873 -0.098721065 -0.16950823 -0.102459244 0.17311126 0.14340076 -0.08960363
-0.17854384 0.085484155 0.02758786 -0.15125531 0.1774234 -0.060690343 0.13810898 -0.04888757
-0.008362417 0.0061430093 -0.06965717 0.09213106 0.077125564 0.006348078 -0.18032114 -0.20272878
-0.15656461 0.09941894 0.15540744 -0.16958228 -0.134836 -0.07731802 0.18440685 -0.08071006
-0.19548021 -0.017597605 0.08064202 0.05486013 0.12861097 0.10752699 -0.0007904045 0.02313002
0.17391233 -0.02228886 -0.1369527 0.015514187 0.1000578 0.14892517 -0.18684885 -0.02372322
-0.13968687 -0.12548144 -0.14949545 0.11480324 -0.076206915 -0.13041708 0.029174672 -0.18097544
0.1168081 -0.04572336 -0.058293298 0.038163166 0.1118506 -0.04510138 -0.16652587 0.12685283
0.023023786 0.022425724 -0.0008926691 -0.083974816 0.031490177 0.090202644 0.11044027 -0.101368375
0.14501065 0.09989421 0.11704091 0.008663312 -0.16364804 0.10131249 -0.16602941 0.02914176
0.1802239 0.09793253 0.17601435 -0.16496058 0.06378398 0.14190447 0.10655243 0.0629598
-0.046721593 -0.05221097 -0.03493251 0.019635646 0.13803896 0.07030128 -0.04613289 -0.121991836
-0.00050086086 -0.0602364 0.021767007 0.037304856 -0.14893799 0.13612793 0.046448134 0.060874127
00000000: 958f 92bd 7f3b 02be 16e0 243e 15d3 153e
00000010: 8ce1 d23d 01f2 b23d 6e90 b6bc a28b 08be
00000020: 7146 ac3d 532c 313e 4013 313e eed4 fd3d
00000030: 10ab 2fbd 8c73 b1bc e8ce f53d 8165 f13d
00000040: 5d46 3cbc 2b10 4dbe 9a0d 4ebd e4ad c3bc
00000050: 1f40 1a3d 7f28 68bd ff0a d6bd 11ff 50bd
00000060: 84bf 11bd a4d5 dcbd f225 54be 3bfa df3d
00000070: af3a fb3d 3e97 263b a05b 0cbd 9568 1abe
00000080: edc9 86bc 29ab 3c3e 28d3 09be 5a04 65be
00000090: 3c33 ba3d 643e 3bbe d327 023e 367e 133e
000000a0: 7cbf d43c 0028 203d 609d 49bc bf50 7c3d
000000b0: 88e9 8dbc e0e5 0ebe 9f97 03bd 44af f43d
000000c0: 31c8 9ebd c241 fd3d 22cb 20be a908 25be
000000d0: e4bd 6dbe 4c08 e6bd 8598 1ebe 9199 2abe
000000e0: 9287 8f3d e9e4 cd3c dc10 46bc 6d2f acbd
000000f0: 1891 70be 15f4 18be b266 a33c 811f d0bc
00000100: 29dd c33d edb9 a2bd ca35 11bd de06 11bd
00000110: d63b c2bd 5d8c 49be 8312 67be 5b5a 13be
00000120: 85f9 df3d bf14 093d 2ef9 42bc 3cb0 7e3d
00000130: e951 053e 1196 df3d 69fc 093d 1a23 883d
00000140: 0577 79bc 55a3 c13d 20e4 083e 1380 2bbe
00000150: 8111 3abc b299 2a3d b43c 713d 9784 643d
00000160: 0bb6 b13d 8668 58be 6c63 fabd 2c44 333e
00000170: f33d b73d fd9f 07be 6857 0e3e 9538 373e
00000180: 3ca2 a33b d200 95bd 9b20 ba3d 45de 4b3d
00000190: d44b a93d 5e26 183d e7a7 133e 0d1d 3e3d
000001a0: 577a 11be 5f96 e33d 71ce 0dbd f9a4 613d
000001b0: 1700 32be df61 963d 092a 173e 0266 5cba
000001c0: c7b4 843d aa26 023e c433 24be f02a 69bd
000001d0: 68c5 d7bc 2786 39bd b1de 27be fe77 99bc
000001e0: 39b1 05bd a19a 3e3e 2d56 9f3d 5b0e 40be
000001f0: bbb6 b23d 1793 2dbb 77ce e5bd 44db 3cbd
00000200: bf1d d13d 887e 953d 4003 fcbd 4bba f3bd
00000210: a4be a6bd 4643 bcbd 4d72 6abd d3b2 283e
00000220: 5957 283e 9390 0e3e fd6d efba 2ead 1ebe
00000230: e6ea fcbd 4615 463e f31e ac3d ccea cf3d
00000240: 0030 823d 61de 2cbe 349b c63d a3bb 9fbb
00000250: a301 133d 33ac dfbb f93a 8a3d aa25 ea3d
00000260: 8152 36be 738e d93d 452e cabd 9193 2dbe
00000270: 27d6 d1bd 1444 313e a6d7 123e 1c82 b7bd
00000280: 32d4 36be 5112 af3d f0ff e13c ace2 1abe
00000290: 7bae 353e 7096 78bd 716c 0d3e 553e 48bd
000002a0: 8502 09bc 4c4b c93b 6ba8 8ebd 36af bc3d
000002b0: 02f4 9d3d 8a03 d03b 1ba6 38be 2298 4fbe
000002c0: 7952 20be 289c cb3d 2123 1f3e faa6 2dbe
000002d0: 7312 0abe e958 9ebd 26d5 3c3e 514b a5bd
000002e0: f72b 48be da28 90bc a527 a53d 04b5 603d
000002f0: 98b2 033e 1c37 dc3d 2633 4fba 2b7b bd3c
00000300: 1316 323e 2197 b6bc 543d 0cbe 372f 7e3c
00000310: 1beb cc3d d77f 183e 4e55 3fbe 3357 c2bc
00000320: 130a 0fbe 357e 00be 5615 19be f61d eb3d
00000330: 5f12 9cbd 0e8c 05be b9ff ee3c a051 39be
00000340: 1639 ef3d 6b48 3bbd f4c4 6ebd fb50 1c3d
00000350: ed11 e53d 3abc 38bd c285 2abe b5e5 013e
00000360: 619c bc3c 27b6 b73c 0202 6aba fdfa abbd
00000370: d8fb 003d 2abc b83d 822e e23d 399a cfbd
00000380: ac7d 143e 5695 cc3d 25b3 ef3d 90f0 0d3c
00000390: 5a93 27be ec7c cf3d 9d03 2abe b3ba ee3c
000003a0: 9d8c 383e da90 c83d 1b3d 343e 6deb 28be
000003b0: 2da1 823d 684f 113e 2938 da3d 11f1 803d
000003c0: 245f 3fbd 2cdb 55bd 6415 0fbd efda a03c
000003d0: 165a 0d3e 1efa 8f3d d7f5 3cbd dbd6 f9bd
000003e0: 344c 03ba 72ba 76bd b950 b23c facc 183d
000003f0: 3383 18be 1f65 0b3e 6640 3e3d 2657 793d

gnn.output_layer.bias f4 [64]
0.029904442 -0.032272268 -0.017584575 0.02116922 -0.04556667 -0.028725682 0.041156728 -0.030456701
0.06775051 -0.018919438 -0.0004817976 0.013706578 -0.00085459754 0.03370597 0.01131859 -0.05933886
-0.011975439 -0.016479107 -0.04562531 -0.039901078 -0.016395805 -0.020157048 0.000532382 -0.02961248
-0.0028987615 0.020125503 0.06547062 0.061050933 0.00969245 -0.02776703 -0.013463099 0.010858839
-0.042295698 -0.020865457 0.021536935 -0.0017632676 0.03920406 0.03580117 0.04841923 -0.033419017
0.052490618 0.047830455 0.018461417 0.017497506 0.059828572 0.027469518 0.0457952 0.06357673
0.016054697 -0.03577379 0.024186466 0.013377361 -0.004969982 -0.036149614 -0.037328806 0.02958759
0.032436736 -0.006100259 -0.03528876 -0.00268625 -0.023467436 -0.04242729 -0.03433869 -0.040009562
00000000: 29fa f43c ed2f 04bd 870d 90bc 126b ad3c
00000010: 1ea4 3abd 1f52 ebbc f593 283d 5580 f9bc
00000020: c8c0 8a3d f0fc 9abc c799 fcb9 8e91 603c
00000030: 1207 60ba 450f 0a3d 9b71 393c 4e0d 73bd
00000040: a234 44bc 31ff 86bc 9be1 3abd 506f 23bd
00000050: 7f50 86bc 6520 a5bc 8d8f 0b3a df95 f2bc
00000060: 26f9 3dbb 3dde a43c 7615 863d 8b10 7a3d
00000070: 15cd 1e3c af77 e3bc 5494 5cbc 46e9 313c
00000080: 413e 2dbd 09ee aabc 3a6e b03c 711d e7ba
00000090: 7094 203d 3fa4 123d 3e53 463d 61e2 08bd
000000a0: 6700 573d dee9 433d 663c 973c ee56 8f3c
000000b0: ce0e 753d c107 e13c bf93 3b3d 8434 823d
000000c0: 2485 833c 8a87 12bd b222 c63c b82c 5b3c
000000d0: 3bdb a2bb 9e11 14bd 17e6 18bd ac61 f23c
000000e0: 62dc 043d aee4 c7bb f28a 10bd cc0b 30bb
000000f0: c83e c0bc 3dc8 2dbd baa6 0cbd 11e1 23bd

gnn.output_layer.lin.weight f4 [64, 128]
-0.122366 0.17579257 -0.09041758 0.09660485 0.036715142 -0.13790318 -0.10000634 -0.024146503
-0.09575893 -0.12409612 -0.1690354 -0.09534272 0.09811196 0.058566134 -0.09694148 0.07313567
0.010519675 0.00043195934 0.15087453 0.021294333 0.06382669 0.043998793 0.121429816 0.068932384
0.109600976 0.041307215 0.1466956 0.14017741 -0.091417685 -0.059351437 0.050623544 -0.0037436096
-0.07915837 -0.13103718 -0.11589011 -0.063153654 -0.13362952 -0.060148697 0.07711219 0.18121336
-0.16248351 0.15303113 -0.021740083 0.0036199016 0.052120768 0.11193097 0.09495684 -0.07295346
0.02999589 -0.12517166 -0.1008014 -0.0062711113 -0.038871184 -0.02835179 -0.039020356 0.031239586
-0.051122714 0.030933542 -0.08584907 0.1770815 0.010157641 0.0332401 0.06060148 0.009468937
0.0852484 -0.04510133 0.09382431 0.08337901 0.09705385 0.11139615 -0.036810204 0.039469738
-0.16972518 0.06309614 0.14564286 0.11955013 0.041018885 -0.14832667 0.07342693 0.071416505
0.014263199 -0.14111325 0.16653085 0.115109555 0.13491543 -0.06621448 0.055246674 0.09753318
-0.08728678 -0.03868056 -0.059350368 0.12216972 0.10831041 0.1743823 0.08703592 0.10224159
-0.16469021 0.10910562 0.026573917 -0.08182734 0.017165685 -0.118224174 0.087830365 0.15664645
-0.18499464 -0.16924468 0.08522219 -0.06925908 -0.032560345 0.12569924 -0.06726177 0.19541894
-0.010239024 0.077440724 -0.14345913 0.048492935 0.11547936 -0.099148534 -0.026834248 -0.15545525
-0.162135 0.07944064 -0.11804277 -0.04905756 0.050957035 -0.13242117 0.03049745 0.13882068
0.021086821 -0.042804625 -0.035033073 -0.054460835 -0.04951924 -0.031263128 0.1776834 -0.03275195
-0.11935853 -0.12860915 0.17710006 0.05044583 -0.106299624 0.085366584 -0.18616949 0.008293415
-0.12965028 0.09139037 -0.18306383 0.06833854 -0.12053881 0.15504551 0.032992896 0.046512865
-0.13503958 -0.083958335 -0.020673778 -0.015492916 0.06754645 0.088612236 -0.0726825 0.1629499
0.16030496 0.052180026 0.06064282 -0.17148933 0.068765305 -0.08102395 -0.14445302 -0.01099769
0.15723254 0.041408174 -0.00033332256 -0.06740623 0.10823573 -0.16091992 0.15242653 -0.0904076
-0.11945179 -0.06358311 -0.05157528 0.12736394 -0.007325022 -0.016443703 0.046040107 -0.17294869
-0.010086546 -0.14991036 -0.15906385 -0.07738091 -0.10837607 0.12859939 -0.073737435 -0.12192578
-0.11549169 0.08010752 -0.15856375 -0.14480637 0.049949553 -0.14553005 -0.079696596 0.124852955
-0.024837287 -0.16153456 0.11595981 0.092881754 0.11857966 0.0713709 -0.13441624 0.008390443
-0.10883473 0.058784235 -0.108016774 0.021189386 0.120033845 0.0857016 0.15485257 -0.012043996
0.13438024 0.1761811 -0.032995496 0.0037986003 -0.056101806 0.076401755 0.019719537 0.054708913
-0.06285275 -0.17505772 0.06913776 -0.005216945 -0.11595273 -0.13474569 0.08980616 0.124644384
-0.04365988 0.11820983 0.02689014 -0.15893102 -0.14678003 0.13317977 -0.12055954 -0.037317805
-0.1544867 0.04778005 0.011283657 0.0855535 0.049236953 0.04454117 0.09240429 0.13272606
0.07636421 0.06359266 0.06159856 -0.049013875 0.11887398 -0.16253226 0.13222265 0.104098864
00000000: 079b fabd f802 343e da2c b9bd c3d8 c53d
00000010: 9e62 163d 7e36 0dbe 20d0 ccbd e3ce c5bc
00000020: 421d c4bd 1b26 febd 9e17 2dbe 0b43 c3bd
00000030: ecee c83d 0be3 6f3d 4189 c6bd 27c8 953d
00000040: b75a 2c3c 9a78 e239 da7e 1a3e 7471 ae3c
00000050: 91b7 823d 1438 343d 32b0 f83d 6c2c 8d3d
00000060: 7a76 e03d c131 293d 5f37 163e ab8a 0f3e
00000070: 3239 bbbd 7e1a 73bd a25a 4f3d 5957 75bb
00000080: c91d a2bd 9c2e 06be cb57 edbd b456 81bd
00000090: 2dd6 08be 7b5e 76bd ffec 9d3d ff8f 393e
000000a0: 1462 26be 31b4 1c3e 4218 b2bc df3b 6d3b
000000b0: 967c 553d 103c e53d bb78 c23d a068 95bd
000000c0: f1b9 f53c 002d 00be f770 cebd e57d cdbb
000000d0: 6437 1fbd 0342 e8bc cfd3 1fbd 29ea ff3c
000000e0: 0d66 51bd 5768 fd3c a3d1 afbd da54 353e
000000f0: 3c6c 263c c526 083d 4239 783d 9a23 1b3c
00000100: b796 ae3d 2cbc 38bd f626 c03d 9dc2 aa3d
00000110: 2bc4 c63d aa23 e43d 4cc6 16bd 05ab 213d
00000120: 70cc 2dbe 8d38 813d 6723 153e b3d6 f43d
00000130: 6b03 283d f2e2 17be dc60 963d d142 923d
00000140: 31b0 693c fe7f 10be 1087 2a3e 8fbe eb3d
00000150: 4527 0a3e 759b 87bd 564a 623d 7abf c73d
00000160: 69c3 b2bd 826f 1ebd 5f19 73bd 1e34 fa3d
00000170: d9d1 dd3d 4691 323e e33f b23d 0a64 d13d
00000180: 8da4 28be c472 df3d 8bb1 d93c 1895 a7bd
00000190: 0d9f 8c3c 841f f2bd 68e0 b33d ed67 203e
000001a0: 3c6f 3dbe 7a4e 2dbe f988 ae3d b4d7 8dbd
000001b0: ff5d 05bd 4db7 003e 8ac0 89bd e71b 483e
000001c0: 94c1 27bc 3e99 9e3d f3e6 12be 87a0 463d
000001d0: 7180 ec3d 630e cbbd 7fd3 dbbc a92f 1fbe
000001e0: b806 26be c6b1 a23d 68c0 f1bd 94f0 48bd
000001f0: 53b8 503d 6a99 07be cad5 f93c 0227 0e3e
00000200: 45be ac3c e753 2fbd d77e 0fbd 5312 5fbd
00000210: b0d4 4abd c40d 00bd a3f2 353e e926 06bd
00000220: 3f72 f4bd 1eb2 03be b859 353e 49a0 4e3d
00000230: 9eb3 d9bd add4 ae3d 37a3 3ebe 1be1 073c
00000240: 0bc3 04be e02a bb3d 1675 3bbe 14f5 8b3d
00000250: 0ddd f6bd 40c4 1e3e 8f23 073d 4684 3e3d
00000260: d147 0abe 59f2 abbd 0e5c a9bc 00d6 7dbc
00000270: cb55 8a3d 557a b53d 90da 94bd 57dc 263e
00000280: fc26 243e b9ba 553d 9b64 783d e69a 2fbe
00000290: d3d4 8c3d e2ef a5bd 7eeb 13be a82f 34bc
000002a0: 9101 213e 9e9b 293d ccc1 aeb9 470c 8abd
000002b0: b2aa dd3d 31c8 24be b315 1c3e 9f27 b9bd
000002c0: 24a3 f4bd dd37 82bd 9a40 53bd b16b 023e
000002d0: bd06 f0bb f2b4 86bc 8d94 3c3d 7619 31be
000002e0: 0a42 25bc 1a82 19be a2e1 22be e279 9ebd
000002f0: 46f4 ddbd 8faf 033e a703 97bd 39b4 f9bd
00000300: e886 ecbd 690f a43d 895e 22be 1f48 14be
00000310: e797 4c3d d405 15be f837 a3bd e8b2 ff3d
00000320: 9177 cbbc 5169 25be 567c ed3d ca38 be3d
00000330: e5d9 f23d e82a 923d 69a4 09be 1278 093c
00000340: bee4 debd bdc7 703d e637 ddbd 5d95 ad3c
00000350: 4ed4 f53d 5284 af3d ac91 1e3e 2e54 45bc
00000360: f99a 093e d168 343e 4926 07bd f0f1 783b
00000370: 02cb 65bd 8678 9c3d de8a a13c 7416 603d
00000380: f1b8 80bd 5542 33be 1998 8d3d e8f2 aabb
00000390: a078 edbd c6fa 09be 4bec b73d 8e45 ff3d
000003a0: b4d4 32bd ff17 f23d b648 dc3c d0be 22be
000003b0: 814d 16be 4760 083e ece7 f6bd 8eda 18bd
000003c0: c331 1ebe 04b5 433d 16df 383c ac36 af3d
000003d0: b0ac 493d cd70 363d 763e bd3d 57e9 073e
000003e0: d764 9c3d de3c 823d c64e 7c3d c6c2 48bd
000003f0: 3474 f33d db6e 26be 6065 073e c931 d53d

gnn.fc.0.weight f4 [128, 64]
0.13500473 0.093746305 0.105113104 0.15749693 -0.0011702318 -0.0101813525 -0.12330712 -0.053637125
-0.16994214 0.088478796 0.118570246 0.089402646 -0.03664449 0.01402011 -0.1388768 -0.14632365
-0.0009633899 -0.0218398 0.09330634 -0.16824827 -0.13731861 -0.012838569 -0.193355 -0.051050633
0.051349204 -0.20347589 0.0016107663 -0.086565465 -0.116015784 0.13150561 0.038914535 -0.08119444
0.06439922 -0.060242534 -0.030102758 -0.17423798 0.08268512 0.0024530306 0.12282184 -0.05417015
-0.012788221 -0.17048098 -0.119748294 0.22283424 0.01086138 -0.15307951 0.028892286 -0.094789036
0.081847824 -0.002642532 0.07068968 0.11449589 -0.08320907 0.11010118 0.1395512 -0.07741085
0.075540654 0.12732789 0.092819974 -0.18420164 -0.08423876 -0.038237642 0.19550475 0.035435453
-0.1285509 -0.033393368 -0.066007525 0.019258734 -0.18677327 -0.14248222 -0.038468808 0.06699415
0.11333412 0.05684532 0.0015802234 0.049964596 -0.09415717 -0.18972495 0.038063493 0.12221843
0.13326116 -0.052385334 -0.028821828 -0.04148476 0.09806036 -0.041479737 -0.16868202 -0.17806472
0.08118659 -0.111034736 -0.1577883 -0.13722086 -0.053577565 0.16042787 -0.06097381 -0.13369824
0.10459231 -0.04061879 0.06266352 0.12741448 0.046946146 -0.15198459 0.067232735 0.120489895
0.13928479 0.098903164 -0.00232316 0.044019144 -0.061362166 0.19174877 -0.06054367 -0.06971475
0.0062569277 -0.157597 -0.11022062 0.04625447 0.017496498 0.10315396 -0.085060365 0.10284325
-0.10725109 -0.14635281 -0.14455763 0.09646013 0.07127651 0.1231082 0.12130429 -0.13887389
0.023152841 0.1653223 -0.106510706 0.012611344 -0.007790812 -0.035461873 0.054345034 0.07080023
-0.0094247 0.058012184 -0.104388304 -0.050477266 -0.06985241 -0.09341975 0.034217086 -0.07970914
-0.12667571 0.16215873 -0.039516196 0.09989149 -0.0675414 -0.13380757 -0.13942795 0.096323475
0.03285719 0.06285501 -0.027523303 0.089122504 0.09211457 0.041235443 -0.18379457 0.046187147
-0.08298562 -0.120435104 -0.07220089 -0.022904709 0.06691142 -0.071536005 0.0902419 -0.09244872
-0.086944394 0.05532191 0.15100433 0.1547093 0.20456144 -0.11671128 0.07852091 0.12558778
-0.060787704 -0.046437122 -0.0010727524 0.1489527 -0.14779006 0.06557671 0.034103766 0.1779152
0.028646886 0.057498552 0.00061988004 0.10269675 -0.16381587 0.08638815 -0.11900978 -0.020188803
-0.050919835 0.044162765 -0.06704856 0.14695972 0.027906055 -0.03250079 -0.079990424 0.12343297
-0.006823377 -0.10755678 0.09115566 0.1696439 0.17255463 -0.021222297 -0.19681084 0.023889683
-0.15068248 -0.112106785 0.1475012 -0.08745006 0.012509801 0.08752716 0.06963065 0.06413175
-0.097698644 -0.13154152 0.07876754 0.1430301 0.052094262 0.046781003 -0.09719092 0.0999564
-0.060909417 -0.14330931 -0.08273743 0.11053677 -0.026147936 -0.11770006 0.02485613 -0.05866742
0.12890452 -0.09962428 0.11148519 -0.008282972 -0.13362092 0.08247692 0.0869826 0.049436875
-0.196194 0.09809673 0.14380947 -0.07121112 -0.018621154 -0.014264129 0.04020604 0.070863985
0.03298048 0.15325166 0.1492707 0.1184358 0.0018503838 -0.118465856 0.14513905 0.07641044
00000000: ae3e 0a3e 10fe bf3d 8a45 d73d e046 213e
00000010: 7762 99ba b0cf 26bc 7188 fcbd 9ab2 5bbd
00000020: 5005 2ebe 5f34 b53d f5d4 f23d bc18 b73d
00000030: 8818 16bd 9ab4 653c b835 0ebe ded5 15be
00000040: 008c 7cba 61e9 b2bc 6517 bf3d 4649 2cbe
00000050: 409d 0cbe dc58 52bc dafe 45be 781a 51bd
00000060: 8b53 523d fc5b 50be 5920 d33a 3c49 b1bd
00000070: af99 edbd 68a9 063e d964 1f3d 4549 a6bd
00000080: bde3 833d e0c0 76bd 0f9a f6bc 716b 32be
00000090: d156 a93d 06c3 203b 048a fb3d 85e1 5dbd
000000a0: b085 51bc 9192 2ebe 983e f5bd a92e 643e
000000b0: eef3 313c e0c0 1cbe 84af ec3c c120 c2bd
000000c0: d59f a73d 552e 2dbb c0c5 903d d27c ea3d
000000d0: 8469 aabd ba7c e13d 83e6 0e3e 9489 9ebd
000000e0: 0fb5 9a3d 3e62 023e 6618 be3d 5b9f 3cbe
000000f0: 5f85 acbd 139f 1cbd 6632 483e c424 113d
00000100: d9a2 03be 7cc7 08bd f42e 87bd 7ec4 9d3c
00000110: 7e41 3fbe dce6 11be 7891 1dbd 3b34 893d
00000120: b81b e83d a3d6 683d 801f cf3a ada7 4c3d
00000130: 79d5 c0bd 4247 42be 77e8 1b3d a84d fa3d
00000140: 9d75 083e 0192 56bd c11b ecbc eceb 29bd
00000150: dfd3 c83d a8e6 29bd fbba 2cbe 9956 36be
00000160: 2845 a63d 2e66 e3bd 4293 21be a083 0cbe
00000170: 2674 5bbd 3447 243e acbf 79bd 31e8 08be
00000180: 7e34 d63d e35f 26bd bb55 803d f178 023e
00000190: 9a4a 403d d9a1 1bbe 51b1 893d 68c3 f63d
000001a0: aca0 0e3e be8d ca3d 2840 18bb 6b4d 343d
000001b0: e556 7bbd ca59 443e a4fc 77bd 9bc6 8ebd
000001c0: ea06 cd3b 1c61 21be 59bb e1bd 5475 3d3d
000001d0: d154 8f3c 6242 d33d 2134 aebd 7b9f d23d
000001e0: 76a6 dbbd 83dd 15be ea06 14be e38c c53d
000001f0: 6bf9 913d 2720 fc3d 626e f83d f534 0ebe
00000200: 07ab bd3c 404a 293e 4922 dabd d09f 4e3c
00000210: 114a ffbb 7840 11bd e698 5e3d b6ff 903d
00000220: 0f6a 1abc 2f9e 6d3d 89c9 d5bd 40c1 4ebd
00000230: c80e 8fbd db52 bfbd 3727 0c3d 8c3e a3bd
00000240: 47b7 01be f00c 263e bcdb 21bd e993 cc3d
00000250: 2553 8abd da04 09be 33c6 0ebe 3e45 c53d
00000260: 4395 063d 21ba 803d 8d78 e1bc dc85 b63d
00000270: 90a6 bc3d 7fe6 283d a534 3cbe bc2e 3d3d
00000280: 5df4 a9bd aea6 f6bd 0fde 93bd a8a2 bbbc
00000290: db08 893d 7881 92bd bfd0 b83d c155 bdbd
000002a0: e70f b2bd 3a99 623d e1a0 1a3e 1d6c 1e3e
000002b0: 8e78 513e 5306 efbd 92cf a03d 159a 003e
000002c0: 87fc 78bd da34 3ebd 999b 8cba 0e87 183e
000002d0: 4756 17be 154d 863d 64b0 0b3d 672f 363e
000002e0: e0ac ea3c 9a83 6b3d 727f 223a ac52 d23d
000002f0: 59bf 27be 45ec b03d 66bb f3bd fd62 a5bc
00000300: 5191 50bd 04e4 343d c150 89bd 9c7c 163e
00000310: 3d9b e43c 8c1f 05bd 05d2 a3bd 6dca fc3d
00000320: a396 dfbb bb46 dcbd d2af ba3d 21b7 2d3e
00000330: 29b2 303e 62da adbc c888 49be 4cb4 c33c
00000340: 824c 1abe 3e98 e5bd 8e0a 173e 0419 b3bd
00000350: e9f5 4c3c 7141 b33d 849a 8e3d 8257 833d
00000360: 3a16 c8bd d2b2 06be e050 a13d 7c76 123e
00000370: cb60 553d 709d 3f3d 080c c7bd f1b5 cc3d
00000380: 277c 79bd adbf 12be 3e72 a9bd 1a61 e23d
00000390: 3234 d6bc bb0c f1bd 159f cb3c 404d 70bd
000003a0: 8cff 033e d107 ccbd 5952 e43d 4db5 07bc
000003b0: ecd3 08be a9e9 a83d ef23 b23d 527e 4a3d
000003c0: 14e7 48be f0e6 c83d ca42 133e 23d7 91bd
000003d0: 648b 98bc 18b4 69bc 17af 243d 2321 913d
000003e0: 8a16 073d 01ee 1c3e 6bda 183e 788e f23d
000003f0: 9488 f23a 3a9e f2bd 559f 143e 147d 9c3d

gnn.fc.0.bias f4 [128]
-0.041325696 -0.02967826 0.039176647 -0.02251266 -0.029909855 -0.028900934 0.009817091 -0.0088994885
-0.017740121 -0.0233775 0.030065723 0.02983631 0.04548346 -0.0054864897 0.014188094 -0.027621578
-0.019269424 0.004369385 -0.018897975 -0.004628463 -0.010359855 -0.007882242 -0.024319304 0.022347998
0.03655382 0.024237346 0.0018299663 -0.01689124 -0.0103251375 0.0005374718 0.021991048 -0.04800831
-0.013460445 -0.028297646 -0.02748359 -0.015708832 0.004939644 -0.030270036 -0.021258362 0.025442122
0.017648786 0.03394384 -0.010757811 -0.023726119 -0.0051288013 -0.015462347 0.03991812 -0.05875626
-0.023446683 0.01597884 -0.025268873 -0.013307016 0.014217495 -0.02812963 -0.018396938 -0.050657652
-0.028579772 0.06775207 0.044246286 -0.04747155 0.017292563 0.0035867882 -0.043462772 -0.024609953
-0.054501276 0.022501266 -0.0419656 -0.009979002 -0.0030249762 -0.02207988 -0.024742657 0.02153161
-0.023818024 -0.018382836 -0.0028290027 0.0039712284 0.03179877 -0.040272035 -0.0009692821 -0.013522026
-0.020486312 -0.015797002 -0.03878698 -0.014601884 -0.038762555 -0.04794494 -0.034175966 -0.011560108
0.00035920335 -0.060855664 0.013823353 0.022864763 -0.026222864 0.027419835 -0.0064405813 -0.020077448
-0.04286139 0.008220784 0.006969849 -0.008093241 -0.0066096606 0.008793869 0.010535653 -0.022250138
-0.0075310343 -0.018483697 -0.0071929307 0.037758846 0.009941678 -0.011341749 -0.021479685 -0.016853835
-0.013992954 0.050074812 -0.0055398457 -0.037492298 -0.05025015 -0.0326591 -0.020930726 -0.04564489
-0.020895617 -0.0062496923 -0.03147753 -0.01790149 -0.025488298 -0.05520781 -0.0009193064 -0.036676098
00000000: 2245 29bd d31f f3bc b177 203d 786c b8bc
00000010: 8305 f5bc a7c1 ecbc ddd7 203c 29cf 11bc
00000020: bb53 91bc 2c82 bfbc 644c f63c 476b f43c
00000030: dd4c 3a3d 03c8 b3bb 2e75 683c a646 e2bc
00000040: e9da 9dbc 0f2d 8f3b edcf 9abc 5daa 97bb
00000050: 62bc 29bc 8524 01bc 4739 c7bc 2613 b73c
00000060: 75b9 153d 668d c63c 7bdb ef3a 7f5f 8abc
00000070: c42a 29bc 1fe5 0c3a 9226 b43c 5da4 44bd
00000080: 3389 5cbc 77d0 e7bc 4425 e1bc cfaf 80bc
00000090: bddc a13b def8 f7bc 0426 aebc ff6b d03c
000000a0: 3094 903c b208 0b3d 8841 30bc 475d c2bc
000000b0: 810f a8bb c955 7dbc 2f81 233d 67aa 70bd
000000c0: 4213 c0bc 0ee6 823c ab00 cfbc ac05 5abc
000000d0: 7ff0 683c 1c70 e6bc 2db5 96bc 667e 4fbd
000000e0: 2020 eabc 99c1 8a3d 983b 353d 8771 42bd
000000f0: 22a9 8d3c 5210 6b3b 0506 32bd d09a c9bc
00000100: bb3c 5fbd 9354 b83c 1fe4 2bbd f87e 23bc
00000110: ae3e 46bb dde0 b4bc 1db1 cabc 0f63 b03c
00000120: 041e c3bc 9a97 96bc ca66 39bb 1421 823b
00000130: 6d3f 023d 4af4 24bd 6c17 7eba 7d8b 5dbc
00000140: e9d2 a7bc b768 81bc 19df 1ebd be3c 6fbc
00000150: 7cc5 1ebd ea61 44bd 19fc 0bbd 9b66 3dbc
00000160: 7553 bc39 ca43 79bd 587b 623c e24e bb3c
00000170: 55d1 d6bc 909f e03c 830b d3bb 7679 a4bc
00000180: 6d8f 2fbd 78b0 063c 5563 e43b 8399 04bc
00000190: da95 d8bb 2914 103c bb9d 2c3c ec45 b6bc
000001a0: e5c6 f6bb 1f6b 97bc adb2 ebbb 05a9 1a3d
000001b0: 6be2 223c bed2 39bc 2af6 afbc 0e11 8abc
000001c0: b442 65bc 3f1b 4d3d 9887 b5bb 8691 19bd
000001d0: 1ad3 4dbd 8cc5 05bd ea76 abbc 23f6 3abd
000001e0: 492d abbc 38ca ccbb 95ee 00bd 25a6 92bc
000001f0: d6cc d0bc 9621 62bd 9cfd 70ba ad39 16bd

gnn.fc.2.weight f4 [64, 128]
-0.03353995 -0.01800739 -0.18497786 0.017840458 0.10751697 -0.12821974 -0.21025546 0.12696142
0.112579815 0.07828175 -0.12554269 0.08338546 -0.16384768 0.05845057 -0.14673716 0.09478686
0.08201177 -0.029126463 -0.12575047 -0.041597247 -0.0589154 -0.060601413 0.022307616 -0.13297342
0.06223415 0.09835142 0.12407546 0.15702033 -0.037518278 0.11353752 0.18934596 -0.07286691
-0.17861074 -0.014074792 0.025592182 -0.026767643 0.0339565 0.05139341 0.14600009 -0.11986083
-0.03856887 0.06190251 0.022878 0.016178954 -0.07801913 -0.05781882 0.00074058154 0.030685741
0.044491842 -0.077074625 -0.00025826684 -0.053650852 0.14224897 -0.08103555 -0.011573988 -0.036064107
0.13732406 0.14469124 0.042373024 -0.15553421 0.06915148 0.075509526 0.14954042 -0.13720044
-0.12900214 0.14465685 0.046784252 -0.04792213 -0.089428104 0.042228457 -0.0676734 -0.11251611
-0.17677201 -0.18400729 0.024441186 -0.096023984 -0.11983363 -0.006054211 0.025159437 0.08843625
0.050710283 0.08490635 -0.05368456 0.018965568 -0.007017253 -0.11081115 0.03148151 0.1477516
-0.16793375 0.1648334 -0.19574149 -0.02576124 0.04499655 0.062785305 0.07404372 0.1641274
0.115732096 0.07826933 -0.16498618 0.021960111 -0.07730741 0.117909715 0.19569889 -0.040134586
-0.045420963 -0.1736672 0.13901664 0.03783399 -0.07738902 0.12473038 0.100023285 0.01072833
-0.06762803 -0.17869449 -0.122906126 0.12524757 -0.006389089 -0.02461001 0.16323471 0.01671089
-0.04438158 -0.008654327 0.023444109 0.032060876 0.0828428 -0.18062866 0.09518111 0.0061872145
-0.029836949 0.027382806 0.05784889 0.05347397 0.14124502 0.029273352 0.068218865 0.019745769
-0.07176498 0.1264595 -0.08203118 0.09867509 -0.107585296 0.00027957972 -0.013280057 0.07850304
0.10043558 -0.047730464 0.14637756 -0.13606395 0.13389821 0.024460217 -0.007421187 0.06705947
-0.12461954 0.098407194 -0.07457204 0.15390626 0.094440565 0.117609344 0.14322206 -0.04011066
0.13527107 -0.1780882 0.090412535 -0.054981712 -0.07239207 0.13693191 0.13643831 -0.06544031
-0.074894354 -0.112477265 0.15423691 -0.047170192 -0.064422324 -0.009058086 0.11822461 0.08977455
0.07315212 0.13049644 0.030955529 0.16249298 -0.17492226 0.10625827 -0.09036487 0.08226177
0.13688354 0.07787576 -0.01635942 -0.16518953 -0.15965122 0.09971704 0.13771254 -0.084913835
0.033686627 0.019941749 -0.19530557 0.113812044 -0.047306232 0.12843944 0.15159196 -0.13724333
0.106562555 -0.04350934 0.010249776 -0.14248525 -0.07934407 0.10191386 0.10866961 0.14650658
-0.020922286 -0.061371315 0.06163596 0.015080729 0.16024137 0.13855624 0.16930401 -0.08028798
-0.05720918 -0.091466784 0.0837987 0.085396655 0.15004624 0.11254146 -0.041179035 -0.09677447
-0.18687335 0.14238486 -0.047658622 0.07020834 -0.073154554 -0.002551604 0.08922198 -0.1508268
-0.03745599 -0.019144626 -0.10466511 -0.13376929 0.09496026 0.13005008 0.076156504 0.052736584
-0.1207085 -0.06018207 0.01007575 0.037861254 0.07616455 0.113647565 0.07417848 0.08419626
-0.11493102 -0.10038167 0.09350205 0.0014252664 0.06307993 0.12944119 0.06323064 -0.06330357
00000000: 3061 09bd 3c84 93bc d66a 3dbe 2726 923c
00000010: db31 dc3d 094c 03be 354d 57be 2d02 023e
00000020: 3f90 e63d 2f52 a03d 438e 00be ffc5 aa3d
00000030: b0c7 27be dd69 6f3d 4442 16be 9d1f c23d
00000040: c9f5 a73d 9f9a eebc bbc4 00be e061 2abd
00000050: 4651 71bd 3039 78bd 76be b63c 2f2a 08be
00000060: 3ce9 7e3d 786c c93d 461b fe3d f0c9 203e
00000070: c4ac 19bd 5c86 e83d e8e3 413e 3f3b 95bd
00000080: bce5 36be f599 66bc b2a6 d13c d147 dbbc
00000090: f915 0b3d e581 523d 0c81 153e 9879 f5bd
000000a0: 64fa 1dbd 7c8d 7d3d a56a bb3c ba89 843c
000000b0: 7ec8 9fbd 6dd3 6cbd 9623 423a aa60 fb3c
000000c0: 143d 363d 4dd9 9dbd fd67 87b9 ffc0 5bbd
000000d0: b7a9 113e f7f5 a5bd d3a0 3dbc f5b7 13bd
000000e0: ae9e 0c3e f129 143e 568f 2d3d 5c44 1fbe
000000f0: 4b9f 8d3d bda4 9a3d 2021 193e 467e 0cbe
00000100: 2319 04be ed20 143e d8a0 3f3d ff49 44bd
00000110: 1526 b7bd bff7 2c3d 5a98 8abd d96e e6bd
00000120: b903 35be 686c 3cbe e238 c83c 39a8 c4bd
00000130: 566b f5bd 6762 c6bb 2a1b ce3c 111e b53d
00000140: 96b5 4f3d 61e3 ad3d 57e4 5bbd ae5d 9b3c
00000150: fcf0 e5bb f5f0 e2bd c1f2 003d 324c 173e
00000160: d3f6 2bbe 16ca 283e 7570 48be 3c09 d3bc
00000170: 4d4e 383d 9595 803d 3ca4 973d 0311 283e
00000180: f304 ed3d ac4b a03d 23f2 28be b1e5 b33c
00000190: 5953 9ebd a67a f13d 4a65 483e 2a64 24bd
000001a0: 550b 3abd d1d5 31be 615a 0e3e d0f7 1a3d
000001b0: 227e 9ebd a472 ff3d 02d9 cc3d e1c5 2f3c
000001c0: 9180 8abd b0fb 36be 35b6 fbbd e640 003e
000001d0: 905b d1bb ef9a c9bc 0027 273e 47e5 883c
000001e0: 76c9 35bd e1ca 0dbc dc0d c03c 4452 033d
000001f0: 7ca9 a93d b8f6 38be 50ee c23d 1ebe ca3b
00000200: 9e6c f4bc e851 e03c f5f2 6c3d 8607 5b3d
00000210: 89a2 103e abce ef3c 55b6 8b3d e1c1 a13c
00000220: 85f9 92bd 997e 013e f7ff a7bd 2a16 ca3d
00000230: ae55 dcbd 8e94 9239 9994 59bc 34c6 a03d
00000240: 2bb1 cd3d 0581 43bd 00e4 153e 5954 0bbe
00000250: 9d1c 093e cb60 c83c 6e2d f3bb 7a56 893d
00000260: 8838 ffbd b689 c93d 3ab9 98bd 9a99 1d3e
00000270: 0e6a c13d 2bdd f03d cea8 123e 134b 24bd
00000280: 8084 0a3e c15c 36be 352a b93d 8134 61bd
00000290: 4b42 94bd e137 0c3e 7cb6 0b3e 9205 86bd
000002a0: 3662 99bd 7b5a e6bd 48f0 1d3e 8835 41bd
000002b0: daef 83bd 5e68 14bc bf1f f23d b8db b73d
000002c0: c7d0 953d dca0 053e 7396 fd3c 8f64 263e
000002d0: d21e 33be f09d d93d 3811 b9bd dc78 a83d
000002e0: 332b 0c3e 547d 9f3d 3104 86bc 7227 29be
000002f0: 9c7b 23be 7338 cc3d 8404 0d3e 4ee7 adbd
00000300: fdfa 093d e15c a33c 2ffe 47be 4a16 e93d
00000310: 2ec4 41bd a185 033e ec3a 1b3e 8489 0cbe
00000320: 783d da3d da36 32bd adee 273c a7e7 11be
00000330: 257f a2bd 37b8 d03d 2c8e de3d d205 163e
00000340: 3765 abbc 7d60 7bbd fd75 7c3d 2915 773c
00000350: 5016 243e b0e1 0d3e 085e 2d3e 066e a4bd
00000360: 2c54 6abd f052 bbbd a79e ab3d 71e4 ae3d
00000370: b9a5 193e 237c e63d 59ab 28bd b131 c6bd
00000380: ba5b 3fbe 56cd 113e b035 43bd 64c9 8f3d
00000390: 0ed2 95bd d038 27bb 03ba b63d 5772 1abe
000003a0: 746b 19bd 31d5 9cbc a95a d6bd d1fa 08be
000003b0: 867a c23d d92b 053e f1f7 9b3d 5102 583d
000003c0: 0536 f7bd 7981 76bd c214 253c 6714 1b3d
000003d0: 29fc 9b3d 0ec0 e83d e3ea 973d 176f ac3d
000003e0: f460 ebbd e894 cdbd 017e bf3d 01d0 ba3a
000003f0: 0d30 813d 3b8c 043e 117f 813d 4da5 81bd

gnn.fc.2.bias f4 [64]
-0.018022772 -0.035548262 -0.02326962 0.017387753 -0.022274107 -0.03347687 0.04030473 0.023013841
0.025477843 -0.042518392 0.020853795 -0.025287718 -0.0045736325 0.008867965 -0.024588553 -0.0066198125
0.022542192 0.018581238 0.019500805 -0.023275191 0.007651749 0.0058350665 -0.011577847 0.012294439
-0.027324745 -0.048821095 0.028370492 -0.020683728 -0.019486891 -0.00016485484 -0.041015703 -0.05058527
-0.01497971 0.034310117 -0.0070476197 -0.018168762 0.027753618 0.027268525 0.017178938 0.011130544
-0.008851163 -0.006330613 0.030001126 -0.01685938 0.014347332 -0.030149153 0.021962347 0.036241293
0.041304607 -0.009576122 0.046320256 -0.060444668 0.025134854 0.026563339 0.025334507 -0.009981506
0.023671977 0.013222127 -0.033150084 0.019549208 -0.024214964 0.029817967 0.01142187 0.024784055
00000000: 7ea4 93bc 0e9b 11bd ee9f bebc c370 8e3c
00000010: 3078 b6bc 0b1f 09bd 9316 253d 8687 bc3c
00000020: e9b6 d03c c427 2ebd 94d5 aa3c 3028 cfbc
00000030: 69de 95bb f14a 113c ef6d c9bc 03eb d8bb
00000040: 67aa b83c ae37 983c 27c0 9f3c 9dab bebc
00000050: 86bb fa3b 1634 bf3b 03b1 3dbc 9d6e 493c
00000060: 25d8 dfbc a1f8 47bd 3c69 e83c ec70 a9bc
00000070: f9a2 9fbc e2dc 2cb9 1500 28bd 8032 4fbd
00000080: 756d 75bc c488 0c3d b8ef e6bb a8d6 94bc
00000090: 8e5b e33c 3e62 df3c d8ba 8c3c e35c 363c
000000a0: 7804 11bc 0871 cfbb ecc4 f53c af1c 8abc
000000b0: 1211 6b3c 5bfb f6bc 61ea b33c c071 143d
000000c0: 052f 293d 2be5 1cbc 4fba 3d3d d494 77bd
000000d0: 9ce7 cd3c 5c9b d93c 508a cf3c 7889 23bc
000000e0: bceb c13c 9fa1 583c 62c8 07bd a925 a03c
000000f0: 765e c6bc cf44 f43c cc22 3b3c ee07 cb3c
