ssl_model.pth (torch, 128861 bytes, 14 tensors)

gnn.input_layer.att_src f4 [1, 1, 128]
0	0x3cb79cd7	0.022413654
1	0x3d88a6a7	0.066724114
2	0xbc56768f	-0.01308979
3	0x3d6cecc8	0.057843
4	0x3e328f40	0.17437458
5	0xbe3f4477	-0.18678461
6	0xbd4367b3	-0.047706317
7	0x3c7f2573	0.015572893
8	0x3df71543	0.12064602
9	0xbdc202b1	-0.094731696
10	0x3e063e3e	0.13109681
11	0xbd994a23	-0.074848436
12	0xbd862556	-0.0655009
13	0x3ca825c2	0.020525817
14	0x3c218002	0.00985718
15	0x3cb0ff62	0.021606151
16	0x3d8342bd	0.06409214
17	0x3d0afd4f	0.03393298
18	0xbe0d3753	-0.13790636
19	0xbd54a3de	-0.05191409
20	0xbc6b4398	-0.014359377
21	0xbd8c5c1d	-0.06853507
22	0x3d7daf4a	0.061934747
23	0xbd164225	-0.036684174
24	0xbe3a0375	-0.18165381
25	0x3e4ca588	0.1998502
26	0x3e062015	0.13098176
27	0x3e0afd40	0.1357317
28	0x3e290b73	0.16508274
29	0x3e32e305	0.17469414
30	0x3e2466f2	0.16054896
31	0x3e61f8a1	0.220675
32	0xbe09346f	-0.13398908
33	0x3e15e6fa	0.14638892
34	0x3d524761	0.051337603
35	0xbdf224a8	-0.11823398
36	0x3d75debf	0.06002688
37	0xbd72d7a9	-0.0592877
38	0x3d239263	0.039934527
39	0xbd22860d	-0.039678622
40	0x3db8c6ba	0.09022279
41	0xbe493dda	-0.19652501
42	0xbcbff52d	-0.023432339
43	0x3d6c44d8	0.057682842
44	0xbe35ec7f	-0.17765997
45	0x3c0c54c4	0.008565132
46	0xbe0592eb	-0.13044326
47	0xbe4c0279	-0.19922818
48	0x3c7fc07d	0.015609858
49	0x3cc359c8	0.023846522
50	0x3d152769	0.036414538
51	0xbd91a893	-0.07112231
52	0x3dd62a16	0.10457246
53	0xbdc9a84c	-0.09846553
54	0x3e12d5cf	0.14339374
55	0xbe09209d	-0.13391347
56	0xbe4190ff	-0.18902968
57	0x3df79478	0.12088865
58	0xbd8f8fab	-0.07009824
59	0x3dd4267b	0.10358902
60	0xbdc2ee40	-0.09518099
61	0x3d188900	0.03724003
62	0xbd53eee2	-0.05174149
63	0x3df13117	0.11776941
64	0xbd1a3d30	-0.03765601
65	0xbe01a550	-0.12660718
66	0xbd589a50	-0.05288154
67	0x3e477535	0.19478305
68	0xbe1120cf	-0.14172672
69	0xbe48edf6	-0.19622025
70	0xbda603bc	-0.08106181
71	0xbdefdcd3	-0.11712041
72	0xbe239bce	-0.15977404
73	0x3cd54dcc	0.026038073
74	0xbd2968b0	-0.041359603
75	0x3e177013	0.14788847
76	0xbd9fb7e0	-0.07798743
77	0xbd2d9226	-0.042375706
78	0xbde58f95	-0.11209027
79	0xbdd39ac4	-0.103322536
80	0x3da48eb8	0.08035034
81	0x3dbeebb7	0.09322303
82	0x3d3d7657	0.046255436
83	0x3dba7d90	0.091059804
84	0x3e1bf332	0.1522949
85	0x3d97a4c9	0.07404477
86	0x3e4a504f	0.19757198
87	0xbd534901	-0.051583294
88	0x3d8c20c5	0.06842188
89	0x3d1ca456	0.03824266
90	0x3e43981e	0.19100997
91	0x3e2e4dfa	0.17021933
92	0x3e04c7a7	0.12966786
93	0x3d8c4561	0.068491705
94	0x3e4cddc6	0.20006475
95	0x3d9a0deb	0.07522186
96	0xbe415f07	-0.18883906
97	0xbdaf55c0	-0.085612774
98	0x3cf811f6	0.030282002
99	0x3e2210c9	0.15826716
100	0xbd3d9b63	-0.046290766
101	0xbd132721	-0.035925988
102	0xbdb92c9c	-0.09041712
103	0xbc139ca7	-0.009009517
104	0x3e5037ca	0.20333782
105	0xbe19a0ea	-0.1500279
106	0x3e07021e	0.13184401
107	0x3e4a9bac	0.19785947
108	0x3d0d74a6	0.034535073
109	0x3dc46adc	0.09590694
110	0xbcbdb10f	-0.023155717
111	0x3e517661	0.20455314
112	0x3de3bd11	0.11120046
113	0xbe29fb89	-0.1659986
114	0x3d94ac76	0.07259457
115	0x3d803715	0.06260506
116	0x3da71922	0.081590906
117	0x3e493b9e	0.19651648
118	0x3e274675	0.16335471
119	0xbe2586cc	-0.16164702
120	0xbdbdbf39	-0.092649885
121	0xbd125589	-0.035726104
122	0xbdd57108	-0.104219496
123	0xbd11d6d7	-0.035605278
124	0x3e4119dc	0.18857521
125	0x3e21d4b8	0.15803802
126	0x3d8d1cc0	0.06890249
127	0x3e482672	0.19545916

gnn.input_layer.att_dst f4 [1, 1, 128]
0	0x3e3370b2	0.17523459
1	0x3e45c51d	0.19313474
2	0x3e09201e	0.13391158
3	0x3c69677e	0.014245866
4	0x3d8a8b0b	0.067648016
5	0x3dcc1e7e	0.099667534
6	0x3c9ea3d6	0.019365232
7	0x3df59032	0.11990394
8	0xbe2ca1a3	-0.16858535
9	0xbd911fd3	-0.07086148
10	0x3c74b614	0.014935989
11	0x3e446736	0.19179997
12	0x3e62088b	0.22073571
13	0xbc0410a7	-0.008060611
14	0xbc3f3d4a	-0.011672327
15	0xbdc90f90	-0.098174214
16	0xbe02ca71	-0.12772538
17	0xbde81778	-0.11332601
18	0xbd313e6f	-0.043272432
19	0xbe2e4047	-0.17016707
20	0x3d9cc9e2	0.076556936
21	0x3a893eda	0.0010471002
22	0x3b9ea259	0.0048411307
23	0xbd889a90	-0.066701055
24	0x3dcfd4f4	0.101480395
25	0xbe20f680	-0.15719032
26	0xbe37b432	-0.17939833
27	0xbd3efd3d	-0.046628226
28	0x3d3e0815	0.046394426
29	0x3d4ce38c	0.050021693
30	0x3d826645	0.063671626
31	0x3bf83b20	0.0075754076
32	0x3df275b0	0.11838853
33	0xbd98cfab	-0.074614845
34	0xbc90c2bd	-0.017670983
35	0xbaf1290b	-0.0018399073
36	0xbce65fd8	-0.028121874
37	0xbe14122d	-0.14460059
38	0x3cdc7ba3	0.026914423
39	0xbd93173d	-0.07182167
40	0xbe356c74	-0.17717153
41	0xbe474e77	-0.19463526
42	0x3d86cd04	0.065820724
43	0x3e32cb04	0.17460257
44	0xbdc49944	-0.095995456
45	0xbd80d988	-0.06291491
46	0x3dc96fe0	0.098357916
47	0xbd9f9950	-0.07792914
48	0x3df73aff	0.120717995
49	0xbbb2ec7d	-0.0054603205
50	0x3d6d807f	0.05798387
51	0xbe35535b	-0.17707579
52	0xbdece97f	-0.11567973
53	0x3defe15d	0.117129065
54	0x3e57c7c5	0.210723
55	0xbe24e0d8	-0.16101396
56	0x3dbba9b0	0.09163225
57	0xbd76c886	-0.060249828
58	0x3cdc176c	0.026866637
59	0xbd84fa51	-0.064930566
60	0x3e1bc9f1	0.15213753
61	0xbe0b5725	-0.13607462
62	0x3bb0984c	0.005389249
63	0x3cd1e32b	0.025621017
64	0xbe1151a3	-0.14191298
65	0x3e461666	0.19344482
66	0x3caf631f	0.02140957
67	0x3dd9edb7	0.10641044
68	0x3d4ebfba	0.050475813
69	0xbd76cf09	-0.060256038
70	0xbd9a1070	-0.075226665
71	0x3db25fcb	0.08709677
72	0xbd3ec6b5	-0.04657622
73	0xbdad17ef	-0.084518306
74	0x3e3fa74a	0.1871616
75	0x3dba5086	0.0909739
76	0x3e4ef2ee	0.20209858
77	0xbbd62454	-0.0065350924
78	0x3e360f96	0.17779383
79	0x3e2025da	0.15639439
80	0xbcda4a0b	-0.026646635
81	0x3e4000d9	0.18750323
82	0xbdd54a4e	-0.10414563
83	0x3e5b80a8	0.21435797
84	0xbe4cd8b8	-0.20004547
85	0xbe5bfd21	-0.2148328
86	0xbd4ce058	-0.05001864
87	0x3de9ee22	0.11422373
88	0x3daf21f6	0.085513994
89	0xbd91ef3e	-0.0712571
90	0x3e00fe70	0.1259706
91	0xbe3f8ca5	-0.18705995
92	0xbe302bbd	-0.17204185
93	0x3ce3997e	0.027783152
94	0x3e46ac00	0.1940155
95	0x3ca531e4	0.020165391
96	0xbdce3a9f	-0.10069775
97	0xbe1bb5b8	-0.15206039
98	0x3df417ce	0.11918603
99	0xbe02528e	-0.12726805
100	0x3e2c1683	0.16805463
101	0xbd97ca7b	-0.07411667
102	0xbd28e2ee	-0.041232042
103	0x3e0b8725	0.13625772
104	0x3e460c34	0.19340593
105	0x3e0ae0d0	0.13562322
106	0x3e562af0	0.20914817
107	0x3e1cfbec	0.15330476
108	0xbdc3d54f	-0.0956217
109	0xbd368dbc	-0.044568762
110	0xbdbc504b	-0.09195002
111	0xbd065da2	-0.03280414
112	0x3c5b4e77	0.013385407
113	0x3e2efc1b	0.17088358
114	0xbe0e7347	-0.13911162
115	0xbe02d7cb	-0.12777631
116	0x3e55a229	0.2086264
117	0xbd6f0c73	-0.058361482
118	0xbe291b3f	-0.165143
119	0xbe359c4c	-0.17735404
120	0x3e349a36	0.17636952
121	0x3dabf390	0.08396065
122	0x3e339561	0.17537452
123	0xbd575f0b	-0.052580874
124	0xbe21a8fb	-0.15787117
125	0xbd264ca3	-0.04060043
126	0x3e510c26	0.2041479
127	0x3dfbb595	0.122904934

gnn.input_layer.bias f4 [128]
0	0xbc081917	-0.008306763
1	0x3c144c11	0.009051339
2	0xbb21ed3a	-0.0024708048
3	0xbcc95eb5	-0.024581293
4	0xbd330802	-0.04370881
5	0xbc02f6e2	-0.007993432
6	0xbd17b1d2	-0.037034817
7	0xbcfaba90	-0.030606538
8	0x3c697e14	0.014251251
9	0xbc87d377	-0.016580326
10	0xbcf2f673	-0.029658532
11	0xbb8d3964	-0.00430982
12	0x3a146b35	0.0005661727
13	0xbcabb111	-0.020958455
14	0xbd24e21f	-0.04025471
15	0xbc5c26f2	-0.01343702
16	0xbd480c57	-0.048839893
17	0xb9cc6e0a	-0.00038991898
18	0xbb9ff0f5	-0.0048810192
19	0xbc34160e	-0.010991586
20	0xbd3224a6	-0.043491982
21	0x3cabfa85	0.02099348
22	0xbcc98645	-0.024600158
23	0xbd62f365	-0.0554079
24	0xbd38e591	-0.045140807
25	0xbd0d1e48	-0.034452707
26	0xbd2c1c16	-0.042018972
27	0xbcda74db	-0.02666705
28	0xbd5c0a46	-0.053720735
29	0xbc61a3af	-0.013771935
30	0xbcf0e277	-0.029404862
31	0xbc4b6b17	-0.012415669
32	0xbd1a5e1f	-0.037687417
33	0xbcb81a38	-0.02247344
34	0xbcbf732d	-0.02337035
35	0xbc74735e	-0.014920084
36	0xbc2e6df9	-0.010646337
37	0x3ac48c40	0.0014995411
38	0xbd26f073	-0.040756654
39	0xbd16b359	-0.036792133
40	0x3c735f54	0.014854271
41	0x3bf8be4e	0.0075910455
42	0xbc2840fb	-0.010269399
43	0x3c607954	0.013700802
44	0xbc173e01	-0.0092310915
45	0xbcbaa7b9	-0.022785055
46	0xbc707fe3	-0.014678928
47	0xbbd095c4	-0.0063655097
48	0xbd5557c5	-0.052085657
49	0xbd0d3b40	-0.034480333
50	0xbcbaa8c8	-0.02278556
51	0xbce554d8	-0.027994558
52	0xbc980a1f	-0.018559514
53	0xbcb5e24d	-0.022202635
54	0xbcb0754b	-0.021540305
55	0x3b2e8be4	0.0026633674
56	0x3c5dc87b	0.013536568
57	0xbcbb7bac	-0.02288612
58	0xbcc516ef	-0.024058787
59	0x3cd49e84	0.025954492
60	0xbcd1081c	-0.025516562
61	0xbd23eeb2	-0.04002256
62	0xbb0ff270	-0.0021964572
63	0xbc29c690	-0.010362282
64	0x3b493411	0.00307012
65	0xbc33c8eb	-0.010973196
66	0xbcf2721b	-0.029595425
67	0xbcfe3ce9	-0.031034904
68	0xbd047e76	-0.032347165
69	0x39c8b7ab	0.00038283816
70	0xbd06d2ce	-0.032915883
71	0x3be47638	0.0069721006
72	0x3d3428f4	0.04398437
73	0xbc7422ac	-0.014900845
74	0xbc7bada8	-0.015361227
75	0xbd4ad72b	-0.049521606
76	0xbc17b5ef	-0.009259685
77	0xb90c7cca	-0.00013397928
78	0xbd0d32ee	-0.0344724
79	0xbcf2fd1f	-0.029661713
80	0xbccf09eb	-0.025273284
81	0xbbba82d5	-0.005691866
82	0xbcf2685c	-0.029590778
83	0x3cc5f9ce	0.024166968
84	0x3c4a8b0c	0.012362253
85	0xbd83e954	-0.06440988
86	0xbc209622	-0.009801419
87	0x3c95070d	0.018191839
88	0xbc67cd54	-0.014148075
89	0xbaab0b54	-0.0013049641
90	0xbd869fd5	-0.06573454
91	0xbc94eaec	-0.018178426
92	0xbc9e8d5b	-0.019354513
93	0xbc03e290	-0.008049622
94	0xbca876bd	-0.020564431
95	0xbc7346b3	-0.014848399
96	0xbc1e917c	-0.009678241
97	0x3b7475b6	0.0037301606
98	0x3c306fbd	0.010768828
99	0xbc837456	-0.016046684
100	0xbd8523bd	-0.06500957
101	0xbc967e8e	-0.018370893
102	0xbce3c076	-0.027801733
103	0xbc01f603	-0.007932189
104	0xbcb7f1fd	-0.022454256
105	0xbca4de65	-0.020125577
106	0x3b43c2f8	0.002987085
107	0x3cd906ed	0.02649256
108	0xbc326175	-0.010887493
109	0x3c29e006	0.010368353
110	0xbd5c922b	-0.053850334
111	0xbc7444d6	-0.01490899
112	0xbc9190f7	-0.01776932
113	0xbc5909e0	-0.013246983
114	0xbb9dad62	-0.0048119286
115	0xbd19a1c5	-0.03750779
116	0xbcd0e6c0	-0.025500655
117	0xbd02cbfb	-0.031932812
118	0x3c8dfbef	0.017332045
119	0xbd22478a	-0.039619006
120	0xbd2069d9	-0.039163444
121	0x3b561a59	0.0032669513
122	0xbc88555e	-0.016642269
123	0xbcc0d1f3	-0.023537612
124	0xbb7f02f7	-0.003891168
125	0xbd2f3836	-0.042778216
126	0xbca226e0	-0.019793928
127	0x3c8c0bc8	0.017095461

gnn.input_layer.lin_src.weight f4 [128, 45]
0	0xbe102307	-0.14075862
1	0xbc643a41	-0.013929904
2	0xbd9e5c6b	-0.07732471
3	0xbd9c242b	-0.07624086
4	0xbe3a26a9	-0.1817881
5	0xbdab711d	-0.08371184
6	0xbdc8406f	-0.09777915
7	0xbde1f000	-0.110321045
8	0xbdfe5366	-0.12418251
9	0xbe23872a	-0.1596953
10	0x3d3ac32e	0.045596294
11	0xbe136302	-0.14393237
12	0xbcf4ab9b	-0.029866984
13	0x3e184128	0.14868605
14	0xbe406a30	-0.18790507
15	0x3dc9e3c3	0.09857895
16	0x3cc8a134	0.02449093
17	0xbe409209	-0.18805708
18	0x3e183f89	0.14867987
19	0x3d9a06c4	0.07520822
20	0x3c0e8cf7	0.008700601
21	0xbd7b388b	-0.06133322
22	0xbe1189ac	-0.14212674
23	0x3d74252d	0.059605766
24	0x3d0b027a	0.03393791
25	0xbe0b28d9	-0.13589801
26	0xbd92c4e0	-0.07166457
27	0xbe2b31b7	-0.16718183
28	0x3debb61e	0.115093455
29	0xbd4d15a6	-0.050069474
30	0x3d9cb689	0.07652003
31	0x3e006ddd	0.1254191
32	0xbd4ebe98	-0.050474733
33	0xb9da8dce	-0.00041685853
34	0xbdfbeb8c	-0.123007864
35	0xbc781883	-0.015142563
36	0xbe3a37d5	-0.1818536
37	0x3bcc3c5e	0.0062327823
38	0xbd1ca9b0	-0.038247764
39	0xbd8fd1fb	-0.070224725
40	0xbe1101cf	-0.14160846
41	0x3e2905ea	0.16506162
42	0xbe00e7e9	-0.12588467
43	0x3d894f54	0.06704584
44	0xbdf4619f	-0.11932682
45	0x3d94958b	0.072550856
46	0xbdfbfff6	-0.1230468
47	0xbdd1c3dd	-0.10242436
48	0xbdfb01d1	-0.12256206
49	0xbcf1eb44	-0.029531129
50	0xbda96011	-0.08270276
51	0xbd46540a	-0.04841999
52	0xbdf0faf5	-0.11766616
53	0x3d085202	0.033281334
54	0x3d7c73d4	0.0616339
55	0x3e1ff9d6	0.15622649
56	0xbbca4dac	-0.00617381
57	0x3ddf0632	0.108898535
58	0x3b27657d	0.002554267
59	0xbe0e5a7a	-0.13901702
60	0x3d533ebe	0.051573507
61	0xbba5b56a	-0.0050570266
62	0x3d96a9cc	0.07356605
63	0xbd659025	-0.05604567
64	0x3da5833a	0.0808167
65	0xbda84ba4	-0.08217552
66	0xbe15cf06	-0.14629754
67	0x3dc434f3	0.09580412
68	0xbd9588b7	-0.07301467
69	0x3db832df	0.08994078
70	0xbe058e60	-0.13042593
71	0xbe2a3e6a	-0.16625372
72	0xbe13aafb	-0.14420693
73	0x3e24e28c	0.16102046
74	0xbc9651e9	-0.018349605
75	0xbe3af59f	-0.1825776
76	0xbc6f5902	-0.014608623
77	0xbe12caa3	-0.14335112
78	0x3de95ba8	0.11394435
79	0xbcea8d6d	-0.02863189
80	0xbe242d5b	-0.16032927
81	0x3dbbcaf6	0.09169571
82	0x3e11c9fa	0.14237204
83	0x3ddab3a3	0.10678794
84	0x3e04d4a0	0.12971735
85	0xbdd59755	-0.10429255
86	0x3deeb7e6	0.116561696
87	0xbe0a29cf	-0.13492511
88	0xbddf3529	-0.10898811
89	0x3d3dc3fc	0.046329483
90	0xbd220cc9	-0.039562974
91	0x3daab6b3	0.08335628
92	0x3e26a8a7	0.16275273
93	0x3dd596d4	0.10429159
94	0x3ccd83cf	0.025087265
95	0xbe1a0d77	-0.15044199
96	0xbe232f42	-0.15935996
97	0x3d965d89	0.07342059
98	0x3dc58e29	0.096462555
99	0xbe235350	-0.1594975
100	0xbe5c27a0	-0.2149949
101	0x3de8f734	0.11375275
102	0xbd325e47	-0.04354694
103	0xbaec9e10	-0.0018052477
104	0xbdd38d1e	-0.1032965
105	0xbc3bb68f	-0.0114571
106	0x3daad6bc	0.083417386
107	0x3dcbe54f	0.099558465
108	0x3e19c9b5	0.15018351
109	0x3db31d4f	0.087458245
110	0xbd246b1b	-0.040141206
111	0x3df364a3	0.11884429
112	0x3de15833	0.11003151
113	0x3e4711bb	0.19440357
114	0xbdf21939	-0.11821217
115	0xbe26fe46	-0.16307935
116	0x3d9fb757	0.07798641
117	0x3d172e7f	0.036909577
118	0xbd0c5073	-0.03425641
119	0x3e1c3f8e	0.15258619
120	0x3d424f69	0.047439013
121	0xbd7ee8a5	-0.062233586
122	0xbe55442d	-0.20826788
123	0xbe05cf05	-0.13067253
124	0x3c922cfb	0.017843714
125	0xbdf8c1de	-0.12146352
126	0x3d832ef4	0.0640544
127	0xbe23047c	-0.1591968
128	0x3dcde242	0.10052921
129	0x3dc857f0	0.09782398
130	0xbbe93bb2	-0.007117712
131	0xbda1b116	-0.078951046
132	0xbe189231	-0.14899518
133	0x3cd0357c	0.025416128
134	0xbd9b3606	-0.075786635
135	0xbe367f9f	-0.17822121
136	0x3c03df29	0.008048811
137	0x3dbe70ce	0.092988595
138	0xbe05f740	-0.130826
139	0x3dd128b2	0.1021284
140	0x3d11d3cb	0.035602372
141	0xbe245339	-0.16047372
142	0x3e152269	0.14563908
143	0xbe0201f2	-0.12696055
144	0xbd200f41	-0.039077047
145	0xbbb6c068	-0.005577136
146	0x3dba1a2d	0.09087024
147	0x3dc40d17	0.09572809
148	0xbe4f9cbe	-0.20274636
149	0xbe4a67b9	-0.1976613
150	0x3e3085d4	0.17238551
151	0x3a93759c	0.001125026
152	0xbbd1d5ba	-0.006403652
153	0x3db8fd0f	0.09032642
154	0x3dddde0c	0.10833368
155	0xbbdeca10	-0.00679899
156	0x3c862bf8	0.016378388
157	0x3d718c77	0.05897185
158	0xbd41bb7e	-0.047297947
159	0xbe4d15e7	-0.20027886
160	0x3db8e526	0.090280816
161	0x3d48b903	0.049004566
162	0x3dae5e63	0.085140966
163	0xbdc8959a	-0.09794159
164	0xbd8002ef	-0.062505595
165	0xbe1283b8	-0.14308059
166	0xbdb389a6	-0.08766489
167	0xbd847d8a	-0.06469257
168	0xbd869c70	-0.06572807
169	0xbdca37ad	-0.098739006
170	0xbdcfd2e9	-0.1014765
171	0x3e05f2d5	0.13080914
172	0x3d64580f	0.05574804
173	0xbc488302	-0.012238266
174	0x3d63b04a	0.055588044
175	0x3e3055f0	0.17220283
176	0x3dc5d987	0.09660631
177	0x3e0c0101	0.13672258
178	0x3ca14a01	0.019688608
179	0xbe012b38	-0.12614143
180	0x3d1b32e4	0.03789033
181	0xbd8f6c4a	-0.070030764
182	0xbcdbe2d3	-0.026841557
183	0x3d951b26	0.07280569
184	0xbe2509a6	-0.16116962
185	0xbd68f154	-0.056870773
186	0xbd203355	-0.039111454
187	0xbe4b191a	-0.19833794
188	0x3deb8373	0.11499681
189	0xbe66d061	-0.22540428
190	0xbdc1df1f	-0.09466385
191	0xbe4c0bce	-0.19926378
192	0xbd7b0be0	-0.06129062
193	0x3cf633bd	0.030053968
194	0x3d610679	0.054937813
195	0xbe1bc131	-0.15210415
196	0xbcfd8f34	-0.030952074
197	0x3dac3955	0.08409373
198	0x3da3b1ce	0.07992898
199	0x3d717529	0.058949623
200	0xbe52c434	-0.20582658
201	0xbd607046	-0.054794572
202	0xbe3c0ef7	-0.18365084
203	0x3d84e9a6	0.064898774
204	0xbd982357	-0.074286155
205	0x3c99b220	0.018761694
206	0xbd85abb0	-0.065268874
207	0xbe56735f	-0.20942448
208	0x3e0e3be5	0.13890035
209	0xbbf9d3e9	-0.0076241386
210	0x3dfe1151	0.124056466
211	0xbdc9d013	-0.0985414
212	0x3df0e6b1	0.11762751
213	0x3d53cb0a	0.051707305
214	0x3e0a8f51	0.13531233
215	0x3d5cc6d9	0.053900573
216	0x3da12fab	0.0787042
217	0x3dcacc13	0.09902205
218	0xbd154731	-0.036444847
219	0x3cf0db8e	0.029401567
220	0xbe6a4d77	-0.22881113
221	0x3da35538	0.079752386
222	0x3d374ddc	0.044751987
223	0x3d688c8a	0.056774653
224	0xbe33c5e1	-0.17555954
225	0xbde11c04	-0.10991672
226	0xbceb681a	-0.028736163
227	0xbde4a268	-0.11163789
228	0x3df75377	0.120764665
229	0xbc9b1391	-0.018930228
230	0x3c65ea70	0.014032945
231	0x3d4b3112	0.049607344
232	0xbe4d4702	-0.20046619
233	0xbdd438da	-0.10362406
234	0x3dc298b4	0.09501782
235	0x3e003fb6	0.12524304
236	0xbd0eef9c	-0.034896478
237	0x3d3acd4f	0.045605954
238	0xbe300150	-0.17188
239	0xbdb7df0b	-0.08978089
240	0xbdfa6d6a	-0.122279
241	0x3d79853c	0.060918078
242	0x3dbf64fd	0.09345434
243	0x3da3a528	0.079904854
244	0x38e679d2	0.000109899454
245	0x3e2567a1	0.16152813
246	0x3e095771	0.13412262
247	0xbe339a06	-0.17539224
248	0x3d8be1b2	0.06830157
249	0x3c83fcef	0.01611182
250	0x3da29f88	0.079405844
251	0xbdd4a915	-0.10383812
252	0xbca0c3a0	-0.019624531
253	0xbe32ab7a	-0.17448226
254	0xbdfb843c	-0.12281081
255	0x3d9abaf9	0.075551935

gnn.input_layer.lin_dst.weight f4 [128, 45]
0	0xbe102307	-0.14075862
1	0xbc643a41	-0.013929904
2	0xbd9e5c6b	-0.07732471
3	0xbd9c242b	-0.07624086
4	0xbe3a26a9	-0.1817881
5	0xbdab711d	-0.08371184
6	0xbdc8406f	-0.09777915
7	0xbde1f000	-0.110321045
8	0xbdfe5366	-0.12418251
9	0xbe23872a	-0.1596953
10	0x3d3ac32e	0.045596294
11	0xbe136302	-0.14393237
12	0xbcf4ab9b	-0.029866984
13	0x3e184128	0.14868605
14	0xbe406a30	-0.18790507
15	0x3dc9e3c3	0.09857895
16	0x3cc8a134	0.02449093
17	0xbe409209	-0.18805708
18	0x3e183f89	0.14867987
19	0x3d9a06c4	0.07520822
20	0x3c0e8cf7	0.008700601
21	0xbd7b388b	-0.06133322
22	0xbe1189ac	-0.14212674
23	0x3d74252d	0.059605766
24	0x3d0b027a	0.03393791
25	0xbe0b28d9	-0.13589801
26	0xbd92c4e0	-0.07166457
27	0xbe2b31b7	-0.16718183
28	0x3debb61e	0.115093455
29	0xbd4d15a6	-0.050069474
30	0x3d9cb689	0.07652003
31	0x3e006ddd	0.1254191
32	0xbd4ebe98	-0.050474733
33	0xb9da8dce	-0.00041685853
34	0xbdfbeb8c	-0.123007864
35	0xbc781883	-0.015142563
36	0xbe3a37d5	-0.1818536
37	0x3bcc3c5e	0.0062327823
38	0xbd1ca9b0	-0.038247764
39	0xbd8fd1fb	-0.070224725
40	0xbe1101cf	-0.14160846
41	0x3e2905ea	0.16506162
42	0xbe00e7e9	-0.12588467
43	0x3d894f54	0.06704584
44	0xbdf4619f	-0.11932682
45	0x3d94958b	0.072550856
46	0xbdfbfff6	-0.1230468
47	0xbdd1c3dd	-0.10242436
48	0xbdfb01d1	-0.12256206
49	0xbcf1eb44	-0.029531129
50	0xbda96011	-0.08270276
51	0xbd46540a	-0.04841999
52	0xbdf0faf5	-0.11766616
53	0x3d085202	0.033281334
54	0x3d7c73d4	0.0616339
55	0x3e1ff9d6	0.15622649
56	0xbbca4dac	-0.00617381
57	0x3ddf0632	0.108898535
58	0x3b27657d	0.002554267
59	0xbe0e5a7a	-0.13901702
60	0x3d533ebe	0.051573507
61	0xbba5b56a	-0.0050570266
62	0x3d96a9cc	0.07356605
63	0xbd659025	-0.05604567
64	0x3da5833a	0.0808167
65	0xbda84ba4	-0.08217552
66	0xbe15cf06	-0.14629754
67	0x3dc434f3	0.09580412
68	0xbd9588b7	-0.07301467
69	0x3db832df	0.08994078
70	0xbe058e60	-0.13042593
71	0xbe2a3e6a	-0.16625372
72	0xbe13aafb	-0.14420693
73	0x3e24e28c	0.16102046
74	0xbc9651e9	-0.018349605
75	0xbe3af59f	-0.1825776
76	0xbc6f5902	-0.014608623
77	0xbe12caa3	-0.14335112
78	0x3de95ba8	0.11394435
79	0xbcea8d6d	-0.02863189
80	0xbe242d5b	-0.16032927
81	0x3dbbcaf6	0.09169571
82	0x3e11c9fa	0.14237204
83	0x3ddab3a3	0.10678794
84	0x3e04d4a0	0.12971735
85	0xbdd59755	-0.10429255
86	0x3deeb7e6	0.116561696
87	0xbe0a29cf	-0.13492511
88	0xbddf3529	-0.10898811
89	0x3d3dc3fc	0.046329483
90	0xbd220cc9	-0.039562974
91	0x3daab6b3	0.08335628
92	0x3e26a8a7	0.16275273
93	0x3dd596d4	0.10429159
94	0x3ccd83cf	0.025087265
95	0xbe1a0d77	-0.15044199
96	0xbe232f42	-0.15935996
97	0x3d965d89	0.07342059
98	0x3dc58e29	0.096462555
99	0xbe235350	-0.1594975
100	0xbe5c27a0	-0.2149949
101	0x3de8f734	0.11375275
102	0xbd325e47	-0.04354694
103	0xbaec9e10	-0.0018052477
104	0xbdd38d1e	-0.1032965
105	0xbc3bb68f	-0.0114571
106	0x3daad6bc	0.083417386
107	0x3dcbe54f	0.099558465
108	0x3e19c9b5	0.15018351
109	0x3db31d4f	0.087458245
110	0xbd246b1b	-0.040141206
111	0x3df364a3	0.11884429
112	0x3de15833	0.11003151
113	0x3e4711bb	0.19440357
114	0xbdf21939	-0.11821217
115	0xbe26fe46	-0.16307935
116	0x3d9fb757	0.07798641
117	0x3d172e7f	0.036909577
118	0xbd0c5073	-0.03425641
119	0x3e1c3f8e	0.15258619
120	0x3d424f69	0.047439013
121	0xbd7ee8a5	-0.062233586
122	0xbe55442d	-0.20826788
123	0xbe05cf05	-0.13067253
124	0x3c922cfb	0.017843714
125	0xbdf8c1de	-0.12146352
126	0x3d832ef4	0.0640544
127	0xbe23047c	-0.1591968
128	0x3dcde242	0.10052921
129	0x3dc857f0	0.09782398
130	0xbbe93bb2	-0.007117712
131	0xbda1b116	-0.078951046
132	0xbe189231	-0.14899518
133	0x3cd0357c	0.025416128
134	0xbd9b3606	-0.075786635
135	0xbe367f9f	-0.17822121
136	0x3c03df29	0.008048811
137	0x3dbe70ce	0.092988595
138	0xbe05f740	-0.130826
139	0x3dd128b2	0.1021284
140	0x3d11d3cb	0.035602372
141	0xbe245339	-0.16047372
142	0x3e152269	0.14563908
143	0xbe0201f2	-0.12696055
144	0xbd200f41	-0.039077047
145	0xbbb6c068	-0.005577136
146	0x3dba1a2d	0.09087024
147	0x3dc40d17	0.09572809
148	0xbe4f9cbe	-0.20274636
149	0xbe4a67b9	-0.1976613
150	0x3e3085d4	0.17238551
151	0x3a93759c	0.001125026
152	0xbbd1d5ba	-0.006403652
153	0x3db8fd0f	0.09032642
154	0x3dddde0c	0.10833368
155	0xbbdeca10	-0.00679899
156	0x3c862bf8	0.016378388
157	0x3d718c77	0.05897185
158	0xbd41bb7e	-0.047297947
159	0xbe4d15e7	-0.20027886
160	0x3db8e526	0.090280816
161	0x3d48b903	0.049004566
162	0x3dae5e63	0.085140966
163	0xbdc8959a	-0.09794159
164	0xbd8002ef	-0.062505595
165	0xbe1283b8	-0.14308059
166	0xbdb389a6	-0.08766489
167	0xbd847d8a	-0.06469257
168	0xbd869c70	-0.06572807
169	0xbdca37ad	-0.098739006
170	0xbdcfd2e9	-0.1014765
171	0x3e05f2d5	0.13080914
172	0x3d64580f	0.05574804
173	0xbc488302	-0.012238266
174	0x3d63b04a	0.055588044
175	0x3e3055f0	0.17220283
176	0x3dc5d987	0.09660631
177	0x3e0c0101	0.13672258
178	0x3ca14a01	0.019688608
179	0xbe012b38	-0.12614143
180	0x3d1b32e4	0.03789033
181	0xbd8f6c4a	-0.070030764
182	0xbcdbe2d3	-0.026841557
183	0x3d951b26	0.07280569
184	0xbe2509a6	-0.16116962
185	0xbd68f154	-0.056870773
186	0xbd203355	-0.039111454
187	0xbe4b191a	-0.19833794
188	0x3deb8373	0.11499681
189	0xbe66d061	-0.22540428
190	0xbdc1df1f	-0.09466385
191	0xbe4c0bce	-0.19926378
192	0xbd7b0be0	-0.06129062
193	0x3cf633bd	0.030053968
194	0x3d610679	0.054937813
195	0xbe1bc131	-0.15210415
196	0xbcfd8f34	-0.030952074
197	0x3dac3955	0.08409373
198	0x3da3b1ce	0.07992898
199	0x3d717529	0.058949623
200	0xbe52c434	-0.20582658
201	0xbd607046	-0.054794572
202	0xbe3c0ef7	-0.18365084
203	0x3d84e9a6	0.064898774
204	0xbd982357	-0.074286155
205	0x3c99b220	0.018761694
206	0xbd85abb0	-0.065268874
207	0xbe56735f	-0.20942448
208	0x3e0e3be5	0.13890035
209	0xbbf9d3e9	-0.0076241386
210	0x3dfe1151	0.124056466
211	0xbdc9d013	-0.0985414
212	0x3df0e6b1	0.11762751
213	0x3d53cb0a	0.051707305
214	0x3e0a8f51	0.13531233
215	0x3d5cc6d9	0.053900573
216	0x3da12fab	0.0787042
217	0x3dcacc13	0.09902205
218	0xbd154731	-0.036444847
219	0x3cf0db8e	0.029401567
220	0xbe6a4d77	-0.22881113
221	0x3da35538	0.079752386
222	0x3d374ddc	0.044751987
223	0x3d688c8a	0.056774653
224	0xbe33c5e1	-0.17555954
225	0xbde11c04	-0.10991672
226	0xbceb681a	-0.028736163
227	0xbde4a268	-0.11163789
228	0x3df75377	0.120764665
229	0xbc9b1391	-0.018930228
230	0x3c65ea70	0.014032945
231	0x3d4b3112	0.049607344
232	0xbe4d4702	-0.20046619
233	0xbdd438da	-0.10362406
234	0x3dc298b4	0.09501782
235	0x3e003fb6	0.12524304
236	0xbd0eef9c	-0.034896478
237	0x3d3acd4f	0.045605954
238	0xbe300150	-0.17188
239	0xbdb7df0b	-0.08978089
240	0xbdfa6d6a	-0.122279
241	0x3d79853c	0.060918078
242	0x3dbf64fd	0.09345434
243	0x3da3a528	0.079904854
244	0x38e679d2	0.000109899454
245	0x3e2567a1	0.16152813
246	0x3e095771	0.13412262
247	0xbe339a06	-0.17539224
248	0x3d8be1b2	0.06830157
249	0x3c83fcef	0.01611182
250	0x3da29f88	0.079405844
251	0xbdd4a915	-0.10383812
252	0xbca0c3a0	-0.019624531
253	0xbe32ab7a	-0.17448226
254	0xbdfb843c	-0.12281081
255	0x3d9abaf9	0.075551935

gnn.output_layer.att_src f4 [1, 1, 64]
0	0xbcdcbfe5	-0.026946971
1	0x3e581a7a	0.2110385
2	0x3de6eac4	0.11275247
3	0x3ddc63eb	0.10761245
4	0x3dee85e7	0.116466336
5	0xbe1d38e1	-0.15353729
6	0xbe659261	-0.2241912
7	0xb908ef53	-0.00013059126
8	0x3e43d36d	0.19123621
9	0x3c6b31cd	0.014355135
10	0x3e83b038	0.25720382
11	0xbe832936	-0.2561738
12	0xbe674eec	-0.225887
13	0x3d2717f2	0.04079432
14	0x3e4d7fa5	0.20068224
15	0x3d8c4875	0.068497576
16	0x3cfb9011	0.030708345
17	0x3da2577d	0.07926843
18	0x3e6dff3e	0.23241898
19	0x3e7fd4c9	0.24983515
20	0x3e856a48	0.2605765
21	0xbe8d5edb	-0.2761143
22	0xbdf68f67	-0.120390706
23	0x3d4fd76b	0.050742548
24	0xbd200a4c	-0.03907232
25	0x3e1730ad	0.14764662
26	0xbdc320da	-0.0952775
27	0x3debfeff	0.11523246
28	0xbe636aeb	-0.22208755
29	0xbc780288	-0.015137322
30	0xbd61e18b	-0.055146735
31	0x3c4bb028	0.012432136
32	0xbcd7cbe3	-0.026342338
33	0xbdc643d2	-0.096809044
34	0x3da196ec	0.07890114
35	0x3c5631df	0.013073414
36	0xbe16e6dd	-0.14736505
37	0xbd569abb	-0.052393656
38	0xbc98752a	-0.018610556
39	0xbd813fa0	-0.06310964
40	0x3e73a569	0.23793568
41	0xbdd84ed5	-0.10561911
42	0xbd58bab4	-0.05291243
43	0xbe41cc47	-0.18925582
44	0xbdce7b8c	-0.100821584
45	0x3e798804	0.24368292
46	0x3e894b9b	0.26815495
47	0x3e1f6edc	0.15569633
48	0xbe8a44a1	-0.27005485
49	0x3cc13705	0.023585806
50	0xbe4949c0	-0.1965704
51	0x3e6e6c78	0.23283565
52	0xbe72faa8	-0.2372843
53	0xbe812059	-0.25219992
54	0xbe04f837	-0.12985311
55	0xbe24e804	-0.16104132
56	0xbdbddbcd	-0.09270439
57	0x3e2fa696	0.17153391
58	0xbdb529f5	-0.08845893
59	0xbc7c35bd	-0.015393672
60	0x3a8d1c26	0.0010765835
61	0x3e1a875f	0.15090702
62	0x3e7a905f	0.24469136
63	0xbe6d5e97	-0.23180614

gnn.output_layer.att_dst f4 [1, 1, 64]
0	0x3c9ae6ba	0.018908847
1	0x3e7d9c10	0.24766564
2	0xbe6eb35a	-0.23310605
3	0xbddb3a9d	-0.10704539
4	0x3e54f587	0.20796786
5	0xbe6309ff	-0.22171782
6	0xbd4aefd3	-0.04954512
7	0x3d21194e	0.039330773
8	0xbc9a1f36	-0.01881371
9	0xbe821c8c	-0.25412405
10	0xbe159ab9	-0.14609803
11	0xbd1e4d3f	-0.038647886
12	0x3d26d6b8	0.040732116
13	0x3e675795	0.22592004
14	0xbdabf48c	-0.08396253
15	0x3d3a5e6d	0.045500208
16	0xbdbbf18d	-0.091769315
17	0x3e423ebf	0.18969248
18	0xbd346c09	-0.044048343
19	0x3d330652	0.0437072
20	0xbe205b92	-0.15659931
21	0xbd07c129	-0.033143196
22	0x3bc822b5	0.006107653
23	0x3e945620	0.28971958
24	0xbe017915	-0.12643845
25	0xbe177f6f	-0.14794706
26	0xbe983b77	-0.29732868
27	0xbe8509b3	-0.25983962
28	0x3e394a1a	0.18094674
29	0xbcdffc79	-0.027342068
30	0xbe157216	-0.14594302
31	0x3d88fc45	0.066887416
32	0xbd0b7338	-0.034045428
33	0xbea32ce3	-0.31870183
34	0xbe83cadc	-0.25740707
35	0x3dc1ca65	0.09462432
36	0xbd45d4b2	-0.048298545
37	0xbdf912c6	-0.12161784
38	0xbe416148	-0.18884766
39	0x3daf534b	0.08560809
40	0xbe8219c7	-0.25410292
41	0x3c0762a2	0.008263262
42	0xbe4de8b6	-0.20108303
43	0xbdf9a9aa	-0.12190564
44	0xbe9ae023	-0.30249128
45	0xbe29f520	-0.16597414
46	0x3e8496e2	0.25896364
47	0x3986cd6f	0.00025711532
48	0xbd8c49eb	-0.06850036
49	0x3e149a0a	0.14511886
50	0xbe8bf23e	-0.27333254
51	0x3dc1d054	0.094635636
52	0x3db7e587	0.08979326
53	0x3e7b714b	0.24554937
54	0xbdf175e5	-0.11790065
55	0x3dee7ffc	0.11645505
56	0x3e5fd96b	0.21860282
57	0x3e1123c4	0.141738
58	0x3e8a9614	0.27067626
59	0x3e8d625d	0.27614108
60	0x3df1c67c	0.11805436
61	0xbe2f7c7b	-0.1713733
62	0xbd7ce22a	-0.061739124
63	0xbcf5eb00	-0.030019283

gnn.output_layer.bias f4 [64]
0	0x3c42439d	0.011856941
1	0xbd8beae5	-0.06831912
2	0xbd897c1f	-0.06713127
3	0x3d25f011	0.04051215
4	0xbd94a61a	-0.07258244
5	0xbc587c77	-0.0132132685
6	0xbc9c3257	-0.019066973
7	0x3cb4e265	0.02208061
8	0x3d655a50	0.05599433
9	0x3d580935	0.052743156
10	0x3ce3afef	0.027793853
11	0xbd02790b	-0.031853717
12	0xbb963814	-0.0045843218
13	0xbc8871e1	-0.016655864
14	0xbdb79407	-0.08963781
15	0x3caf8c94	0.021429338
16	0x3c856adc	0.016286306
17	0x3d567bf4	0.052364305
18	0xbdcbe133	-0.09955063
19	0x3be03745	0.006842526
20	0xbd44652c	-0.047948048
21	0x3df27558	0.11838788
22	0x3cae816e	0.021301951
23	0x3d98d7b3	0.07463016
24	0xbd50917a	-0.050919987
25	0xbbca12b1	-0.006166779
26	0x3c1e7c75	0.009673228
27	0xbd3a6aa3	-0.045511853
28	0x3d2d6432	0.04233188
29	0x3dd62e84	0.10458091
30	0x3d43df6e	0.0478205
31	0xbd236465	-0.039890666
32	0x3cbb17eb	0.022838553
33	0xbdcb3cab	-0.09923681
34	0x3c3ed477	0.011647335
35	0x3d70c83b	0.058784705
36	0xbd64dfbc	-0.055877432
37	0xbd46a7e3	-0.048499953
38	0xbd6a7946	-0.05724456
39	0x3c98375c	0.018581085
40	0x3d7f64d1	0.062352005
41	0x3dd7239d	0.105048396
42	0x3de35fa1	0.11102224
43	0x3d7aba8b	0.061213057
44	0x3d6fdf52	0.058562584
45	0xbc166f2c	-0.009181779
46	0xbc2c6788	-0.010522731
47	0xbc8baf20	-0.01705128
48	0x3d883fb7	0.06652778
49	0x3da8d94b	0.0824457
50	0x3d9bd46b	0.07608875
51	0xbd38ace6	-0.045086764
52	0xbd6eafb7	-0.058273043
53	0x3d24177f	0.04006147
54	0xbdd4581e	-0.103683695
55	0xbae9c066	-0.0017833828
56	0xbca429c0	-0.02003944
57	0xbd801484	-0.06253913
58	0xbcd7f0ae	-0.026359882
59	0x3d1f9fa4	0.038970605
60	0xbca3a3ba	-0.019975532
61	0x3d8f9065	0.07009963
62	0xbc43c66f	-0.011949166
63	0x3d1576fe	0.036490433

gnn.output_layer.lin_src.weight f4 [64, 128]
0	0x3da82b7d	0.0821142
1	0x3cb08ad7	0.021550579
2	0xbe27ca40	-0.16385746
3	0xbe272f52	-0.16326645
4	0x3c3c1cbc	0.01148146
5	0x3d99b7eb	0.07505783
6	0xbe37f017	-0.17962681
7	0x3bae5562	0.005320237
8	0x3cf0a39d	0.029374892
9	0x3de35a03	0.11101153
10	0xbd833518	-0.06406611
11	0xbc905245	-0.017617354
12	0x3dc8f203	0.09811785
13	0x3d0ce342	0.034396417
14	0xbcbf311f	-0.023338852
15	0xbda2818c	-0.07934865
16	0x3c89ac60	0.016805828
17	0xbc307ba0	-0.010771662
18	0x3dc1ff37	0.094725065
19	0x38d768e8	0.00010271539
20	0xbd9839ca	-0.074328974
21	0x3d60e580	0.05490637
22	0xbe2c0414	-0.1679843
23	0xbe1c0037	-0.15234457
24	0xbe2fd49e	-0.17170951
25	0x3e33ab25	0.17545755
26	0xbd804245	-0.0626264
27	0x3d72d97f	0.05928945
28	0xbd54e41c	-0.051975355
29	0xbbb3367e	-0.0054691425
30	0x3e42e3a8	0.19032156
31	0xbd524466	-0.05133476
32	0xbcce2713	-0.025165116
33	0x3e07e8e4	0.13272434
34	0xbbcf7261	-0.0063307737
35	0xbe2258f4	-0.15854245
36	0x3e0d6d13	0.1381114
37	0x3d807fd2	0.0627438
38	0x3db7b76a	0.0897053
39	0xbe32dab5	-0.17466243
40	0xbbba4309	-0.0056842607
41	0xbdec4148	-0.11535889
42	0x3d1ec409	0.038761172
43	0xbd81c93a	-0.06337209
44	0xbd6bf794	-0.057609156
45	0x3e2adfad	0.16686888
46	0x3e1422bd	0.14466377
47	0x3d635e17	0.055509653
48	0xbd76929c	-0.06019841
49	0xbb7b39c2	-0.0038333987
50	0xbd6bd3f5	-0.057575185
51	0xbd3ee9d6	-0.046609722
52	0x3dde0a77	0.1084184
53	0xbe15eda4	-0.14641434
54	0xbd302af5	-0.043009717
55	0x3dfce7b2	0.1234888
56	0x3df4b4ba	0.11948533
57	0xbcc6eb0a	-0.024281997
58	0x3d718f60	0.058974624
59	0x3d88ac33	0.066734694
60	0x3da0a5cc	0.07844123
61	0xbceb49ca	-0.028721709
62	0x3e52c4ce	0.20582888
63	0xbda402ff	-0.08008384
64	0x3d93ec21	0.072227724
65	0x3e054e94	0.13018256
66	0xbe18eb0f	-0.14933418
67	0x3d74e030	0.059784114
68	0xbd0a7a69	-0.033808146
69	0xbd3e568b	-0.046469253
70	0xbcbdb537	-0.023157699
71	0xbdc04fe3	-0.09390237
72	0xbdd275e7	-0.10276394
73	0xbd9f3775	-0.077742495
74	0xbe2c53b8	-0.16828811
75	0xbd2a1e3f	-0.04153275
76	0x3d1a799a	0.037713625
77	0x3dc7c0db	0.09753581
78	0xbcbbb1a7	-0.02291186
79	0x3e22ab68	0.15885699
80	0x3d24f3db	0.04027162
81	0x3d222cb4	0.039593413
82	0x3e3b662d	0.18300696
83	0x3cea6247	0.028611315
84	0x3dbb9fc5	0.09161333
85	0xbe0c69ed	-0.13712282
86	0x3cc2c5ff	0.023776053
87	0xbe0354fd	-0.12825389
88	0x3e2ba4bf	0.16762064
89	0x3c146f0a	0.009059677
90	0x3ddfd413	0.10929122
91	0xbdbf8072	-0.09350671
92	0x3dede111	0.11615194
93	0xbaba855b	-0.0014230417
94	0x3c5d7d2d	0.013518614
95	0x3e1d1660	0.15340567
96	0x3dee2d91	0.11629785
97	0xbe09ce1a	-0.13457528
98	0xbc9a81ad	-0.018860662
99	0x3db086e0	0.08619475
100	0x3d685f9e	0.056731813
101	0xbe0c93cf	-0.1372826
102	0xbbb32528	-0.005467076
103	0xbd37f4cc	-0.04491119
104	0xbdf1bbec	-0.118034214
105	0xbe124be7	-0.14286767
106	0x3e224d2c	0.15849751
107	0xbbff0d2e	-0.0077835536
108	0x3c8bf04b	0.017082354
109	0xbd8b9e38	-0.06817287
110	0x3e1c626c	0.1527192
111	0xbd46590c	-0.048424765
112	0x3e02c048	0.12768662
113	0xbe01706e	-0.12640545
114	0xbe1c3658	-0.15255105
115	0x3d598c77	0.053112473
116	0xbd1ee497	-0.03879222
117	0x3e2aea79	0.16691007
118	0x3c8f070e	0.017459419
119	0x3e1a54e0	0.1507144
120	0x3e2ab579	0.16670789
121	0xbe0e077d	-0.13870044
122	0xbdae16ac	-0.08500418
123	0x3d5395a4	0.05165638
124	0x3b4d47b2	0.0031323251
125	0xbe0f5169	-0.139959
126	0x3bd2c51b	0.006432188
127	0xbe3a4834	-0.18191606
128	0xbdb93e18	-0.090450466
129	0xbe251d8b	-0.16124551
130	0xbd1e9545	-0.038716573
131	0x3cbe4130	0.023224443
132	0xbe14a55e	-0.14516208
133	0xbbfda082	-0.0077400813
134	0xbdfac425	-0.12244443
135	0x3cee8a6b	0.029118737
136	0xbe58085b	-0.21096937
137	0xbdf2e628	-0.11860305
138	0xbd036728	-0.0320808
139	0xbd60e9da	-0.05491052
140	0xbe06ecfe	-0.13176343
141	0xbe1c557d	-0.15266986
142	0x3dfea41e	0.124336466
143	0x3ddd36f2	0.108014956
144	0xbd9eb447	-0.07749229
145	0xbe36077d	-0.17776294
146	0xbe43baaa	-0.19114175
147	0xbdab3efb	-0.08361622
148	0xbe34b1da	-0.1764597
149	0x3da62cd7	0.08114021
150	0xbd869e3f	-0.06573152
151	0xbe1f3c23	-0.15550284
152	0x3de92c72	0.113854304
153	0xbd87e5dc	-0.06635639
154	0x3dcd1757	0.10014217
155	0xbe1fc5a4	-0.15602738
156	0xbdcbfd9d	-0.09960482
157	0xbcf3b550	-0.029749542
158	0xbe21da83	-0.15806012
159	0xbe4b792d	-0.19870444
160	0xbe4400a1	-0.19140865
161	0xbcfa8536	-0.030581098
162	0x3c532795	0.012887855
163	0xbcb289be	-0.021794196
164	0x3d3edbe6	0.04659643
165	0xbe0bd541	-0.13655569
166	0xbd1c34e3	-0.038136374
167	0xbd8b0508	-0.06788069
168	0xbe08d839	-0.13363732
169	0xbe3304bd	-0.17482276
170	0xbc8e5596	-0.017374795
171	0xbe2804a8	-0.16408026
172	0x3d77a8c9	0.0604637
173	0xbd2248c0	-0.03962016
174	0x3db96f63	0.090544485
175	0xbdf57cf0	-0.119867206
176	0x3dae348b	0.085061155
177	0x3dc17550	0.09446204
178	0xbc9684e1	-0.018373908
179	0x3c8785a2	0.016543213
180	0xbe15b341	-0.14619161
181	0xbddf5e4c	-0.109066576
182	0xbdb3c6c1	-0.08778144
183	0x3e1bac68	0.15202487
184	0xbe1db3b7	-0.15400587
185	0x3d9109f4	0.070819765
186	0x3e079a19	0.13242377
187	0xbe3500c9	-0.17676081
188	0xbd161775	-0.036643464
189	0xbd6463e8	-0.05575934
190	0x3d72b5ca	0.0592554
191	0x3e0adceb	0.13560836
192	0x3d449933	0.047997665
193	0xbdce0948	-0.10060364
194	0xbcbee170	-0.023300856
195	0x3df7053d	0.12061546
196	0x3dee724e	0.11642896
197	0xbc25ae7a	-0.010112399
198	0x3dcf90c8	0.10135037
199	0xbd85ab7a	-0.06526847
200	0x3b994e69	0.0046785367
201	0xbd93cd27	-0.07216864
202	0x3dd1920f	0.102329366
203	0xbe41d7f7	-0.1893004
204	0xbd98706d	-0.074433185
205	0xbd36579a	-0.044517137
206	0xbd5352fb	-0.05159281
207	0x3d174330	0.03692931
208	0xbcd8b7b7	-0.02645479
209	0xbe40e30a	-0.18836609
210	0xbd8c930d	-0.06863985
211	0xbd4d0bce	-0.050060086
212	0xbde984a8	-0.11402255
213	0x3d59c60a	0.05316738
214	0x3dfe74e5	0.124246396
215	0xbe2b2ec2	-0.16717055
216	0xbda87906	-0.082262084
217	0xbd5e4eee	-0.054274492
218	0xbe2eb956	-0.17062888
219	0xbc9a9680	-0.018870592
220	0xbe2e7abe	-0.1703901
221	0x3dac8bfe	0.08425139
222	0xbe3c0a45	-0.18363293
223	0xbe2dcedd	-0.16973443
224	0xbdf6efe7	-0.120574765
225	0xbe2075e9	-0.15669979
226	0x3db35967	0.087572865
227	0x3d16c4d5	0.036808807
228	0xbe3fb214	-0.18720275
229	0xbc974216	-0.01846413
230	0xbdae1a9d	-0.0850117
231	0x3dfff069	0.124970265
232	0xbe2a2422	-0.16615346
233	0xbd24ac03	-0.040203106
234	0xbda17b47	-0.078848414
235	0xbd492629	-0.049108658
236	0xbd55dd5b	-0.052213054
237	0x3d25da24	0.04049124
238	0x3d7e3f7d	0.062072266
239	0x3e323ea2	0.17406705
240	0x3d9f7aeb	0.077871166
241	0xbcebebfc	-0.02879905
242	0xbd142364	-0.036166564
243	0xbcb504e4	-0.022097059
244	0xbd96e63a	-0.07368131
245	0x3d1c937c	0.03822659
246	0x3dcb6f16	0.09933297
247	0xbc30ef9f	-0.010799318
248	0xbd0b49ce	-0.034005933
249	0x3ce627d6	0.028095167
250	0xbe03b9fd	-0.12863918
251	0x3d235f66	0.0398859
252	0xbdb80b90	-0.0898658
253	0xbe405ec5	-0.18786152
254	0x3dc50582	0.09620191
255	0xbdbdf8cb	-0.09275969

gnn.output_layer.lin_dst.weight f4 [64, 128]
0	0x3da82b7d	0.0821142
1	0x3cb08ad7	0.021550579
2	0xbe27ca40	-0.16385746
3	0xbe272f52	-0.16326645
4	0x3c3c1cbc	0.01148146
5	0x3d99b7eb	0.07505783
6	0xbe37f017	-0.17962681
7	0x3bae5562	0.005320237
8	0x3cf0a39d	0.029374892
9	0x3de35a03	0.11101153
10	0xbd833518	-0.06406611
11	0xbc905245	-0.017617354
12	0x3dc8f203	0.09811785
13	0x3d0ce342	0.034396417
14	0xbcbf311f	-0.023338852
15	0xbda2818c	-0.07934865
16	0x3c89ac60	0.016805828
17	0xbc307ba0	-0.010771662
18	0x3dc1ff37	0.094725065
19	0x38d768e8	0.00010271539
20	0xbd9839ca	-0.074328974
21	0x3d60e580	0.05490637
22	0xbe2c0414	-0.1679843
23	0xbe1c0037	-0.15234457
24	0xbe2fd49e	-0.17170951
25	0x3e33ab25	0.17545755
26	0xbd804245	-0.0626264
27	0x3d72d97f	0.05928945
28	0xbd54e41c	-0.051975355
29	0xbbb3367e	-0.0054691425
30	0x3e42e3a8	0.19032156
31	0xbd524466	-0.05133476
32	0xbcce2713	-0.025165116
33	0x3e07e8e4	0.13272434
34	0xbbcf7261	-0.0063307737
35	0xbe2258f4	-0.15854245
36	0x3e0d6d13	0.1381114
37	0x3d807fd2	0.0627438
38	0x3db7b76a	0.0897053
39	0xbe32dab5	-0.17466243
40	0xbbba4309	-0.0056842607
41	0xbdec4148	-0.11535889
42	0x3d1ec409	0.038761172
43	0xbd81c93a	-0.06337209
44	0xbd6bf794	-0.057609156
45	0x3e2adfad	0.16686888
46	0x3e1422bd	0.14466377
47	0x3d635e17	0.055509653
48	0xbd76929c	-0.06019841
49	0xbb7b39c2	-0.0038333987
50	0xbd6bd3f5	-0.057575185
51	0xbd3ee9d6	-0.046609722
52	0x3dde0a77	0.1084184
53	0xbe15eda4	-0.14641434
54	0xbd302af5	-0.043009717
55	0x3dfce7b2	0.1234888
56	0x3df4b4ba	0.11948533
57	0xbcc6eb0a	-0.024281997
58	0x3d718f60	0.058974624
59	0x3d88ac33	0.066734694
60	0x3da0a5cc	0.07844123
61	0xbceb49ca	-0.028721709
62	0x3e52c4ce	0.20582888
63	0xbda402ff	-0.08008384
64	0x3d93ec21	0.072227724
65	0x3e054e94	0.13018256
66	0xbe18eb0f	-0.14933418
67	0x3d74e030	0.059784114
68	0xbd0a7a69	-0.033808146
69	0xbd3e568b	-0.046469253
70	0xbcbdb537	-0.023157699
71	0xbdc04fe3	-0.09390237
72	0xbdd275e7	-0.10276394
73	0xbd9f3775	-0.077742495
74	0xbe2c53b8	-0.16828811
75	0xbd2a1e3f	-0.04153275
76	0x3d1a799a	0.037713625
77	0x3dc7c0db	0.09753581
78	0xbcbbb1a7	-0.02291186
79	0x3e22ab68	0.15885699
80	0x3d24f3db	0.04027162
81	0x3d222cb4	0.039593413
82	0x3e3b662d	0.18300696
83	0x3cea6247	0.028611315
84	0x3dbb9fc5	0.09161333
85	0xbe0c69ed	-0.13712282
86	0x3cc2c5ff	0.023776053
87	0xbe0354fd	-0.12825389
88	0x3e2ba4bf	0.16762064
89	0x3c146f0a	0.009059677
90	0x3ddfd413	0.10929122
91	0xbdbf8072	-0.09350671
92	0x3dede111	0.11615194
93	0xbaba855b	-0.0014230417
94	0x3c5d7d2d	0.013518614
95	0x3e1d1660	0.15340567
96	0x3dee2d91	0.11629785
97	0xbe09ce1a	-0.13457528
98	0xbc9a81ad	-0.018860662
99	0x3db086e0	0.08619475
100	0x3d685f9e	0.056731813
101	0xbe0c93cf	-0.1372826
102	0xbbb32528	-0.005467076
103	0xbd37f4cc	-0.04491119
104	0xbdf1bbec	-0.118034214
105	0xbe124be7	-0.14286767
106	0x3e224d2c	0.15849751
107	0xbbff0d2e	-0.0077835536
108	0x3c8bf04b	0.017082354
109	0xbd8b9e38	-0.06817287
110	0x3e1c626c	0.1527192
111	0xbd46590c	-0.048424765
112	0x3e02c048	0.12768662
113	0xbe01706e	-0.12640545
114	0xbe1c3658	-0.15255105
115	0x3d598c77	0.053112473
116	0xbd1ee497	-0.03879222
117	0x3e2aea79	0.16691007
118	0x3c8f070e	0.017459419
119	0x3e1a54e0	0.1507144
120	0x3e2ab579	0.16670789
121	0xbe0e077d	-0.13870044
122	0xbdae16ac	-0.08500418
123	0x3d5395a4	0.05165638
124	0x3b4d47b2	0.0031323251
125	0xbe0f5169	-0.139959
126	0x3bd2c51b	0.006432188
127	0xbe3a4834	-0.18191606
128	0xbdb93e18	-0.090450466
129	0xbe251d8b	-0.16124551
130	0xbd1e9545	-0.038716573
131	0x3cbe4130	0.023224443
132	0xbe14a55e	-0.14516208
133	0xbbfda082	-0.0077400813
134	0xbdfac425	-0.12244443
135	0x3cee8a6b	0.029118737
136	0xbe58085b	-0.21096937
137	0xbdf2e628	-0.11860305
138	0xbd036728	-0.0320808
139	0xbd60e9da	-0.05491052
140	0xbe06ecfe	-0.13176343
141	0xbe1c557d	-0.15266986
142	0x3dfea41e	0.124336466
143	0x3ddd36f2	0.108014956
144	0xbd9eb447	-0.07749229
145	0xbe36077d	-0.17776294
146	0xbe43baaa	-0.19114175
147	0xbdab3efb	-0.08361622
148	0xbe34b1da	-0.1764597
149	0x3da62cd7	0.08114021
150	0xbd869e3f	-0.06573152
151	0xbe1f3c23	-0.15550284
152	0x3de92c72	0.113854304
153	0xbd87e5dc	-0.06635639
154	0x3dcd1757	0.10014217
155	0xbe1fc5a4	-0.15602738
156	0xbdcbfd9d	-0.09960482
157	0xbcf3b550	-0.029749542
158	0xbe21da83	-0.15806012
159	0xbe4b792d	-0.19870444
160	0xbe4400a1	-0.19140865
161	0xbcfa8536	-0.030581098
162	0x3c532795	0.012887855
163	0xbcb289be	-0.021794196
164	0x3d3edbe6	0.04659643
165	0xbe0bd541	-0.13655569
166	0xbd1c34e3	-0.038136374
167	0xbd8b0508	-0.06788069
168	0xbe08d839	-0.13363732
169	0xbe3304bd	-0.17482276
170	0xbc8e5596	-0.017374795
171	0xbe2804a8	-0.16408026
172	0x3d77a8c9	0.0604637
173	0xbd2248c0	-0.03962016
174	0x3db96f63	0.090544485
175	0xbdf57cf0	-0.119867206
176	0x3dae348b	0.085061155
177	0x3dc17550	0.09446204
178	0xbc9684e1	-0.018373908
179	0x3c8785a2	0.016543213
180	0xbe15b341	-0.14619161
181	0xbddf5e4c	-0.109066576
182	0xbdb3c6c1	-0.08778144
183	0x3e1bac68	0.15202487
184	0xbe1db3b7	-0.15400587
185	0x3d9109f4	0.070819765
186	0x3e079a19	0.13242377
187	0xbe3500c9	-0.17676081
188	0xbd161775	-0.036643464
189	0xbd6463e8	-0.05575934
190	0x3d72b5ca	0.0592554
191	0x3e0adceb	0.13560836
192	0x3d449933	0.047997665
193	0xbdce0948	-0.10060364
194	0xbcbee170	-0.023300856
195	0x3df7053d	0.12061546
196	0x3dee724e	0.11642896
197	0xbc25ae7a	-0.010112399
198	0x3dcf90c8	0.10135037
199	0xbd85ab7a	-0.06526847
200	0x3b994e69	0.0046785367
201	0xbd93cd27	-0.07216864
202	0x3dd1920f	0.102329366
203	0xbe41d7f7	-0.1893004
204	0xbd98706d	-0.074433185
205	0xbd36579a	-0.044517137
206	0xbd5352fb	-0.05159281
207	0x3d174330	0.03692931
208	0xbcd8b7b7	-0.02645479
209	0xbe40e30a	-0.18836609
210	0xbd8c930d	-0.06863985
211	0xbd4d0bce	-0.050060086
212	0xbde984a8	-0.11402255
213	0x3d59c60a	0.05316738
214	0x3dfe74e5	0.124246396
215	0xbe2b2ec2	-0.16717055
216	0xbda87906	-0.082262084
217	0xbd5e4eee	-0.054274492
218	0xbe2eb956	-0.17062888
219	0xbc9a9680	-0.018870592
220	0xbe2e7abe	-0.1703901
221	0x3dac8bfe	0.08425139
222	0xbe3c0a45	-0.18363293
223	0xbe2dcedd	-0.16973443
224	0xbdf6efe7	-0.120574765
225	0xbe2075e9	-0.15669979
226	0x3db35967	0.087572865
227	0x3d16c4d5	0.036808807
228	0xbe3fb214	-0.18720275
229	0xbc974216	-0.01846413
230	0xbdae1a9d	-0.0850117
231	0x3dfff069	0.124970265
232	0xbe2a2422	-0.16615346
233	0xbd24ac03	-0.040203106
234	0xbda17b47	-0.078848414
235	0xbd492629	-0.049108658
236	0xbd55dd5b	-0.052213054
237	0x3d25da24	0.04049124
238	0x3d7e3f7d	0.062072266
239	0x3e323ea2	0.17406705
240	0x3d9f7aeb	0.077871166
241	0xbcebebfc	-0.02879905
242	0xbd142364	-0.036166564
243	0xbcb504e4	-0.022097059
244	0xbd96e63a	-0.07368131
245	0x3d1c937c	0.03822659
246	0x3dcb6f16	0.09933297
247	0xbc30ef9f	-0.010799318
248	0xbd0b49ce	-0.034005933
249	0x3ce627d6	0.028095167
250	0xbe03b9fd	-0.12863918
251	0x3d235f66	0.0398859
252	0xbdb80b90	-0.0898658
253	0xbe405ec5	-0.18786152
254	0x3dc50582	0.09620191
255	0xbdbdf8cb	-0.09275969

gnn.fc.0.weight f4 [128, 64]
0	0x3da650d6	0.08120887
1	0x3d932fd5	0.071868576
2	0xbda5ac84	-0.08089545
3	0x3c5254b2	0.012837576
4	0x3e03a373	0.1285532
5	0x3e0b352e	0.13594505
6	0xbdaeca1d	-0.08534644
7	0x3cd3d81f	0.02585989
8	0x3d9e3444	0.077248126
9	0x3de33443	0.110939525
10	0xbdd44e98	-0.10366553
11	0x3cd25565	0.025675485
12	0xbcb07c1b	-0.021543553
13	0x3e1b513c	0.15167707
14	0xbd837962	-0.06419636
15	0x3cb13ec2	0.02163637
16	0x3d75c0fa	0.05999849
17	0xbe592945	-0.2120715
18	0xbdb1e66d	-0.08686528
19	0x3cf4cf1d	0.029883916
20	0xbe2e71ca	-0.17035595
21	0x3d59ae2b	0.053144615
22	0x3d12fc21	0.03588498
23	0xbd102820	-0.035194516
24	0xbd902091	-0.070374615
25	0xbde7fb9e	-0.11327289
26	0xbe23f396	-0.1601089
27	0xbdf60b4a	-0.12013872
28	0x3d9bdcc9	0.07610471
29	0x3d96232e	0.07330929
30	0x3b7f1b58	0.003892621
31	0xbdb5c618	-0.08875674
32	0x3e2d5267	0.16925965
33	0xbd0e3197	-0.03471526
34	0x3d850470	0.06494987
35	0xbd40b92c	-0.047051594
36	0xbcec2612	-0.028826747
37	0xbd8fb6dd	-0.070173
38	0x3d8acd41	0.0677743
39	0x3df11b02	0.117727295
40	0x3d94cd0a	0.072656706
41	0x3e211598	0.15730894
42	0xbe175be3	-0.14781146
43	0x3dbda1f2	0.09259404
44	0xbbbbf5d0	-0.0057360902
45	0x3d9f91a4	0.077914506
46	0x3e14dbcd	0.14536972
47	0xbdeff8a2	-0.11717345
48	0xbda673cc	-0.08127555
49	0xbb8f00dd	-0.0043641166
50	0x3da1c472	0.07898797
51	0x3e0c3188	0.1369077
52	0xbd81cd6d	-0.0633801
53	0xbe4f6d4d	-0.20256539
54	0xbd19472d	-0.037421394
55	0xbd68b715	-0.056815226
56	0xbe2f97cd	-0.17147751
57	0x3dda31db	0.106540404
58	0x3b47cd48	0.0030487347
59	0x3e154fad	0.14581175
60	0x3dccd775	0.10002033
61	0x3d825600	0.063640594
62	0xbe448632	-0.19191816
63	0x3c6d77e2	0.014493914
64	0x3d962ac0	0.07332373
65	0x3db95caa	0.090508774
66	0xbe0b78a5	-0.13620241
67	0xbda5f5c1	-0.081035145
68	0xbe0441ac	-0.12915677
69	0xbdcfafa2	-0.10140921
70	0xbc6fdc90	-0.014639989
71	0x3d2cbde7	0.042173292
72	0x3d56e016	0.0524598
73	0xbc8bca53	-0.01706425
74	0x3e17e6c8	0.1483413
75	0x3c77cbe6	0.015124297
76	0xbdb95c1c	-0.090507716
77	0x3d3759e5	0.044763464
78	0x3e33b748	0.17550385
79	0x3c828d75	0.015936593
80	0x39a11904	0.0003072695
81	0xbe3c5c4a	-0.1839458
82	0xbd165e02	-0.036710747
83	0x3e04278f	0.12905715
84	0x3e1d293b	0.1534776
85	0x3e11510b	0.14191072
86	0xbe2aec24	-0.16691643
87	0x3d62329a	0.05522404
88	0xbbdb4cdd	-0.0066925124
89	0x3d47f13f	0.048814055
90	0x3c34422e	0.011002107
91	0x3d960880	0.0732584
92	0x3db641fd	0.08899305
93	0x3e0f98eb	0.14023177
94	0x3dbf75fb	0.09348675
95	0xbdde78c6	-0.108628795
96	0x3e000656	0.12502417
97	0x3dc60c8f	0.09670364
98	0xbe1f5d9e	-0.15563056
99	0x3daa14a1	0.08304716
100	0xbdb38ce9	-0.08767111
101	0xbdeb8239	-0.114994474
102	0x3d428810	0.04749304
103	0x3d5a9cfd	0.053372372
104	0x3de495d3	0.11161389
105	0x3d100b7d	0.035167206
106	0x3d0cba62	0.034357436
107	0x3e064856	0.13113531
108	0x3d5b3278	0.053514928
109	0x3b93b023	0.004507081
110	0xbe17f740	-0.14840412
111	0xbdef88b4	-0.11695996
112	0xbdad89f8	-0.08473581
113	0x3d0631a9	0.032762203
114	0x3da3470e	0.07972537
115	0x3db8335d	0.08994172
116	0x3dd14a64	0.10219267
117	0xbd16a2b5	-0.036776263
118	0x3d225bff	0.039638516
119	0xbd943459	-0.07236547
120	0xbb987755	-0.0046528974
121	0x3aa112ae	0.0012288892
122	0x3dd4ebdd	0.1039655
123	0xbd6ec4cb	-0.058293145
124	0xbdf290a0	-0.11843991
125	0x3e040b86	0.12895021
126	0x3e23f500	0.16011429
127	0xbe232edc	-0.15935844
128	0xbd7f0730	-0.062262714
129	0x3d02522d	0.03181665
130	0x3d85f9ec	0.065418094
131	0x3dfa3599	0.12217254
132	0xbd746120	-0.059662938
133	0xbde5da91	-0.11223329
134	0x3e13d39f	0.14436196
135	0xbcfe808e	-0.031067159
136	0x3d492d34	0.049115375
137	0x3d8e6996	0.06953733
138	0x3e29cf0e	0.16582891
139	0x3de4c7b0	0.111709
140	0x3e1f9b90	0.15586686
141	0x3da4b189	0.08041675
142	0xbb8cd998	-0.0042984
143	0x3d7fbf0a	0.06243805
144	0xbd2a5fb5	-0.04159518
145	0x3d83516e	0.06412016
146	0xbd82049f	-0.06348538
147	0xbd2d75ee	-0.042348795
148	0xbc847a59	-0.016171621
149	0xbdf1b11a	-0.118013576
150	0xbd7d095d	-0.061776508
151	0xbcb6ccb9	-0.022314416
152	0x3d17d3f1	0.037067357
153	0xbe07baf6	-0.13254914
154	0x3d895aa8	0.067067444
155	0x3d3596a7	0.044333126
156	0x3dbda227	0.09259444
157	0x3e317ef0	0.17333579
158	0xbc947015	-0.018119851
159	0xbd6d95a3	-0.058004033
160	0x3e03d0e0	0.12872648
161	0xbcf7f8ec	-0.030270062
162	0x3d787845	0.060661573
163	0xbdefbf93	-0.11706462
164	0xbdff5dae	-0.1246904
165	0x3df074aa	0.11741002
166	0xbdbffeae	-0.09374748
167	0x3da1fd8a	0.07909687
168	0x3dd615e8	0.10453397
169	0xbd451d98	-0.048123926
170	0x3da6dd0d	0.08147631
171	0xbdd3c9c4	-0.10341218
172	0x3cbea476	0.02327178
173	0xbdd4ddec	-0.10393891
174	0xb8b311e3	-8.538717e-05
175	0x3c9f0c5d	0.019415075
176	0xbd2cd20a	-0.042192496
177	0x3dc9c1bb	0.09851404
178	0x3e0fa1f1	0.1402662
179	0x3e223116	0.15839037
180	0xbca6b8c9	-0.020351784
181	0xbdbe413e	-0.09289788
182	0x3df1a08a	0.117981985
183	0xbbf8b89d	-0.007590367
184	0x3d5ce427	0.05392852
185	0xbd3d4517	-0.046208467
186	0x3e332da4	0.1749788
187	0x3ced2d9e	0.028952416
188	0xba9140b4	-0.0011081905
189	0x3df1d7fc	0.11808774
190	0x3d8e92dc	0.06961605
191	0xbd31cc21	-0.043407563
192	0xbd4f76ef	-0.050650533
193	0x3dbae3cc	0.0912548
194	0x3dfcfe21	0.12353159
195	0x3e023e87	0.12719165
196	0xbe04892d	-0.12942953
197	0x3ca3af18	0.019980952
198	0xbd100be4	-0.03516759
199	0xbdcd1bcc	-0.100150675
200	0x3dec7daa	0.11547406
201	0xbdffe94e	-0.12495671
202	0xbe02b5b2	-0.12764624
203	0x3d478615	0.048711855
204	0x3e1ace71	0.15117814
205	0x3ce5ea3f	0.028065799
206	0x3e4fc3e3	0.20289569
207	0xbdf5475b	-0.119765006
208	0x3e463b1e	0.19358489
209	0xbe21728d	-0.15766354
210	0x3da31b8e	0.0796424
211	0xbdb19ecb	-0.086728655
212	0x3e1ee1fb	0.15515892
213	0xbce73d0f	-0.028227357
214	0xbdee4a55	-0.116352715
215	0xbe685d01	-0.22691728
216	0x3e2ff5f9	0.17183675
217	0x3e21620f	0.15760063
218	0xbd12704d	-0.03575163
219	0xbdc04232	-0.09387626
220	0x3e4a9008	0.19781506
221	0x3e1bdd3d	0.15221114
222	0xbb8ccf36	-0.0042971624
223	0xbcd0c422	-0.025484148
224	0x3dc65fda	0.09686251
225	0x3e0f4b2e	0.13993523
226	0x3ddfd0e7	0.10928517
227	0xbdd433b4	-0.10361424
228	0xbd188340	-0.037234545
229	0xba70fdde	-0.00091931026
230	0x3dfe1f14	0.124082714
231	0xbdc2fb49	-0.09520585
232	0xbd99bec0	-0.07507086
233	0x3def1271	0.11673439
234	0xbdcba270	-0.09943092
235	0x3d86445e	0.06556009
236	0xbdcda9b2	-0.100421324
237	0xbe19084c	-0.14944571
238	0x3c70750b	0.014676343
239	0x3de7bcc5	0.11315302
240	0xbde9eb57	-0.11421841
241	0xbe06a29a	-0.13147965
242	0x3e39c6b4	0.18142205
243	0x3d01820c	0.031618163
244	0xbe1f340f	-0.15547203
245	0x3ce2633f	0.027635215
246	0xbe45e7be	-0.19326684
247	0xbc24b83a	-0.010053689
248	0x3d6a1fb6	0.05715915
249	0x3dcebf4e	0.10095082
250	0xbe04bdaa	-0.12962976
251	0xbe5bbd8c	-0.21459025
252	0xbd0c21d3	-0.034211945
253	0xbe2373c2	-0.15962127
254	0x3bc6091a	0.0060435655
255	0x3e1b1b05	0.15147026
