xyznetwork/ssl_model.pth (torch, 128861 bytes, 14 tensors)

gnn.input_layer.att_src f4 [1, 1, 128]
000000 ba 78 a6 3d de 95 95 3d cb a6 18 be c9 9a 1d 3e
       0.081284955 0.073039755 -0.14907376 0.15391077
000010 0e 20 36 bd 0d a9 e1 3c c5 9e 36 3e 7d 2c 63 bd
       -0.044464163 0.02754643 0.17834003 -0.05546235
000020 61 53 12 3e f2 ad 02 bc 08 2e 16 3e ab cd 15 3e
       0.14289619 -0.007976042 0.14665997 0.14629237
000030 77 94 f0 3d a1 1f 30 3d 3d c6 e6 bd 88 ab 28 3e
       0.117470674 0.042998914 -0.1126828 0.16471684
000040 ed 5b 36 be 07 8b ee bc 7b 84 20 bd 4a 04 cc 3d
       -0.17808504 -0.029119028 -0.039188843 0.099617556
000050 db 87 2f bd 85 63 f4 3b 15 81 d0 bd 91 60 fb 3d
       -0.04285417 0.0074581527 -0.101808704 0.12274278
000060 4f f6 f0 3d 5f f9 bc bd 76 0e 05 3c 06 d8 a7 bd
       0.1176573 -0.09227251 0.008121124 -0.081955
000070 92 84 c6 3d ef 43 ee bd b4 71 c9 3d 10 c2 62 bc
       0.096932545 -0.11634051 0.0983614 -0.013840213
000080 f1 63 14 be d2 df 94 3d 4e 3e 20 bd d7 f0 ec bd
       -0.1449125 0.07269253 -0.03912192 -0.11569374
000090 c6 5e 3e be 19 3c 0a 3e 61 18 62 be 55 f1 d3 bd
       -0.1859084 0.13499488 -0.22079612 -0.10348765
0000a0 00 11 ec 3d ae b4 02 be e9 fa c4 3c e5 12 3d 3e
       0.1152668 -0.12764236 0.024045425 0.18464239
0000b0 85 62 2f 3e 01 51 44 be 66 b5 b9 3d 55 ed 53 3d
       0.17127426 -0.19171526 0.09067802 0.05174001
0000c0 6b 2a 88 bd 53 0a 31 3e 03 64 65 bd 1b 1e 87 bc
       -0.066487156 0.17289095 -0.05600358 -0.016493848
0000d0 63 7e bb bb dd 4f 18 3e 29 67 a3 3d b5 0a 31 bc
       -0.0057218536 0.14874215 0.079786606 -0.010805775
0000e0 93 72 88 3b 59 8c ab 3d 38 e1 12 3c cd 69 ef 3d
       0.004164049 0.083763786 0.008964829 0.11690102
0000f0 a2 15 27 3c e6 67 f0 bd 1f e5 3f 3d c9 11 34 3d
       0.010198029 -0.11738567 0.046849366 0.043962274
000100 d1 1e a3 3c 20 cc bd bd 3c c1 ab 3d 73 e7 5f 3d
       0.019912155 -0.092674494 0.08386466 0.054664087
000110 47 a5 25 3e fc a4 8e 3c 5f 07 a2 3d 80 a9 1a be
       0.1617633 0.017412655 0.07911562 -0.15103722
000120 9d 85 7f bd 0e 13 5f bb 2c e9 fd 3d 7d da 39 be
       -0.062383283 -0.0034038457 0.1239799 -0.18149753
000130 8d 8c 2b bd 74 10 40 3e 1a a3 a9 3d c9 49 28 3d
       -0.041882087 0.18756276 0.08283062 0.041085992
000140 4d 54 ad 3d dd a9 b5 bc 79 44 5c bd d0 79 fd 3c
       0.08463345 -0.022175724 -0.053776238 0.030941874
000150 0f 49 98 3d 9a f6 07 3e 79 cf d0 3d c8 b4 0f be
       0.0743581 0.13277665 0.10195822 -0.14033806
000160 42 a7 a3 bd a5 50 44 bc 08 fc 07 be e3 44 38 3e
       -0.07990886 -0.011982118 -0.13279736 0.17995028
000170 e1 4e c4 bd 6c 64 46 3d f9 61 a0 bd da fc 1d 3e
       -0.095853575 0.048435614 -0.07831187 0.15428486
000180 df 62 03 3e a6 fc a9 3c 97 dc 52 3c d8 f5 75 3d
       0.12830685 0.020750355 0.0128699755 0.060048908
000190 6d c3 f0 3d 44 ea 92 bd bf 5c c3 bd 7b 02 fd bd
       0.117560245 -0.07173589 -0.09539174 -0.12353989
0001a0 66 4a 28 bd 45 1e 85 3d 46 48 3a be a9 de 11 3e
       -0.041086577 0.06499914 -0.18191633 0.14245094
0001b0 3e 28 73 3c dc 32 48 be a4 89 3a be 21 b0 03 3e
       0.014841137 -0.19550651 -0.18216568 0.12860157
0001c0 3a 28 8f 3d 23 b6 2c be e7 98 15 3c a2 99 41 be
       0.069900945 -0.16866355 0.009130693 -0.18906263
0001d0 ce 6b 01 3e db 28 50 3c 18 60 5c 3e 05 71 01 be
       0.1263878 0.012705053 0.21521032 -0.1264077
0001e0 b5 9e 81 3c 8b 64 48 be 1c 36 aa bd 6f b8 62 bc
       0.015822748 -0.19569604 -0.08311102 -0.013837918
0001f0 a9 38 3d be db 2e 28 3e 5a 78 f0 bc 06 9d 32 3e
       -0.18478645 0.16424124 -0.029354263 0.17442712

gnn.input_layer.att_dst f4 [1, 1, 128]
000000 cf 49 70 3d 27 b9 d3 bc d4 47 c3 bc be 4f 78 3d
       0.05866414 -0.025845123 -0.023837961 0.060622923
000010 8e 9a 2d 3e d8 84 d9 bc 02 94 5c 3e 1e 36 52 3e
       0.16953489 -0.026552603 0.21540835 0.20528457
000020 39 02 c7 bd f3 f7 bc bc f4 96 da 3d e7 47 6e 3d
       -0.09717221 -0.02306745 0.10673323 0.05817404
000030 7c 2d 39 3c b3 ba 18 be bf 93 43 3e ff 53 24 bc
       0.011302348 -0.1491497 0.1909933 -0.010029792
000040 f6 33 3c 3d 02 d1 01 3e 0a f1 76 3d c3 c0 e5 bc
       0.04594799 0.12677386 0.060288467 -0.028046018
000050 e7 c4 21 3e 74 51 91 bd 50 95 c5 3d f4 8d af bd
       0.15797769 -0.07095614 0.0964762 -0.08571997
000060 86 e3 8d bc bb 2a c1 3d 9a 7c 51 3d 16 2b d3 3d
       -0.017320406 0.09431978 0.05114422 0.10310952
000070 ce e9 51 3e 7c 12 aa 3d 05 7b 9f bd 7c 2f 13 3e
       0.20499346 0.08304307 -0.07787136 0.14373583
000080 35 97 12 3c 79 43 64 bd 65 71 9e 3d 82 2e 3f bc
       0.008947183 -0.05572841 0.07736472 -0.011668803
000090 5f 5f 32 3e 06 35 0c be 31 97 a6 3d 39 d3 21 be
       0.17419194 -0.13692102 0.08134306 -0.15803231
0000a0 cb 8b 98 3d 09 78 d2 bd 70 3f 0e bc 9e f8 6f bc
       0.074485384 -0.10276801 -0.008682117 -0.014646677
0000b0 c8 fd 0d 3e 76 22 0a 3e a4 1e 32 be 85 9f 52 be
       0.13866341 0.13489708 -0.17394501 -0.20568664
0000c0 0f 6b e4 3c d1 ac 92 bc 5a ac 1e be 8d 76 2a be
       0.02788308 -0.01790467 -0.15495434 -0.16646786
0000d0 ca c5 ad 3d e8 4d c9 bd f6 82 32 3e a6 a7 83 bd
       0.08484991 -0.098293126 0.1743277 -0.06428461
0000e0 19 7f 8c bd b3 3e 43 3e 47 c9 6d 3d 0a 5d 2c 3e
       -0.068601795 0.19066887 0.05805328 0.16832367
0000f0 93 3f 61 3d 93 5e 10 3e 5a 74 33 3e 18 aa 0f be
       0.05499227 0.14098577 0.17524853 -0.1402973
000100 12 72 2e bc c7 41 ff 3c c2 31 8c bc 0f fa 80 3c
       -0.010647314 0.031159295 -0.01711357 0.015744237
000110 a3 56 17 be b6 86 63 3e 86 f0 15 be c0 ec 54 be
       -0.14779143 0.22219357 -0.14642534 -0.20793438
000120 dd cf 6f 3e 3b d3 4d bd cf 6d 09 be 03 c5 87 bc
       0.23419137 -0.050250273 -0.13420795 -0.016573435
000130 0b 55 ee bb 94 df d0 bd 40 c0 0d 3c 5c fb 9d 3d
       -0.0072733215 -0.10198894 0.008651793 0.077139586
000140 c8 cb 7c 3d 86 47 f3 3c e1 40 35 bc 1f 0c d1 3d
       0.06171778 0.029697191 -0.011062832 0.1020739
000150 3c 2a db bd 1c 30 e9 3d ce 1d 3e 3e da e5 11 be
       -0.10701415 0.11386129 0.18566057 -0.14247838
000160 7d 62 3e 3e fa 8e 30 3e d2 38 ff 3d 12 dc e5 3d
       0.18592258 0.17242041 0.124620095 0.11223616
000170 cb e8 39 3d 49 15 46 3e 04 c6 40 3e 3e 71 47 be
       0.045388024 0.19344057 0.18825537 -0.19476792
000180 10 62 62 3e 40 ef b7 bc 7f 3a 46 3e bb 61 4b bc
       0.2210772 -0.02245295 0.19358252 -0.0124134375
000190 71 98 bd 3c c4 ec a2 bd d5 cb 4d be a8 61 16 3e
       0.023143979 -0.07955316 -0.20097287 0.1468569
0001a0 65 32 39 bd 0e e3 d6 bd 83 40 cf 3d 7d a5 32 be
       -0.045214076 -0.10492526 0.101197265 -0.17445941
0001b0 1a ac 17 3d 2d 58 ea bd ca 2e 36 3e 9a 0b 19 be
       0.037029363 -0.114425994 0.17791286 -0.14945832
0001c0 67 de 1e 3e e3 9b 31 3e 53 2d d8 bc 9d b9 ef 3d
       0.15514527 0.17344622 -0.0263888 0.11705325
0001d0 8c da f4 bd 55 fc 5e 3d e2 72 18 3e 8d eb f1 3d
       -0.11955747 0.05443986 0.14887574 0.11812506
0001e0 e2 a8 c8 3d 5b 55 53 3e f1 f1 4c 3e 79 8b 15 be
       0.09797837 0.2063803 0.20014168 -0.14603986
0001f0 11 b9 23 be ac e4 68 3c d4 1c 85 3d ea 7b 2b 3e
       -0.15988566 0.014214676 0.06499639 0.16746488

gnn.input_layer.bias f4 [128]
000000 4c f4 19 3b 3b 7b 41 3c 0d fd 73 3d f2 3f 2e bc
       0.002349156 0.011809166 0.0595675 -0.010635363
000010 8d 6e 3b bd ee 6b 89 3c 50 f0 50 bc 87 bb 48 bd
       -0.045759726 0.016775098 -0.012752607 -0.049006965
000020 a1 63 28 3c 64 fd 0b bd f7 00 3f 3c 31 09 a5 bc
       0.01027766 -0.0341772 0.011657945 -0.020145984
000030 04 50 3e 3c b8 0e b2 bc dd 95 01 bd 9f d2 83 3d
       0.011615757 -0.021735534 -0.03163706 0.06436657
000040 94 32 58 bd 27 ff c0 3c 20 9b 8d bb a8 3d 16 3b
       -0.05278261 0.023559166 -0.004321471 0.0022924934
000050 1f 87 e2 3b e8 16 c1 bc 49 34 4c bd 36 f6 c6 3b
       0.0069130803 -0.023570493 -0.04985455 0.006071831
000060 03 86 f4 bc 91 c0 45 bc a0 84 34 bd 0a 29 37 bd
       -0.029849058 -0.012069837 -0.044071794 -0.044716872
000070 1c 82 11 bd 2a fb 72 bc e3 82 9c 3c 0e 1a 87 38
       -0.035524473 -0.01483039 0.01910538 6.442155e-05
000080 47 52 97 3c 20 21 e2 3c b1 5a 3e bd 16 98 14 bc
       0.01847185 0.027603686 -0.04647321 -0.009069463
000090 d8 da db 3c 3c 1a 10 bd 13 15 1a bd f9 1f 55 bc
       0.026837751 -0.03518127 -0.037617754 -0.013008111
0000a0 9a ab 83 3c af 8e 27 bd 64 99 a1 bc 16 52 aa bc
       0.016073037 -0.040907558 -0.019726463 -0.020791095
0000b0 da de 85 bd 97 1d 3d bd ec 30 67 bd b2 bc 88 3c
       -0.06536646 -0.046170797 -0.05644314 0.01669154
0000c0 de 21 bd bc e9 3c 81 bb 0a 4f 48 bc 8c 89 74 bc
       -0.023087438 -0.0039440286 -0.012225876 -0.014925372
0000d0 9e 26 f2 bc 6b db 5a bd b0 b5 2d 3d 68 fc 86 bb
       -0.02955943 -0.05343191 0.0424096 -0.0041194446
0000e0 5f 95 a4 bc 69 4c 25 3d f3 be b8 3d ab fc 3d 3d
       -0.020090757 0.040356074 0.09020796 0.04638354
0000f0 e9 16 a3 3d 0c 29 2a bd 31 8e 2a 3d ab c5 aa 3a
       0.07963354 -0.04154305 0.04163951 0.001302888
000100 59 f7 49 bc 79 85 c5 bc 87 60 63 bd f2 02 83 3a
       -0.012327039 -0.024111496 -0.055511978 0.0009995385
000110 d8 05 66 bc d8 ac 64 bd 4f fa 48 bd 9e 71 72 3d
       -0.014039479 -0.0558289 -0.049066838 0.059190385
000120 16 41 b1 3c c8 45 5b bd d9 8e 61 3d 9c 45 37 3d
       0.02163748 -0.053533345 0.05506787 0.04474412
000130 ee 1a 0f bd be 22 71 bc 01 38 03 bd 12 fb b3 bb
       -0.03493779 -0.014717756 -0.03203583 -0.0054925764
000140 eb 2f 1d bd dd 46 3e 3d b5 38 81 bc 21 45 84 bb
       -0.038375776 0.0464543 -0.01577411 -0.004036561
000150 5c 64 03 bd ee a5 83 bc 80 c0 2a bd 4a c4 8a bd
       -0.032078132 -0.016070332 -0.04168749 -0.067757204
000160 bb 8d f3 bc 2e db e9 bc 34 39 3e 38 19 05 ea bc
       -0.029730668 -0.028546896 4.5352805e-05 -0.028566884
000170 91 db 6a 3d 66 f4 95 3c 3a 26 93 bb ba 60 ad 3b
       0.0573383 0.018305015 -0.004490641 0.0052910717
000180 e4 fe e2 bb 48 5e c5 3b cd ec 88 bc 3a 5e dd 3c
       -0.006927358 0.006023202 -0.016714478 0.02702247
000190 e9 c0 9d bb a0 cf 12 bd ee 80 4a bc e0 65 40 3d
       -0.0048142564 -0.035842538 -0.012359841 0.046972156
0001a0 b9 a7 5d 3c 08 2b 51 bd 59 e4 05 3d 82 84 ae bb
       0.013528758 -0.05106643 0.032688472 -0.0053258548
0001b0 4c 9a 3f bb e4 f1 d3 bc 67 35 a0 ba a3 18 0a 3d
       -0.0029236255 -0.025872178 -0.0012222946 0.0337149
0001c0 5d 15 83 bd c3 c4 65 bd f7 49 e6 bc 0f 68 c7 bc
       -0.06400559 -0.05609585 -0.028111441 -0.024341611
0001d0 9f 65 6f bd b4 86 d0 3b 9e c0 d6 3a df 55 e5 3c
       -0.058446523 0.006363714 0.0016384309 0.027995048
0001e0 f4 fd 5c bd 70 b2 8d bc d4 b4 1a bd 7d 2a 84 bc
       -0.053953126 -0.017297 -0.037770107 -0.016133541
0001f0 28 e9 de ba be c5 8a bc fc 84 8d bc b3 00 ff bc
       -0.0017006742 -0.016939994 -0.017275326 -0.031128263

gnn.input_layer.lin_src.weight f4 [128, 45]
000000 16 9c 0c be 4a 03 88 3d bd 15 23 be 71 61 a9 3d
       -0.13731417 0.06641252 -0.15926261 0.082705386
000010 22 45 22 bd 73 9b 0a 3e de 26 50 bd 08 84 d0 3d
       -0.03961671 0.13535862 -0.050818317 0.10181433
000020 97 c4 0b be 7a 84 b7 bb d8 d1 aa 3d 1c de c2 bc
       -0.13649212 -0.0056005092 0.08340806 -0.02378755
000030 00 ba c7 3d 6b 64 35 bd c6 38 10 3e 35 7e 91 bd
       0.097522736 -0.04428522 0.14084157 -0.0710415
000040 39 d2 6a bd 58 9f 9e 3d ef 23 99 3d dd 15 9c 3d
       -0.05732939 0.07745236 0.07477557 0.076213576
000050 e5 c3 a8 bd b2 a5 06 be dc 53 2a 3e 25 73 8e bd
       -0.08240489 -0.13149145 0.16633552 -0.06955556
000060 f1 a3 6a bb 68 67 6f 3d 08 69 06 bd 9b 18 68 be
       -0.0035803283 0.058448225 -0.03281501 -0.22665636
000070 1b 6f f0 3d ab 9d 98 bd 41 ee 2a 3e 9b f2 91 bb
       0.11739942 -0.07451948 0.16692449 -0.0044539697
000080 b2 66 17 3e 39 2f 42 3d 87 04 38 be 72 79 55 be
       0.14785269 0.047408316 -0.17970477 -0.20847109
000090 57 a6 a8 bd cb 4e 05 3d b8 79 61 3d 43 f3 2b bb
       -0.08234852 0.032545846 0.05504772 -0.0026237525
0000a0 88 6b 3f 3d 65 33 31 be 39 43 ae 3d 60 af 5a be
       0.04673341 -0.17304762 0.085089155 -0.21355963
0000b0 f5 bd cb 3d ea af 45 3e 83 9c f1 bd 66 da bd 3d
       0.09948341 0.19305387 -0.1179743 0.09270172
0000c0 e2 57 13 3e 3e 60 ea 3d 81 61 db bd 51 55 0a 3e
       0.14388993 0.11444138 -0.10711957 0.13509108
0000d0 d1 24 d0 bd 5d 8b 15 3e ed 38 79 3c d8 ee b9 3d
       -0.10163272 0.14603944 0.015211326 0.09078759
0000e0 ac 64 8f bd a4 d1 ca 3d 34 fd bf 3c 2e ca 35 bd
       -0.070016235 0.09903267 0.023436166 -0.044382267
0000f0 d4 a4 7c 3d be e7 7a bd 49 b4 4d be 35 fe 27 3e
       0.06168063 -0.061256163 -0.20088305 0.16405566
000100 af 33 f9 bc 24 12 10 3c 54 26 be 3d 1e 96 86 bc
       -0.030420152 0.008793388 0.09284654 -0.016429003
000110 3b 87 c8 3d 7c 10 e3 3d dd 1a 47 bd b2 f4 7e bd
       0.09791418 0.110871285 -0.048609603 -0.06224508
000120 bd ce 19 be 84 cf 94 3d 4e 27 19 be 3d f5 3f 3e
       -0.1502027 0.07266143 -0.149564 0.18745895
000130 74 8e 49 3e 74 4f b7 3c 88 1b 04 3d e8 ff 36 bd
       0.19683248 0.022376753 0.03225282 -0.044677645
000140 e6 98 39 be b8 75 f7 3d fb d3 0e be 00 92 58 3d
       -0.18124732 0.12083 -0.13948052 0.05287361
000150 93 dc 73 bd 25 e5 9f bd ad 15 b3 bd 5c 58 54 bd
       -0.059536528 -0.07807378 -0.08744369 -0.05184208
000160 ae e9 ed bd 78 86 d2 3d 87 a1 e2 bd da ae 26 3e
       -0.116168365 0.10279554 -0.11065965 0.16277638
000170 95 c1 92 bc 5b 31 ab 3d e8 db f9 bc 5f ac dc bd
       -0.017914573 0.08359023 -0.030500367 -0.10775065
000180 77 57 78 3d 68 6f ee bc 58 80 d0 3c 90 85 0f 3e
       0.060630288 -0.029105857 0.025451824 0.14015794
000190 a1 3a 9a bd f7 d5 3a 3e 87 0d 86 bc ea ad 8a 3d
       -0.07530714 0.18245684 -0.016363872 0.06771453
0001a0 ad e1 07 be ba 10 16 be e3 f9 9d 3d 1f 50 88 3d
       -0.13269682 -0.14654818 0.07713678 0.06655907
0001b0 f5 d2 2c 3e 4c 18 3b be 28 d0 9e bd f4 2d bc bd
       0.16877349 -0.18270987 -0.077545464 -0.09188452
0001c0 c3 79 ee bd a3 e0 62 bb 16 c5 dc 3d 27 00 03 3e
       -0.11644318 -0.0034618757 0.10779779 0.12793027
0001d0 e8 d6 88 3d e1 0a 52 3e ce ba f4 bd 3f 11 a0 3d
       0.06681615 0.20511962 -0.11949693 0.078157894
0001e0 da 86 4e ba 83 68 40 be f4 bd cd bd 14 ea 07 bd
       -0.0007878371 -0.18789868 -0.10045996 -0.03318222
0001f0 0e e6 ba bd f2 b0 c0 3d 33 b3 ae 3d e3 27 10 be
       -0.09125911 0.0940875 0.08530273 -0.14077716
000200 38 87 14 3d 60 36 25 3d 28 b5 bd 3c b4 f3 98 bd
       0.036261767 0.04033506 0.023157671 -0.07468358
000210 65 dc 85 bd e8 b0 23 be ad 6c 3f 3e e8 b6 c3 3b
       -0.065361775 -0.15985453 0.186938 0.005972732
000220 42 3c e7 3d 00 73 da 3d b6 72 06 3d cd 5c 26 be
       0.1129079 0.10666466 0.03282424 -0.16246338
000230 28 e4 3d 3a 7a 41 39 be 85 28 02 3e 5c ab a3 bc
       0.0007243776 -0.18091384 0.1271077 -0.019979171
000240 fb 4c bc 3d 42 a3 d6 bd c6 9c ae bd 25 6d 22 bd
       0.0919437 -0.10480358 -0.08525996 -0.03965487
000250 00 65 0f be 82 70 85 3d a0 6b 71 3b de 71 8d bd
       -0.14003372 0.065156 0.003683783 -0.06906484
000260 44 ee 3d be c1 0f dc bd d7 b1 00 be b9 64 d9 bd
       -0.18547922 -0.10745192 -0.1256784 -0.106149144
000270 21 7a 79 3d 08 52 84 bb 9e 8f 98 bd 19 a3 20 3c
       0.060907487 -0.004038099 -0.07449268 0.0098045105
000280 14 52 3c 3e a3 55 2a 3e e0 1e 82 3c 7a 5b b4 3d
       0.18390685 0.1663423 0.015883863 0.0880651
000290 1d cf 5b bd 04 c7 1f 3e 84 6d 3f be fb 1c e4 bd
       -0.053664315 0.15603262 -0.1869412 -0.1113834
0002a0 3e 41 a9 3d 7d a7 1d 3c 70 18 0e be ab 11 e2 3d
       0.08264397 0.009622452 -0.1387651 0.11038526
0002b0 3c 94 9b 3d 18 cc 60 bd fb eb 25 bc 76 7c ab bd
       0.07596633 -0.05488214 -0.010127063 -0.083733484
0002c0 83 82 1d 3c 9f c0 17 3c fc b6 1e bd ed 7b 1d 3e
       0.009613636 0.009262233 -0.038748726 0.15379305
0002d0 3a 37 d2 3d ea ab f1 bd a0 07 44 bd a2 ab 8c bd
       0.1026444 -0.11800368 -0.047858834 -0.06868674
0002e0 8a 6b 16 be 15 67 46 be c2 b1 26 be 7f 75 e8 3c
       -0.1468946 -0.1937526 -0.16278747 0.028376339
0002f0 ad 9a b5 bd 70 ad f9 bc 97 3e 0d be f2 02 ce bd
       -0.08867393 -0.03047821 -0.13793407 -0.100591555
000300 e9 ba 17 be e0 61 3e be a3 5f 90 bc e9 ba 10 3e
       -0.14817394 -0.18592024 -0.017623728 0.141338
000310 23 ca bf 3d 6f fb d4 bd 86 9a 82 3d fe 00 05 be
       0.093647264 -0.1039952 0.06377129 -0.1298866
000320 6e b6 f3 bd 0a 1f 64 3c 35 f3 f0 bb 35 25 ec bd
       -0.1190003 0.013923416 -0.0073532113 -0.11530534
000330 92 03 11 3e 71 77 1e be 91 e4 46 3d ad dc 10 3e
       0.14161518 -0.15475251 0.04855782 0.14146681
000340 00 03 c7 3d b9 8e 87 bd 67 f3 ff 3d a9 26 58 be
       0.09717369 -0.06619019 0.12497597 -0.21108498
000350 56 46 b5 3d e1 d4 c7 bd 27 2a b3 bc 55 6a e6 bd
       0.08851306 -0.097574 -0.021870686 -0.1125075
000360 b4 e9 31 bd 56 48 c5 3d 47 b3 a6 bd b7 7a 2a 3d
       -0.043435767 0.096329376 -0.08139663 0.041620936
000370 cb ce 11 3e d7 0d 02 be d4 06 05 be 52 87 7d 3d
       0.14239042 -0.12700592 -0.12990886 0.06189663
000380 6b e3 d5 3d 98 0c fb 3d 85 0b a0 bd 48 41 31 3e
       0.10443767 0.122582614 -0.07814697 0.17310059
000390 f0 f4 10 be 9c 62 22 3e 6b b3 d9 3c 38 f6 41 3e
       -0.14155936 0.15857929 0.026574811 0.18941581
0003a0 a6 c7 84 bd 90 f6 20 3e e0 02 30 3e 3e 91 13 be
       -0.064833924 0.15719056 0.17188597 -0.14410874
0003b0 05 6a 16 be c1 1a af 3d 3e 9a 3b be 84 5b 36 be
       -0.1468888 0.08550025 -0.18320557 -0.17808348
0003c0 03 9b 05 be 0b 19 26 3e 4e 8b ed 3d 56 05 16 3e
       -0.13047414 0.1622049 0.11598836 0.14650473
0003d0 16 5c c1 3b 01 f5 2a bd ed f4 da bb d3 99 b2 bd
       0.00590087 -0.04173756 -0.0066820295 -0.08720746
0003e0 bb 39 03 be 3d 65 11 3e fc ff 28 bd 9a 92 ed 3c
       -0.12814991 0.14198776 -0.04125975 0.02900057
0003f0 ba 65 6c 3d 76 01 be bd 23 31 9c bc 8d e5 3b 3c
       0.0577142 -0.092776224 -0.019066399 0.011468303

gnn.input_layer.lin_dst.weight f4 [128, 45]
000000 16 9c 0c be 4a 03 88 3d bd 15 23 be 71 61 a9 3d
       -0.13731417 0.06641252 -0.15926261 0.082705386
000010 22 45 22 bd 73 9b 0a 3e de 26 50 bd 08 84 d0 3d
       -0.03961671 0.13535862 -0.050818317 0.10181433
000020 97 c4 0b be 7a 84 b7 bb d8 d1 aa 3d 1c de c2 bc
       -0.13649212 -0.0056005092 0.08340806 -0.02378755
000030 00 ba c7 3d 6b 64 35 bd c6 38 10 3e 35 7e 91 bd
       0.097522736 -0.04428522 0.14084157 -0.0710415
000040 39 d2 6a bd 58 9f 9e 3d ef 23 99 3d dd 15 9c 3d
       -0.05732939 0.07745236 0.07477557 0.076213576
000050 e5 c3 a8 bd b2 a5 06 be dc 53 2a 3e 25 73 8e bd
       -0.08240489 -0.13149145 0.16633552 -0.06955556
000060 f1 a3 6a bb 68 67 6f 3d 08 69 06 bd 9b 18 68 be
       -0.0035803283 0.058448225 -0.03281501 -0.22665636
000070 1b 6f f0 3d ab 9d 98 bd 41 ee 2a 3e 9b f2 91 bb
       0.11739942 -0.07451948 0.16692449 -0.0044539697
000080 b2 66 17 3e 39 2f 42 3d 87 04 38 be 72 79 55 be
       0.14785269 0.047408316 -0.17970477 -0.20847109
000090 57 a6 a8 bd cb 4e 05 3d b8 79 61 3d 43 f3 2b bb
       -0.08234852 0.032545846 0.05504772 -0.0026237525
0000a0 88 6b 3f 3d 65 33 31 be 39 43 ae 3d 60 af 5a be
       0.04673341 -0.17304762 0.085089155 -0.21355963
0000b0 f5 bd cb 3d ea af 45 3e 83 9c f1 bd 66 da bd 3d
       0.09948341 0.19305387 -0.1179743 0.09270172
0000c0 e2 57 13 3e 3e 60 ea 3d 81 61 db bd 51 55 0a 3e
       0.14388993 0.11444138 -0.10711957 0.13509108
0000d0 d1 24 d0 bd 5d 8b 15 3e ed 38 79 3c d8 ee b9 3d
       -0.10163272 0.14603944 0.015211326 0.09078759
0000e0 ac 64 8f bd a4 d1 ca 3d 34 fd bf 3c 2e ca 35 bd
       -0.070016235 0.09903267 0.023436166 -0.044382267
0000f0 d4 a4 7c 3d be e7 7a bd 49 b4 4d be 35 fe 27 3e
       0.06168063 -0.061256163 -0.20088305 0.16405566
000100 af 33 f9 bc 24 12 10 3c 54 26 be 3d 1e 96 86 bc
       -0.030420152 0.008793388 0.09284654 -0.016429003
000110 3b 87 c8 3d 7c 10 e3 3d dd 1a 47 bd b2 f4 7e bd
       0.09791418 0.110871285 -0.048609603 -0.06224508
000120 bd ce 19 be 84 cf 94 3d 4e 27 19 be 3d f5 3f 3e
       -0.1502027 0.07266143 -0.149564 0.18745895
000130 74 8e 49 3e 74 4f b7 3c 88 1b 04 3d e8 ff 36 bd
       0.19683248 0.022376753 0.03225282 -0.044677645
000140 e6 98 39 be b8 75 f7 3d fb d3 0e be 00 92 58 3d
       -0.18124732 0.12083 -0.13948052 0.05287361
000150 93 dc 73 bd 25 e5 9f bd ad 15 b3 bd 5c 58 54 bd
       -0.059536528 -0.07807378 -0.08744369 -0.05184208
000160 ae e9 ed bd 78 86 d2 3d 87 a1 e2 bd da ae 26 3e
       -0.116168365 0.10279554 -0.11065965 0.16277638
000170 95 c1 92 bc 5b 31 ab 3d e8 db f9 bc 5f ac dc bd
       -0.017914573 0.08359023 -0.030500367 -0.10775065
000180 77 57 78 3d 68 6f ee bc 58 80 d0 3c 90 85 0f 3e
       0.060630288 -0.029105857 0.025451824 0.14015794
000190 a1 3a 9a bd f7 d5 3a 3e 87 0d 86 bc ea ad 8a 3d
       -0.07530714 0.18245684 -0.016363872 0.06771453
0001a0 ad e1 07 be ba 10 16 be e3 f9 9d 3d 1f 50 88 3d
       -0.13269682 -0.14654818 0.07713678 0.06655907
0001b0 f5 d2 2c 3e 4c 18 3b be 28 d0 9e bd f4 2d bc bd
       0.16877349 -0.18270987 -0.077545464 -0.09188452
0001c0 c3 79 ee bd a3 e0 62 bb 16 c5 dc 3d 27 00 03 3e
       -0.11644318 -0.0034618757 0.10779779 0.12793027
0001d0 e8 d6 88 3d e1 0a 52 3e ce ba f4 bd 3f 11 a0 3d
       0.06681615 0.20511962 -0.11949693 0.078157894
0001e0 da 86 4e ba 83 68 40 be f4 bd cd bd 14 ea 07 bd
       -0.0007878371 -0.18789868 -0.10045996 -0.03318222
0001f0 0e e6 ba bd f2 b0 c0 3d 33 b3 ae 3d e3 27 10 be
       -0.09125911 0.0940875 0.08530273 -0.14077716
000200 38 87 14 3d 60 36 25 3d 28 b5 bd 3c b4 f3 98 bd
       0.036261767 0.04033506 0.023157671 -0.07468358
000210 65 dc 85 bd e8 b0 23 be ad 6c 3f 3e e8 b6 c3 3b
       -0.065361775 -0.15985453 0.186938 0.005972732
000220 42 3c e7 3d 00 73 da 3d b6 72 06 3d cd 5c 26 be
       0.1129079 0.10666466 0.03282424 -0.16246338
000230 28 e4 3d 3a 7a 41 39 be 85 28 02 3e 5c ab a3 bc
       0.0007243776 -0.18091384 0.1271077 -0.019979171
000240 fb 4c bc 3d 42 a3 d6 bd c6 9c ae bd 25 6d 22 bd
       0.0919437 -0.10480358 -0.08525996 -0.03965487
000250 00 65 0f be 82 70 85 3d a0 6b 71 3b de 71 8d bd
       -0.14003372 0.065156 0.003683783 -0.06906484
000260 44 ee 3d be c1 0f dc bd d7 b1 00 be b9 64 d9 bd
       -0.18547922 -0.10745192 -0.1256784 -0.106149144
000270 21 7a 79 3d 08 52 84 bb 9e 8f 98 bd 19 a3 20 3c
       0.060907487 -0.004038099 -0.07449268 0.0098045105
000280 14 52 3c 3e a3 55 2a 3e e0 1e 82 3c 7a 5b b4 3d
       0.18390685 0.1663423 0.015883863 0.0880651
000290 1d cf 5b bd 04 c7 1f 3e 84 6d 3f be fb 1c e4 bd
       -0.053664315 0.15603262 -0.1869412 -0.1113834
0002a0 3e 41 a9 3d 7d a7 1d 3c 70 18 0e be ab 11 e2 3d
       0.08264397 0.009622452 -0.1387651 0.11038526
0002b0 3c 94 9b 3d 18 cc 60 bd fb eb 25 bc 76 7c ab bd
       0.07596633 -0.05488214 -0.010127063 -0.083733484
0002c0 83 82 1d 3c 9f c0 17 3c fc b6 1e bd ed 7b 1d 3e
       0.009613636 0.009262233 -0.038748726 0.15379305
0002d0 3a 37 d2 3d ea ab f1 bd a0 07 44 bd a2 ab 8c bd
       0.1026444 -0.11800368 -0.047858834 -0.06868674
0002e0 8a 6b 16 be 15 67 46 be c2 b1 26 be 7f 75 e8 3c
       -0.1468946 -0.1937526 -0.16278747 0.028376339
0002f0 ad 9a b5 bd 70 ad f9 bc 97 3e 0d be f2 02 ce bd
       -0.08867393 -0.03047821 -0.13793407 -0.100591555
000300 e9 ba 17 be e0 61 3e be a3 5f 90 bc e9 ba 10 3e
       -0.14817394 -0.18592024 -0.017623728 0.141338
000310 23 ca bf 3d 6f fb d4 bd 86 9a 82 3d fe 00 05 be
       0.093647264 -0.1039952 0.06377129 -0.1298866
000320 6e b6 f3 bd 0a 1f 64 3c 35 f3 f0 bb 35 25 ec bd
       -0.1190003 0.013923416 -0.0073532113 -0.11530534
000330 92 03 11 3e 71 77 1e be 91 e4 46 3d ad dc 10 3e
       0.14161518 -0.15475251 0.04855782 0.14146681
000340 00 03 c7 3d b9 8e 87 bd 67 f3 ff 3d a9 26 58 be
       0.09717369 -0.06619019 0.12497597 -0.21108498
000350 56 46 b5 3d e1 d4 c7 bd 27 2a b3 bc 55 6a e6 bd
       0.08851306 -0.097574 -0.021870686 -0.1125075
000360 b4 e9 31 bd 56 48 c5 3d 47 b3 a6 bd b7 7a 2a 3d
       -0.043435767 0.096329376 -0.08139663 0.041620936
000370 cb ce 11 3e d7 0d 02 be d4 06 05 be 52 87 7d 3d
       0.14239042 -0.12700592 -0.12990886 0.06189663
000380 6b e3 d5 3d 98 0c fb 3d 85 0b a0 bd 48 41 31 3e
       0.10443767 0.122582614 -0.07814697 0.17310059
000390 f0 f4 10 be 9c 62 22 3e 6b b3 d9 3c 38 f6 41 3e
       -0.14155936 0.15857929 0.026574811 0.18941581
0003a0 a6 c7 84 bd 90 f6 20 3e e0 02 30 3e 3e 91 13 be
       -0.064833924 0.15719056 0.17188597 -0.14410874
0003b0 05 6a 16 be c1 1a af 3d 3e 9a 3b be 84 5b 36 be
       -0.1468888 0.08550025 -0.18320557 -0.17808348
0003c0 03 9b 05 be 0b 19 26 3e 4e 8b ed 3d 56 05 16 3e
       -0.13047414 0.1622049 0.11598836 0.14650473
0003d0 16 5c c1 3b 01 f5 2a bd ed f4 da bb d3 99 b2 bd
       0.00590087 -0.04173756 -0.0066820295 -0.08720746
0003e0 bb 39 03 be 3d 65 11 3e fc ff 28 bd 9a 92 ed 3c
       -0.12814991 0.14198776 -0.04125975 0.02900057
0003f0 ba 65 6c 3d 76 01 be bd 23 31 9c bc 8d e5 3b 3c
       0.0577142 -0.092776224 -0.019066399 0.011468303

gnn.output_layer.att_src f4 [1, 1, 64]
000000 41 90 59 be 4d 20 2f be c6 ee 8c 3e 0d 0f 51 3d
       -0.21246435 -0.17102166 0.2752592 0.051039744
000010 c8 28 e3 bd 0f fc be bd 5e 8b 7a be d5 a8 ea 3d
       -0.11091763 -0.0932542 -0.24467227 0.114579834
000020 35 7a 02 3e 95 96 cf bd cd 62 4f bc 0e 00 60 3e
       0.12741931 -0.10136143 -0.012657833 0.21875021
000030 20 50 82 3c d6 06 8a be fb 54 93 bd f6 cb 88 3e
       0.015907347 -0.2695834 -0.07193943 0.2671811
000040 03 e8 78 be f9 d9 f4 3d 5a 29 e5 bd 59 08 ee 3d
       -0.24307255 0.119556375 -0.11189528 0.11622686
000050 03 2a 8f be 6a 91 51 be 6f dd 83 be 0c c0 7d be
       -0.2796174 -0.20465627 -0.25754878 -0.24780291
000060 9e b0 7c 3e 3b e1 87 be fc 7c a5 bd 81 73 17 bd
       0.24676749 -0.26539025 -0.080804795 -0.036975387
000070 a9 d3 31 bd f2 a9 7a be 0a ae 54 3e 4c 8d b2 3c
       -0.043414745 -0.24478891 0.20769516 0.021795891
000080 c6 9f fa bc 98 0c 82 be ea 2e 26 3e d2 59 34 be
       -0.030593764 -0.25400233 0.16228834 -0.17612389
000090 e4 54 b4 bd 9f fa 82 be 37 ec 74 3e 17 88 29 3e
       -0.08805254 -0.25581834 0.23918234 0.1655582
0000a0 2c 8b 89 be 9b dc 33 3e 4a fb 22 3d b5 48 85 3e
       -0.26863992 0.17564623 0.03979043 0.26032034
0000b0 94 75 9f be 15 5d 77 3e 5a dc 1e 3c 92 ae 2a 3e
       -0.31144392 0.24156602 0.009696091 0.16668156
0000c0 62 66 6e 3e 70 19 18 bd bb 13 23 3e 80 ae df 3d
       0.23281243 -0.037133634 0.15925495 0.10921955
0000d0 d5 c3 14 3e e6 a8 a4 3d c3 9c 8d bc c3 1e 3c 3e
       0.14527829 0.08040027 -0.017286664 0.1837111
0000e0 0f 21 40 be 98 85 82 3e a4 6a 05 bd c8 22 68 be
       -0.18762611 0.2549255 -0.032572404 -0.22669518
0000f0 7f 28 bd 3d 34 43 39 3e 06 61 21 3e 02 fc 80 3e
       0.0923624 0.18092042 0.15759668 0.25192267

gnn.output_layer.att_dst f4 [1, 1, 64]
000000 f7 8c 15 bd 12 c3 4a be 55 15 58 be 09 10 8a be
       -0.036511388 -0.19800976 -0.21101888 -0.2696536
000010 07 d7 38 3e fe 41 8f 3e d3 f6 44 3e 07 4a 70 3d
       0.18050776 0.27980036 0.19234781 0.058664348
000020 bd 94 a0 3e 1d ee 1e bd 5a 0d 7a 3e a0 5e a2 be
       0.31363478 -0.0388013 0.24419156 -0.31712818
000030 67 8f 73 3e a8 79 5f 3e 4f e3 96 3e eb f7 0b 3e
       0.23785172 0.21823752 0.29470298 0.13668792
000040 9e 07 50 be 4b 80 7e 3e 11 e8 aa bc 68 7e 97 be
       -0.20315406 0.24853627 -0.020862611 -0.29588628
000050 65 cd 0e 3e dd a2 0c be 00 cc 50 be f9 d8 08 bc
       0.1394554 -0.13734002 -0.2039032 -0.008352512
000060 f4 f5 93 3d 3e 3a 30 3e 9f 6d 90 3e 12 5f 87 3e
       0.07224646 0.17209718 0.28208634 0.2643972
000070 0e ea 2a 3e 8a 03 9e 3d a2 53 03 3e af a9 18 3e
       0.16690847 0.07715519 0.12824872 0.14908479
000080 17 16 23 be ea 95 20 be 49 3e 2a be 1b 7a dd 3b
       -0.15926395 -0.15682188 -0.16625322 0.006758941
000090 d4 02 b1 3d 6a 67 78 bd 27 17 6a be c8 ef 74 3e
       0.086431175 -0.0606455 -0.22860394 0.23919594
0000a0 78 49 86 3e c8 fb 97 3e 4a 2d c5 bd 2c ea c9 3c
       0.26227927 0.2968428 -0.09627779 0.024647795
0000b0 8b 1d c8 bd 8f ab 77 be 5e 88 0f be bc b3 4a be
       -0.0977126 -0.24186538 -0.14016864 -0.19795126
0000c0 52 03 60 be 3e 1c 82 3d b6 96 62 3e 7e da 8d be
       -0.21876267 0.06353043 0.22127804 -0.2770576
0000d0 2f 79 94 3d 2c 19 ed 3c b0 34 96 3e 1a fa 4a be
       0.072496764 0.028942667 0.29337072 -0.19821969
0000e0 cd bc 8e 3e 45 11 4f 3e 31 f2 8f bd fe 2e a4 3d
       0.2787842 0.20221432 -0.07028616 0.080167755
0000f0 f5 6d 75 3e 8a 89 9e be b1 3e aa 3d dc b0 98 3c
       0.23967727 -0.3096431 0.08312739 0.01863902

gnn.output_layer.bias f4 [64]
000000 82 a5 b7 bc c0 b9 0a 3d dd 29 b7 bb 17 58 df bc
       -0.022417787 0.03386855 -0.0055897073 -0.027263684
000010 30 69 93 bd 11 22 cc bb 89 00 91 bd 2d c2 ed 3c
       -0.07197797 -0.006229647 -0.0708018 0.029023254
000020 4e c9 33 3d f6 d4 0d 3d 44 f6 8a 3d e5 0f 80 bd
       0.04389315 0.034626924 0.06785253 -0.06253032
000030 0d f3 b2 bc a0 d5 88 bd 79 1f 55 bd d5 f1 37 3d
       -0.021844411 -0.06681371 -0.052031968 0.044908363
000040 91 18 42 3c c6 d7 4f 3d 62 b1 1e bd bc d6 f6 bc
       0.011846677 0.050742887 -0.038743384 -0.03013169
000050 31 c5 b2 3a 9a 31 fb bc 2b a6 2f bd d6 ee 6a bd
       0.001363909 -0.0306633 -0.04288308 -0.057356678
000060 c0 6c e7 bc 2c 97 e1 3c a3 e3 1a 3d 93 30 aa 3b
       -0.028250098 0.027537905 0.037814748 0.005193779
000070 25 55 e3 bc 33 a1 36 bd d6 cf 15 3d ed 4e 4a 3d
       -0.027750561 -0.044587325 0.03657516 0.049391676
000080 83 86 3b 3d 5b bb 88 3d 56 7b e0 3b 9c 36 1c 3c
       0.045782577 0.0667636 0.0068506403 0.009534504
000090 a3 c8 0b bd 26 a4 89 bd 39 a4 84 bd c1 f2 93 bc
       -0.03412689 -0.06720762 -0.064766355 -0.01806009
0000a0 75 72 ba 3d e5 b9 ee bc 74 5c 80 3d 88 56 3c bd
       0.09103862 -0.029141376 0.06267634 -0.04598096
0000b0 92 ba d7 bc c1 c1 73 bd b4 78 a1 bb 3c 40 e8 bb
       -0.02633408 -0.05951095 -0.004927719 -0.0070877355
0000c0 58 d2 96 3d 85 fd 9f bd 78 1c 3e 3d a3 78 8f 3d
       0.07364339 -0.07812027 0.04641387 0.070054315
0000d0 2d 5a 73 bc 73 98 3b bd 12 d2 ae 3d b5 36 aa bd
       -0.014853043 -0.045799684 0.085361615 -0.08311216
0000e0 12 c0 b2 3d 06 c6 e6 3d b2 bb 89 bd cf 60 55 bd
       0.08728041 0.11268239 -0.06725253 -0.052094277
0000f0 13 3b 1f bd 06 28 78 bd ba 24 dc bc a1 48 79 3d
       -0.038874697 -0.060585044 -0.026872981 0.06086028

gnn.output_layer.lin_src.weight f4 [64, 128]
000000 6a b1 a1 bd 97 f8 20 be 76 06 cb bd 3e da 24 be
       -0.07895167 -0.1571983 -0.09913342 -0.16098878
000010 fb e9 23 3e 4d 68 be bd 91 28 1a be 64 33 6c bd
       0.16007225 -0.092972375 -0.15054537 -0.057666197
000020 2b 9d 09 3e 52 3d 8e bd 65 bd aa 3c 84 7f 5e 3d
       0.13438861 -0.0694529 0.020842263 0.054320827
000030 2d c4 fd 3d 99 33 b8 3d 0f fc ee 3d 7f 29 0f be
       0.12390933 0.089942165 0.1166917 -0.13980673
000040 c2 d4 31 3d f3 b9 23 be 3a cc a1 bb b5 4f 14 bc
       0.043415792 -0.15988903 -0.004937676 -0.009052207
000050 52 89 85 bd bc 66 6a 3d 7b 85 fc 3c 6c 94 dd bd
       -0.065203324 0.05722688 0.030825367 -0.10819325
000060 e3 92 ee bd 5d cf c8 bd 87 c7 19 3e b1 3d 65 3c
       -0.1164911 -0.098051764 0.1501752 0.013991759
000070 cc a6 34 be c2 74 3b be d8 e8 34 3d da d6 e0 3c
       -0.17641753 -0.18306258 0.04416737 0.0274462
000080 4d d8 8f 3d b7 99 af 3d 68 22 a0 3d 81 f5 04 3e
       0.07023678 0.08574241 0.078190625 0.12984277
000090 5c 24 f9 bd 05 87 37 3e f4 c3 09 3e 32 2b 97 bd
       -0.12165138 0.179226 0.13453656 -0.07381286
0000a0 f4 86 b3 bd fd b9 a1 bd ff 41 24 bd a0 e0 82 bd
       -0.08765975 -0.078968026 -0.040102 -0.063905
0000b0 48 49 2c 3e 1f f7 7c 3d eb d0 20 3e 82 3f 1b be
       0.1682483 0.06175911 0.15704696 -0.15160945
0000c0 49 04 01 be ac 13 8f bd 99 cf cd bb 4c be ca 3d
       -0.12599291 -0.06986174 -0.006280851 0.098995775
0000d0 8b e8 3c 3e ca e9 3a 3d ab c3 2e 3e 4d 95 17 3c
       0.18448083 0.045633115 0.17066829 0.009251905
0000e0 fb 77 fe bd 8b 74 de 3d a8 ca da bc 68 8d 97 b9
       -0.12425228 0.108620726 -0.026707962 -0.0002890632
0000f0 2d ca c1 bc 36 62 a3 bc f5 9a 1b bd c6 d1 f8 bc
       -0.023655975 -0.019944292 -0.037989575 -0.030373465
000100 50 59 b7 3d b2 73 bf 3d 0a 5b b8 bd ae 8f c2 3c
       0.08952582 0.09348239 -0.09001739 0.023750152
000110 85 cb 49 3d 5e 65 98 bd 1f 24 10 3e 75 de 29 3e
       0.049266357 -0.07441209 0.14076279 0.16588767
000120 c4 7f 0b 3d 22 a3 92 bd 35 2c 13 bd 5f 0d bb bd
       0.034057394 -0.07160021 -0.03593083 -0.0913341
000130 e2 aa 0d be d5 b5 bd 3d 35 2a ec 3d 0d 2d 1a be
       -0.13834718 0.09263197 0.11531488 -0.15056248
000140 4d 53 1c 3e 02 a6 20 3d cc dd 11 bc 19 6d 1a be
       0.15266152 0.039220817 -0.008902978 -0.1508068
000150 ab 13 3e 3e 98 b1 ea 3d 20 ca 20 be 47 83 1d 3d
       0.1856219 0.114596546 -0.15702105 0.038455274
000160 92 29 11 bc 1e 4f d7 3d 6e 42 98 3b 4f c0 9a bd
       -0.008860009 0.10513137 0.004646591 -0.07556211
000170 30 be 3e bd 25 e2 f2 bd a3 ff 0f 3d ff 04 fd bd
       -0.046568096 -0.1185954 0.035155904 -0.123544686
000180 e5 9c 86 3a f4 5c 28 be 15 91 a4 3d a3 6a 0e 3c
       0.0010270147 -0.16441709 0.08035485 0.008692416
000190 43 8e 2e be e6 f3 07 be 9d 09 f2 3d 45 9d 55 bd
       -0.17046456 -0.13276634 0.1181824 -0.052151937
0001a0 14 74 d7 3d 77 57 28 3d cd 52 3e bd 7c 5a 58 3d
       0.10520187 0.041099038 -0.046465684 0.052820668
0001b0 84 84 d9 3d 1b b9 49 3e 69 7f 30 bc 56 79 01 be
       0.106209785 0.19699518 -0.010772564 -0.12643942
0001c0 ff 5f e0 3d a4 18 0b 3c b4 a4 5e 3d 6c cb 41 bd
       0.1095581 0.0084897615 0.054356292 -0.04731314
0001d0 71 84 72 3d 91 c7 40 3e f1 df f2 3d 21 31 8b 3d
       0.059208337 0.18826129 0.1185912 0.0679648
0001e0 f8 28 a1 3d 09 40 bf bc 31 90 0c 3e de 71 47 bd
       0.07869142 -0.023345964 0.1372688 -0.048692577
0001f0 84 32 8f bd e9 de 98 3d 34 0e 3d 3d 01 99 c4 bc
       -0.06992057 0.07464392 0.046156123 -0.02399874
000200 ba e8 52 3e 59 0f 5a 3d 3a b7 a3 3d bc b8 0a bd
       0.2059659 0.053237293 0.07993932 -0.033867583
000210 cf 98 f7 bd b9 52 3d 3e 53 3e e7 3d 1a ba 93 3b
       -0.12089693 0.18488587 0.11291184 0.004508269
000220 aa fd e2 3d 69 1f fd bd d9 96 93 bb 41 b3 88 bd
       0.11083539 -0.12359507 -0.0045040664 -0.06674815
000230 9b 68 ed 3d ca 48 03 be 07 96 a5 bd cd fa b3 3d
       0.115922175 -0.12820736 -0.08085256 0.08788071
000240 dc 73 82 3d 0c 28 d5 bd 7b 61 9c 3c 30 83 86 3a
       0.06369755 -0.10408029 0.019089451 0.0010262486
000250 2b 11 b4 3d f0 29 07 3e a5 8d 26 be 28 9e 07 3e
       0.08792337 0.13199592 -0.1626497 0.13243926
000260 67 83 1a be 8d dd 01 be a3 b8 e7 3d a8 e5 9f 3d
       -0.15089189 -0.12682171 0.113145135 0.07807475
000270 fd b6 98 3d ce 31 ae 3b 18 3f 59 3e e2 94 b0 3d
       0.07456777 0.005315996 0.21215475 0.08622147
000280 45 92 f6 3d 5e bc 02 3e ca de 55 3d 2a bd 70 bd
       0.120396174 0.12767169 0.05221442 -0.05877415
000290 81 2b 9e 3d 78 dd cf 3d 4a f0 dc bd 8d 20 3e 3d
       0.077231415 0.10149664 -0.10788019 0.04641776
0002a0 cc 8e 1f 3d a9 64 d5 bc 5f ee 2c be 60 c7 be bd
       0.03895454 -0.026048975 -0.16887806 -0.093153715
0002b0 9b 5c 78 bd 0a 1f 15 3e 4a 4e 09 3e 34 1d 9e bc
       -0.06063519 0.14562622 0.13408771 -0.019301035
0002c0 56 a1 88 3d a9 1c 11 bd 48 c7 29 be 83 9b 0c bd
       0.066713974 -0.035427723 -0.16579926 -0.034327995
0002d0 34 40 e8 bb 52 63 6e 3d fb 0a f6 3d d4 13 82 bd
       -0.0070877317 0.058200188 0.12013813 -0.06351438
0002e0 bf df c1 3d 86 ab 12 3e 5a e5 74 3b fb bb 43 bd
       0.09466504 0.14323243 0.003736815 -0.047786694
0002f0 12 f6 fa bc c1 eb 14 bd 33 dc 10 3e 4d c5 84 3d
       -0.030634914 -0.036357645 0.141465 0.06482945
000300 d9 b6 20 3e be 4b 87 3d bd 0f 6d bd 29 0d 1e be
       0.15694751 0.066062436 -0.057876337 -0.15434708
000310 c1 1c 41 3d 33 4b 76 3a 7b 87 4d 3e c9 a4 30 3e
       0.047146562 0.0009395361 0.20071213 0.1725036
000320 9c 6d 33 bd ee b1 73 3d 94 b9 d7 bd 4b 46 8b bc
       -0.043805704 0.05949586 -0.10533443 -0.017001292
000330 84 f7 8d 3d f2 97 db bd a2 22 06 be 19 83 7a bd
       0.069319755 -0.10722341 -0.13099149 -0.06116018
000340 40 1e 24 3e 20 49 1d 3e db 34 66 bd 73 e6 f6 bd
       0.16027164 0.15359926 -0.05620275 -0.120556735
000350 2e dd cc bc db 4f a7 bb 1f 66 33 be fa f4 30 be
       -0.02500781 -0.005105955 -0.17519425 -0.17280951
000360 cc a2 8a bd d3 f0 b5 3d c1 67 a6 3d e3 d7 89 3c
       -0.06769332 0.08883824 0.08125258 0.016826576
000370 3e 94 4a bd f3 be 1b be 28 8f 02 3e 1e 7e 31 3c
       -0.04945778 -0.1520956 0.12749922 0.010833291
000380 bc b6 12 bd 3f 11 1e 3e 4a 7e 6f 3c dc 98 2a 3d
       -0.0358188 0.15436266 0.014617512 0.041649684
000390 0b f4 0f be c4 1f bd 3d 02 2f 4c 3e 3d 88 12 be
       -0.14057939 0.092345744 0.19939807 -0.14309783
0003a0 32 03 1d 3e a5 24 38 3d fb 48 64 bd 59 6f 0e 3c
       0.1533325 0.044956822 -0.055733662 0.00869354
0003b0 75 b0 80 bd f1 b7 a7 3d aa 9b ed bc 23 2c eb 3d
       -0.062836565 0.08189381 -0.02900489 0.11483028
0003c0 92 1b 77 bd 6b 29 0b 3e 98 2b c5 3d 6f fe cb bc
       -0.060329027 0.13590018 0.096274555 -0.024901597
0003d0 66 58 b5 3d af 9c 67 3d 31 f8 3a 3e 85 64 80 bd
       0.08854751 0.05654591 0.1825874 -0.062691726
0003e0 5e 25 dd 3b c0 5d fd bd 55 4c 11 bd 2a b5 e7 bd
       0.0067488393 -0.12371397 -0.035473187 -0.11313851
0003f0 a9 1b 1b be 61 dc 42 3d a0 78 83 bd f9 0b 9b bc
       -0.1514727 0.04757345 -0.06419492 -0.018926607

gnn.output_layer.lin_dst.weight f4 [64, 128]
000000 6a b1 a1 bd 97 f8 20 be 76 06 cb bd 3e da 24 be
       -0.07895167 -0.1571983 -0.09913342 -0.16098878
000010 fb e9 23 3e 4d 68 be bd 91 28 1a be 64 33 6c bd
       0.16007225 -0.092972375 -0.15054537 -0.057666197
000020 2b 9d 09 3e 52 3d 8e bd 65 bd aa 3c 84 7f 5e 3d
       0.13438861 -0.0694529 0.020842263 0.054320827
000030 2d c4 fd 3d 99 33 b8 3d 0f fc ee 3d 7f 29 0f be
       0.12390933 0.089942165 0.1166917 -0.13980673
000040 c2 d4 31 3d f3 b9 23 be 3a cc a1 bb b5 4f 14 bc
       0.043415792 -0.15988903 -0.004937676 -0.009052207
000050 52 89 85 bd bc 66 6a 3d 7b 85 fc 3c 6c 94 dd bd
       -0.065203324 0.05722688 0.030825367 -0.10819325
000060 e3 92 ee bd 5d cf c8 bd 87 c7 19 3e b1 3d 65 3c
       -0.1164911 -0.098051764 0.1501752 0.013991759
000070 cc a6 34 be c2 74 3b be d8 e8 34 3d da d6 e0 3c
       -0.17641753 -0.18306258 0.04416737 0.0274462
000080 4d d8 8f 3d b7 99 af 3d 68 22 a0 3d 81 f5 04 3e
       0.07023678 0.08574241 0.078190625 0.12984277
000090 5c 24 f9 bd 05 87 37 3e f4 c3 09 3e 32 2b 97 bd
       -0.12165138 0.179226 0.13453656 -0.07381286
0000a0 f4 86 b3 bd fd b9 a1 bd ff 41 24 bd a0 e0 82 bd
       -0.08765975 -0.078968026 -0.040102 -0.063905
0000b0 48 49 2c 3e 1f f7 7c 3d eb d0 20 3e 82 3f 1b be
       0.1682483 0.06175911 0.15704696 -0.15160945
0000c0 49 04 01 be ac 13 8f bd 99 cf cd bb 4c be ca 3d
       -0.12599291 -0.06986174 -0.006280851 0.098995775
0000d0 8b e8 3c 3e ca e9 3a 3d ab c3 2e 3e 4d 95 17 3c
       0.18448083 0.045633115 0.17066829 0.009251905
0000e0 fb 77 fe bd 8b 74 de 3d a8 ca da bc 68 8d 97 b9
       -0.12425228 0.108620726 -0.026707962 -0.0002890632
0000f0 2d ca c1 bc 36 62 a3 bc f5 9a 1b bd c6 d1 f8 bc
       -0.023655975 -0.019944292 -0.037989575 -0.030373465
000100 50 59 b7 3d b2 73 bf 3d 0a 5b b8 bd ae 8f c2 3c
       0.08952582 0.09348239 -0.09001739 0.023750152
000110 85 cb 49 3d 5e 65 98 bd 1f 24 10 3e 75 de 29 3e
       0.049266357 -0.07441209 0.14076279 0.16588767
000120 c4 7f 0b 3d 22 a3 92 bd 35 2c 13 bd 5f 0d bb bd
       0.034057394 -0.07160021 -0.03593083 -0.0913341
000130 e2 aa 0d be d5 b5 bd 3d 35 2a ec 3d 0d 2d 1a be
       -0.13834718 0.09263197 0.11531488 -0.15056248
000140 4d 53 1c 3e 02 a6 20 3d cc dd 11 bc 19 6d 1a be
       0.15266152 0.039220817 -0.008902978 -0.1508068
000150 ab 13 3e 3e 98 b1 ea 3d 20 ca 20 be 47 83 1d 3d
       0.1856219 0.114596546 -0.15702105 0.038455274
000160 92 29 11 bc 1e 4f d7 3d 6e 42 98 3b 4f c0 9a bd
       -0.008860009 0.10513137 0.004646591 -0.07556211
000170 30 be 3e bd 25 e2 f2 bd a3 ff 0f 3d ff 04 fd bd
       -0.046568096 -0.1185954 0.035155904 -0.123544686
000180 e5 9c 86 3a f4 5c 28 be 15 91 a4 3d a3 6a 0e 3c
       0.0010270147 -0.16441709 0.08035485 0.008692416
000190 43 8e 2e be e6 f3 07 be 9d 09 f2 3d 45 9d 55 bd
       -0.17046456 -0.13276634 0.1181824 -0.052151937
0001a0 14 74 d7 3d 77 57 28 3d cd 52 3e bd 7c 5a 58 3d
       0.10520187 0.041099038 -0.046465684 0.052820668
0001b0 84 84 d9 3d 1b b9 49 3e 69 7f 30 bc 56 79 01 be
       0.106209785 0.19699518 -0.010772564 -0.12643942
0001c0 ff 5f e0 3d a4 18 0b 3c b4 a4 5e 3d 6c cb 41 bd
       0.1095581 0.0084897615 0.054356292 -0.04731314
0001d0 71 84 72 3d 91 c7 40 3e f1 df f2 3d 21 31 8b 3d
       0.059208337 0.18826129 0.1185912 0.0679648
0001e0 f8 28 a1 3d 09 40 bf bc 31 90 0c 3e de 71 47 bd
       0.07869142 -0.023345964 0.1372688 -0.048692577
0001f0 84 32 8f bd e9 de 98 3d 34 0e 3d 3d 01 99 c4 bc
       -0.06992057 0.07464392 0.046156123 -0.02399874
000200 ba e8 52 3e 59 0f 5a 3d 3a b7 a3 3d bc b8 0a bd
       0.2059659 0.053237293 0.07993932 -0.033867583
000210 cf 98 f7 bd b9 52 3d 3e 53 3e e7 3d 1a ba 93 3b
       -0.12089693 0.18488587 0.11291184 0.004508269
000220 aa fd e2 3d 69 1f fd bd d9 96 93 bb 41 b3 88 bd
       0.11083539 -0.12359507 -0.0045040664 -0.06674815
000230 9b 68 ed 3d ca 48 03 be 07 96 a5 bd cd fa b3 3d
       0.115922175 -0.12820736 -0.08085256 0.08788071
000240 dc 73 82 3d 0c 28 d5 bd 7b 61 9c 3c 30 83 86 3a
       0.06369755 -0.10408029 0.019089451 0.0010262486
000250 2b 11 b4 3d f0 29 07 3e a5 8d 26 be 28 9e 07 3e
       0.08792337 0.13199592 -0.1626497 0.13243926
000260 67 83 1a be 8d dd 01 be a3 b8 e7 3d a8 e5 9f 3d
       -0.15089189 -0.12682171 0.113145135 0.07807475
000270 fd b6 98 3d ce 31 ae 3b 18 3f 59 3e e2 94 b0 3d
       0.07456777 0.005315996 0.21215475 0.08622147
000280 45 92 f6 3d 5e bc 02 3e ca de 55 3d 2a bd 70 bd
       0.120396174 0.12767169 0.05221442 -0.05877415
000290 81 2b 9e 3d 78 dd cf 3d 4a f0 dc bd 8d 20 3e 3d
       0.077231415 0.10149664 -0.10788019 0.04641776
0002a0 cc 8e 1f 3d a9 64 d5 bc 5f ee 2c be 60 c7 be bd
       0.03895454 -0.026048975 -0.16887806 -0.093153715
0002b0 9b 5c 78 bd 0a 1f 15 3e 4a 4e 09 3e 34 1d 9e bc
       -0.06063519 0.14562622 0.13408771 -0.019301035
0002c0 56 a1 88 3d a9 1c 11 bd 48 c7 29 be 83 9b 0c bd
       0.066713974 -0.035427723 -0.16579926 -0.034327995
0002d0 34 40 e8 bb 52 63 6e 3d fb 0a f6 3d d4 13 82 bd
       -0.0070877317 0.058200188 0.12013813 -0.06351438
0002e0 bf df c1 3d 86 ab 12 3e 5a e5 74 3b fb bb 43 bd
       0.09466504 0.14323243 0.003736815 -0.047786694
0002f0 12 f6 fa bc c1 eb 14 bd 33 dc 10 3e 4d c5 84 3d
       -0.030634914 -0.036357645 0.141465 0.06482945
000300 d9 b6 20 3e be 4b 87 3d bd 0f 6d bd 29 0d 1e be
       0.15694751 0.066062436 -0.057876337 -0.15434708
000310 c1 1c 41 3d 33 4b 76 3a 7b 87 4d 3e c9 a4 30 3e
       0.047146562 0.0009395361 0.20071213 0.1725036
000320 9c 6d 33 bd ee b1 73 3d 94 b9 d7 bd 4b 46 8b bc
       -0.043805704 0.05949586 -0.10533443 -0.017001292
000330 84 f7 8d 3d f2 97 db bd a2 22 06 be 19 83 7a bd
       0.069319755 -0.10722341 -0.13099149 -0.06116018
000340 40 1e 24 3e 20 49 1d 3e db 34 66 bd 73 e6 f6 bd
       0.16027164 0.15359926 -0.05620275 -0.120556735
000350 2e dd cc bc db 4f a7 bb 1f 66 33 be fa f4 30 be
       -0.02500781 -0.005105955 -0.17519425 -0.17280951
000360 cc a2 8a bd d3 f0 b5 3d c1 67 a6 3d e3 d7 89 3c
       -0.06769332 0.08883824 0.08125258 0.016826576
000370 3e 94 4a bd f3 be 1b be 28 8f 02 3e 1e 7e 31 3c
       -0.04945778 -0.1520956 0.12749922 0.010833291
000380 bc b6 12 bd 3f 11 1e 3e 4a 7e 6f 3c dc 98 2a 3d
       -0.0358188 0.15436266 0.014617512 0.041649684
000390 0b f4 0f be c4 1f bd 3d 02 2f 4c 3e 3d 88 12 be
       -0.14057939 0.092345744 0.19939807 -0.14309783
0003a0 32 03 1d 3e a5 24 38 3d fb 48 64 bd 59 6f 0e 3c
       0.1533325 0.044956822 -0.055733662 0.00869354
0003b0 75 b0 80 bd f1 b7 a7 3d aa 9b ed bc 23 2c eb 3d
       -0.062836565 0.08189381 -0.02900489 0.11483028
0003c0 92 1b 77 bd 6b 29 0b 3e 98 2b c5 3d 6f fe cb bc
       -0.060329027 0.13590018 0.096274555 -0.024901597
0003d0 66 58 b5 3d af 9c 67 3d 31 f8 3a 3e 85 64 80 bd
       0.08854751 0.05654591 0.1825874 -0.062691726
0003e0 5e 25 dd 3b c0 5d fd bd 55 4c 11 bd 2a b5 e7 bd
       0.0067488393 -0.12371397 -0.035473187 -0.11313851
0003f0 a9 1b 1b be 61 dc 42 3d a0 78 83 bd f9 0b 9b bc
       -0.1514727 0.04757345 -0.06419492 -0.018926607
